Network/Weights/ppo_actor.pth (torch, 235517 bytes, 42 tensors)

graph_embedding.att_src f4 [1, 1, 16]
0.4281172 0.09268157 0.58822113 0.34678823 -0.15508758 0.11615276 -0.58522797 0.18624426
0.047674306 -0.4935891 0.36652538 -0.23286332 0.25743228 0.045500174 0.37372324 -0.2046724
00000000: 2d32 db3e d6cf bd3d a995 163f 3a8e b13e
00000010: 47cf 1ebe 80e1 ed3d 80d1 15bf d1b6 3e3e
00000020: 2246 433d b6b7 fcbe 37a9 bb3e b973 6ebe
00000030: 2ace 833e 645e 3a3d a758 bf3e a495 51be

graph_embedding.att_dst f4 [1, 1, 16]
0.5794457 -0.41833436 0.4925482 0.015032715 0.10570633 0.14912724 0.31882578 -0.16506666
0.5256709 0.005561831 0.0046242117 -0.06497396 0.2904837 -0.39914697 -0.19504404 -0.33572984
00000000: 8e56 143f ec2f d6be 472f fc3e c74b 763c
00000010: 8f7c d83d d0b4 183e 223d a33e 3c07 29be
00000020: 5e92 063f 0540 b63b b386 973b 1111 85bd
00000030: 48ba 943e fe5c ccbe a0b9 47be c8e4 abbe

graph_embedding.att_edge f4 [1, 1, 16]
0.4644488 0.28617013 -0.47697976 0.46737492 0.5521425 -0.41725862 0.5236023 0.43104562
0.3500788 -0.5528496 0.11696981 -0.01622241 0.1845968 -0.26118746 -0.38967374 -0.18032388
00000000: 3ccc ed3e e484 923e b136 f4be c44b ef3e
00000010: 3659 0d3f eca2 d5be cd0a 063f 03b2 dc3e
00000020: 873d b33e 8d87 0dbf de8d ef3d dce4 84bc
00000030: f206 3d3e 5dba 85be 5183 c7be d3a6 38be

graph_embedding.bias f4 [16]
0.0 0.0 -3.3066516e-07 -1.0631964e-05 0.0 0.0 3.4984287e-06 0.0
8.9049905e-07 1.268693e-06 0.0 0.0 0.0 0.0 -1.2270366e-06 6.405884e-07
00000000: 0000 0000 0000 0000 4686 b1b4 f05f 32b7
00000010: 0000 0000 0000 0000 8cc6 6a36 0000 0000
00000020: a10a 6f35 f647 aa35 0000 0000 0000 0000
00000030: 0000 0000 0000 0000 a8b0 a4b5 e6f4 2b35

graph_embedding.lin_src.weight f4 [16, 15]
0.10995115 -0.016987642 0.014881638 0.0016721992 0.08935548 0.06139189 -0.020582091 0.33062634
-0.013146166 -0.27017525 -0.06906022 0.08241589 -0.11048239 -0.12660953 -0.37558514 -0.20803107
0.009296897 0.060857274 0.19917825 0.25934863 -0.23251377 0.43786615 -0.20593633 0.08922001
-0.22028372 -0.15109904 0.3089614 0.14071226 -0.061731443 -0.19652022 0.21855263 -0.004672451
-0.18149039 0.25866738 0.41991735 -0.23652537 -0.07523212 -0.27433154 -0.19368796 0.41309094
0.108573765 0.26406804 -0.34351584 -0.3797933 0.22293827 0.14902912 0.3201664 0.020774826
0.15847869 -0.01768488 0.17995852 -0.43051597 -0.085626334 -0.38457838 0.09366914 0.28655127
0.2495135 0.0049704392 0.3540648 -0.2630209 -0.40041834 -0.23879209 -0.38166443 -0.3826271
0.21299754 -0.08045267 -0.19486184 -0.10318867 -0.30974525 -0.15420873 -0.24218258 -0.15531789
0.33137983 0.118218236 0.4232295 -0.0031259165 -0.20748931 0.25777802 0.25802043 -0.20149428
0.24191071 0.07810617 0.28126752 -0.12734519 -0.25170916 -0.2756836 0.38653257 -0.2771217
-0.04182476 0.34673685 0.020393064 0.39417157 -0.3230148 0.34133723 -0.062035356 0.430426
0.40346614 -0.23276414 -0.3957797 0.2810153 -0.13671997 -0.096631974 -0.2947411 -0.36181015
-0.27935404 -0.39029723 0.2338186 -0.2009058 0.08608249 0.27679497 -0.43679708 0.09635832
0.18765995 0.17149296 -0.03329137 0.014405881 0.27113244 -0.19997637 0.37569097 -0.09305896
-0.025426805 -0.11930135 -0.24824548 -0.37197104 0.0154944565 -0.020081654 0.17744683 0.11873049
-0.054566793 0.24075043 -0.21619207 -0.41942263 0.38332123 -0.17797744 -0.14433849 0.33309665
0.25550976 -0.297505 -0.41816932 0.115596004 0.29638237 -0.28162372 -0.29864872 0.052739043
0.12387117 -0.2938071 0.19767009 0.33655924 -0.3275938 0.21321623 0.20459618 0.018223176
0.023862772 0.42239994 -0.08432098 0.016653465 -0.3619902 -0.24315277 0.11149995 -0.41593015
-0.028664844 0.20413697 -0.337198 0.048101414 0.027319387 -0.36882627 0.0971491 0.020020856
0.26963428 0.23445097 -0.28119513 -0.40469477 -0.01696052 0.13585407 -0.2390568 -0.31723797
0.33069286 -0.031477254 0.2845271 0.051167876 -0.056441694 0.37711108 0.14638244 -0.15614928
0.25847048 -0.43295217 -0.32467362 0.046080496 0.22965822 -0.16197686 0.38132414 0.15538727
0.3572463 -0.1516845 -0.37483037 0.16272712 0.26070938 0.07104579 -0.1374985 0.18495236
-0.37108162 -0.17861944 0.17107525 -0.41445228 -0.094870836 0.3713806 -0.4112912 0.25820553
-0.027566066 0.308003 -0.41027644 -0.23664244 0.37310675 -0.102581814 -0.16291833 0.25458047
-0.37353802 0.2917473 0.17971727 0.36780313 0.26350656 0.20198227 0.43385813 0.009991379
0.32935748 -0.21078154 -0.39590916 0.19900924 -0.03531566 0.30088195 -0.28466538 0.3735186
-0.026875686 -0.35584086 0.07665433 0.081583545 -0.24635883 -0.14861813 0.24918972 0.058484785
00000000: 122e e13d ab29 8bbc 1dd2 733c b22d db3a
00000010: 0200 b73d 1076 7b3d c69b a8bc db47 a93e
00000020: 0463 57bc 6954 8abe 726f 8dbd aac9 a83d
00000030: 9744 e2bd eea5 01be b24c c0be 1906 55be
00000040: 0352 183c 7a45 793d 62f5 4b3e 58c9 843e
00000050: 1718 6ebe fe2f e03e f9e0 52be fbb8 b63d
00000060: 0e92 61be b5b9 1abe 3030 9e3e e016 103e
00000070: 1cda 7cbd 993c 49be 43cc 5f3e 5c1b 99bb
00000080: 9ed8 39be 0d70 843e 68ff d63e b533 72be
00000090: 4c13 9abd 2f75 8cbe 2356 46be a880 d33e
000000a0: ec5b de3d ed33 873e 4fe1 afbe 4474 c2be
000000b0: ee49 643e 179b 183e daec a33e f82f aa3c
000000c0: 3d48 223e e2df 90bc 0c47 383e 976c dcbe
000000d0: dc5c afbd 75e7 c4be 9bd5 bf3d d9b6 923e
000000e0: 7880 7f3e 11df a23b fb47 b53e adaa 86be
000000f0: a203 cdbe ea85 74be 8569 c3be b3e7 c3be
00000100: 071c 5a3e 5fc4 a4bd dd89 47be 9554 d3bd
00000110: ee96 9ebe e5e8 1dbe b6fe 77be a70b 1fbe
00000120: 9eaa a93e 671c f23d 89b1 d83e 2ddc 4cbb
00000130: 1478 54be 7bfb 833e 411b 843e 8454 4ebe
00000140: 71b7 773e 21f6 9f3d 4c02 903e c766 02be
00000150: 06e0 80be 6726 8dbe 99e7 c53e e5e2 8dbe
00000160: 7150 2bbd 7e87 b13e 5b0f a73c dbd0 c93e
00000170: 3262 a5be c1c3 ae3e c918 7ebd cc60 dc3e
00000180: 1d93 ce3e b959 6ebe a3a3 cabe 3de1 8f3e
00000190: 5200 0cbe fce6 c5bd 4ee8 96be 2e3f b9be
000001a0: 7e07 8fbe 0ad5 c7be 256e 6f3e 40ba 4dbe
000001b0: 044c b03d 12b8 8d3e dea3 dfbe 8357 c53d
000001c0: ee29 403e da9b 2f3e 885c 08bd a506 6c3c
000001d0: dfd1 8a3e 9bc6 4cbe 915a c03e b295 bebd
000001e0: e04b d0bc 4454 f4bd 1034 7ebe fd72 bebe
000001f0: 76dc 7d3c 4882 a4bc 9fb4 353e f928 f33d
00000200: 6e81 5fbd 4887 763e 7461 5dbe 90be d6be
00000210: ae42 c43e b83f 36be 78cd 13be a58b aa3e
00000220: 2dd2 823e 9352 98be 4a1a d6be 99bd ec3d
00000230: 6ebf 973e fc30 90be 7ce8 98be e504 583d
00000240: 2bb0 fd3d e26d 96be 076a 4a3e 7e51 ac3e
00000250: 60ba a7be 5b55 5a3e a981 513e c548 953c
00000260: dc7b c33c ce44 d83e 7ab0 acbd d96c 883c
00000270: c856 b9be 0afd 78be 165a e43d ccf4 d4be
00000280: 89d2 eabc 4809 513e 37a5 acbe fd05 453d
00000290: e8cc df3c ccd6 bcbe 1bf6 c63d c702 a43c
000002a0: 810d 8a3e ea13 703e cff8 8fbe 2734 cfbe
000002b0: caf0 8abc 541d 0b3e 4ecb 74be 046d a2be
000002c0: 9350 a93e 4bee 00bd 89ad 913e 6895 513d
000002d0: 682f 67bd b414 c13e 47e5 153e 99e5 1fbe
000002e0: 3e56 843e e8ab ddbe 9f3b a6be e7be 3c3d
000002f0: 862b 6b3e 43dd 25be eb3c c33e d71d 1f3e
00000300: fde8 b63e 2e53 1bbe c4e9 bfbe f0a1 263e
00000310: b37b 853e 7580 913d 68cc 0cbe 2764 3d3e
00000320: 69fe bdbe 04e8 36be 5a2e 2f3e 1733 d4be
00000330: a44b c2bd 9925 be3e c394 d2be 8433 843e
00000340: 3bd2 e1bc 92b2 9d3e c10f d2be 6552 72be
00000350: d907 bf3e 6a16 d2bd 10d4 26be 5f58 823e
00000360: 6040 bfbe e75f 953e ce07 383e b150 bc3e
00000370: 55ea 863e 71d4 4e3e a722 de3e e2b2 233c
00000380: 8ba1 a83e 1ed7 57be 9bb4 cabe 14c9 4b3e
00000390: 27a7 10bd 330d 9a3e a9bf 91be d43d bf3e
000003a0: 662a dcbc c630 b6be f2fc 9c3d 4615 a73d
000003b0: 7d45 7cbe 5a2f 18be 972b 7f3e be8d 6f3d

graph_embedding.lin_dst.weight f4 [16, 15]
0.10995115 -0.016987642 0.014881638 0.0016721992 0.08935548 0.06139189 -0.020582091 0.33062634
-0.013146166 -0.27017525 -0.06906022 0.08241589 -0.11048239 -0.12660953 -0.37558514 -0.20803107
0.009296897 0.060857274 0.19917825 0.25934863 -0.23251377 0.43786615 -0.20593633 0.08922001
-0.22028372 -0.15109904 0.3089614 0.14071226 -0.061731443 -0.19652022 0.21855263 -0.004672451
-0.18149039 0.25866738 0.41991735 -0.23652537 -0.07523212 -0.27433154 -0.19368796 0.41309094
0.108573765 0.26406804 -0.34351584 -0.3797933 0.22293827 0.14902912 0.3201664 0.020774826
0.15847869 -0.01768488 0.17995852 -0.43051597 -0.085626334 -0.38457838 0.09366914 0.28655127
0.2495135 0.0049704392 0.3540648 -0.2630209 -0.40041834 -0.23879209 -0.38166443 -0.3826271
0.21299754 -0.08045267 -0.19486184 -0.10318867 -0.30974525 -0.15420873 -0.24218258 -0.15531789
0.33137983 0.118218236 0.4232295 -0.0031259165 -0.20748931 0.25777802 0.25802043 -0.20149428
0.24191071 0.07810617 0.28126752 -0.12734519 -0.25170916 -0.2756836 0.38653257 -0.2771217
-0.04182476 0.34673685 0.020393064 0.39417157 -0.3230148 0.34133723 -0.062035356 0.430426
0.40346614 -0.23276414 -0.3957797 0.2810153 -0.13671997 -0.096631974 -0.2947411 -0.36181015
-0.27935404 -0.39029723 0.2338186 -0.2009058 0.08608249 0.27679497 -0.43679708 0.09635832
0.18765995 0.17149296 -0.03329137 0.014405881 0.27113244 -0.19997637 0.37569097 -0.09305896
-0.025426805 -0.11930135 -0.24824548 -0.37197104 0.0154944565 -0.020081654 0.17744683 0.11873049
-0.054566793 0.24075043 -0.21619207 -0.41942263 0.38332123 -0.17797744 -0.14433849 0.33309665
0.25550976 -0.297505 -0.41816932 0.115596004 0.29638237 -0.28162372 -0.29864872 0.052739043
0.12387117 -0.2938071 0.19767009 0.33655924 -0.3275938 0.21321623 0.20459618 0.018223176
0.023862772 0.42239994 -0.08432098 0.016653465 -0.3619902 -0.24315277 0.11149995 -0.41593015
-0.028664844 0.20413697 -0.337198 0.048101414 0.027319387 -0.36882627 0.0971491 0.020020856
0.26963428 0.23445097 -0.28119513 -0.40469477 -0.01696052 0.13585407 -0.2390568 -0.31723797
0.33069286 -0.031477254 0.2845271 0.051167876 -0.056441694 0.37711108 0.14638244 -0.15614928
0.25847048 -0.43295217 -0.32467362 0.046080496 0.22965822 -0.16197686 0.38132414 0.15538727
0.3572463 -0.1516845 -0.37483037 0.16272712 0.26070938 0.07104579 -0.1374985 0.18495236
-0.37108162 -0.17861944 0.17107525 -0.41445228 -0.094870836 0.3713806 -0.4112912 0.25820553
-0.027566066 0.308003 -0.41027644 -0.23664244 0.37310675 -0.102581814 -0.16291833 0.25458047
-0.37353802 0.2917473 0.17971727 0.36780313 0.26350656 0.20198227 0.43385813 0.009991379
0.32935748 -0.21078154 -0.39590916 0.19900924 -0.03531566 0.30088195 -0.28466538 0.3735186
-0.026875686 -0.35584086 0.07665433 0.081583545 -0.24635883 -0.14861813 0.24918972 0.058484785
00000000: 122e e13d ab29 8bbc 1dd2 733c b22d db3a
00000010: 0200 b73d 1076 7b3d c69b a8bc db47 a93e
00000020: 0463 57bc 6954 8abe 726f 8dbd aac9 a83d
00000030: 9744 e2bd eea5 01be b24c c0be 1906 55be
00000040: 0352 183c 7a45 793d 62f5 4b3e 58c9 843e
00000050: 1718 6ebe fe2f e03e f9e0 52be fbb8 b63d
00000060: 0e92 61be b5b9 1abe 3030 9e3e e016 103e
00000070: 1cda 7cbd 993c 49be 43cc 5f3e 5c1b 99bb
00000080: 9ed8 39be 0d70 843e 68ff d63e b533 72be
00000090: 4c13 9abd 2f75 8cbe 2356 46be a880 d33e
000000a0: ec5b de3d ed33 873e 4fe1 afbe 4474 c2be
000000b0: ee49 643e 179b 183e daec a33e f82f aa3c
000000c0: 3d48 223e e2df 90bc 0c47 383e 976c dcbe
000000d0: dc5c afbd 75e7 c4be 9bd5 bf3d d9b6 923e
000000e0: 7880 7f3e 11df a23b fb47 b53e adaa 86be
000000f0: a203 cdbe ea85 74be 8569 c3be b3e7 c3be
00000100: 071c 5a3e 5fc4 a4bd dd89 47be 9554 d3bd
00000110: ee96 9ebe e5e8 1dbe b6fe 77be a70b 1fbe
00000120: 9eaa a93e 671c f23d 89b1 d83e 2ddc 4cbb
00000130: 1478 54be 7bfb 833e 411b 843e 8454 4ebe
00000140: 71b7 773e 21f6 9f3d 4c02 903e c766 02be
00000150: 06e0 80be 6726 8dbe 99e7 c53e e5e2 8dbe
00000160: 7150 2bbd 7e87 b13e 5b0f a73c dbd0 c93e
00000170: 3262 a5be c1c3 ae3e c918 7ebd cc60 dc3e
00000180: 1d93 ce3e b959 6ebe a3a3 cabe 3de1 8f3e
00000190: 5200 0cbe fce6 c5bd 4ee8 96be 2e3f b9be
000001a0: 7e07 8fbe 0ad5 c7be 256e 6f3e 40ba 4dbe
000001b0: 044c b03d 12b8 8d3e dea3 dfbe 8357 c53d
000001c0: ee29 403e da9b 2f3e 885c 08bd a506 6c3c
000001d0: dfd1 8a3e 9bc6 4cbe 915a c03e b295 bebd
000001e0: e04b d0bc 4454 f4bd 1034 7ebe fd72 bebe
000001f0: 76dc 7d3c 4882 a4bc 9fb4 353e f928 f33d
00000200: 6e81 5fbd 4887 763e 7461 5dbe 90be d6be
00000210: ae42 c43e b83f 36be 78cd 13be a58b aa3e
00000220: 2dd2 823e 9352 98be 4a1a d6be 99bd ec3d
00000230: 6ebf 973e fc30 90be 7ce8 98be e504 583d
00000240: 2bb0 fd3d e26d 96be 076a 4a3e 7e51 ac3e
00000250: 60ba a7be 5b55 5a3e a981 513e c548 953c
00000260: dc7b c33c ce44 d83e 7ab0 acbd d96c 883c
00000270: c856 b9be 0afd 78be 165a e43d ccf4 d4be
00000280: 89d2 eabc 4809 513e 37a5 acbe fd05 453d
00000290: e8cc df3c ccd6 bcbe 1bf6 c63d c702 a43c
000002a0: 810d 8a3e ea13 703e cff8 8fbe 2734 cfbe
000002b0: caf0 8abc 541d 0b3e 4ecb 74be 046d a2be
000002c0: 9350 a93e 4bee 00bd 89ad 913e 6895 513d
000002d0: 682f 67bd b414 c13e 47e5 153e 99e5 1fbe
000002e0: 3e56 843e e8ab ddbe 9f3b a6be e7be 3c3d
000002f0: 862b 6b3e 43dd 25be eb3c c33e d71d 1f3e
00000300: fde8 b63e 2e53 1bbe c4e9 bfbe f0a1 263e
00000310: b37b 853e 7580 913d 68cc 0cbe 2764 3d3e
00000320: 69fe bdbe 04e8 36be 5a2e 2f3e 1733 d4be
00000330: a44b c2bd 9925 be3e c394 d2be 8433 843e
00000340: 3bd2 e1bc 92b2 9d3e c10f d2be 6552 72be
00000350: d907 bf3e 6a16 d2bd 10d4 26be 5f58 823e
00000360: 6040 bfbe e75f 953e ce07 383e b150 bc3e
00000370: 55ea 863e 71d4 4e3e a722 de3e e2b2 233c
00000380: 8ba1 a83e 1ed7 57be 9bb4 cabe 14c9 4b3e
00000390: 27a7 10bd 330d 9a3e a9bf 91be d43d bf3e
000003a0: 662a dcbc c630 b6be f2fc 9c3d 4615 a73d
000003b0: 7d45 7cbe 5a2f 18be 972b 7f3e be8d 6f3d

graph_embedding.lin_edge.weight f4 [16, 2]
0.14300811 -0.03613414 0.47450036 -0.24862568 0.41261506 -0.37920707 0.3130274 0.09748073
0.5126755 0.25799108 -0.08228082 0.038050957 -0.12640445 0.3676414 0.09028397 0.010386876
-0.045904275 0.5527452 -0.01417884 -0.4964356 0.40983978 0.41881397 0.25752965 -0.22389814
-0.48612607 0.53917336 0.4055723 0.14917119 0.2766659 0.0947675 0.5624894 0.020796413
00000000: b870 123e 6401 14bd b6f1 f23e bb97 7ebe
00000010: 4842 d33e 6e27 c2be 2145 a03e faa3 c73d
00000020: b43e 033f 6817 843e d982 a8bd 52db 1b3d
00000030: 2b70 01be 7e3b bc3e cde6 b83d b72d 2a3c
00000040: 1f06 3cbd b680 0d3f 5e4e 68bc cf2c febe
00000050: 85d6 d13e c96e d63e edda 833e 8e45 65be
00000060: 84e5 f8be 4407 0a3f 2ca7 cf3e 55c0 183e
00000070: 27a7 8d3e 7715 c23d 4eff 0f3f 3d5d aa3c

norm1.module.weight f4 [16]
1.0 1.0 1.0002998 0.99989104 1.0 1.0 1.0007348 1.0
0.9967722 1.0005617 1.0 1.0 1.0 1.0 0.99935675 1.0002309
00000000: 0000 803f 0000 803f d309 803f dcf8 7f3f
00000010: 0000 803f 0000 803f 1418 803f 0000 803f
00000020: 772c 7f3f 6812 803f 0000 803f 0000 803f
00000030: 0000 803f 0000 803f d8d5 7f3f 9107 803f

norm1.module.bias f4 [16]
-0.0026245709 0.00090625416 -0.0032270078 -0.002950518 9.429829e-05 0.0033540807 0.00096169254 0.0027824773
0.0019965249 0.00143787 -0.0001081351 6.5727945e-05 -0.0024063028 0.001998058 0.0033610628 -0.0031300646
00000000: fe00 2cbb b091 6d3a 357c 53bb 7a5d 41bb
00000010: 02c2 c538 23d0 5b3b 181a 7c3a 395a 363b
00000020: 21d8 023b e976 bc3a 97c6 e2b8 6cd7 8938
00000030: 10b3 1dbb daf1 023b 4745 5c3b c521 4dbb

norm1.module.running_mean f4 [16]
0.0 0.0 57089.44 12717.355 0.0 0.0 38471.4 0.0
33294.63 17011.197 0.0 0.0 0.0 0.0 51416.145 10540.241
00000000: 0000 0000 0000 0000 7101 5f47 6cb5 4646
00000010: 0000 0000 0000 0000 6647 1647 0000 0000
00000020: a10e 0247 65e6 8446 0000 0000 0000 0000
00000030: 0000 0000 0000 0000 25d8 4847 f7b0 2446

norm1.module.running_var f4 [16]
0.005153768 0.005153768 2.9721728e+08 1.5366637e+07 0.005153768 0.005153768 1.3523613e+08 0.005153768
9.9793256e+07 2.6836492e+07 0.005153768 0.005153768 0.005153768 0.005153768 2.3643488e+08 9.843968e+06
00000000: f1e0 a83b f1e0 a83b 68b9 8d4d ed79 6a4b
00000010: f1e0 a83b f1e0 a83b a2f8 004d f1e0 a83b
00000020: 2d57 be4c 06bf cc4b f1e0 a83b f1e0 a83b
00000030: f1e0 a83b f1e0 a83b 5c7b 614d 0035 164b

graph_embedding2.att_src f4 [1, 1, 16]
-0.4167674 -0.0050685653 -0.33258355 -0.4101873 0.07389787 0.5373271 0.18609738 -0.4040277
0.03729124 -0.49976364 0.47952154 -0.18850636 -0.47530082 0.23148231 0.23859765 0.5652197
00000000: 8962 d5be 3516 a6bb 6448 aabe 1204 d2be
00000010: c457 973d 458e 093f 5090 3e3e b8dc cebe
00000020: b3be 183d 05e1 ffbe d983 f53e d007 41be
00000030: a15a f3be b309 6d3e f152 743e 3db2 103f

graph_embedding2.att_dst f4 [1, 1, 16]
0.54627025 0.28060338 0.5772256 -0.1955251 0.58818364 0.07551672 0.44709474 -0.06680871
0.44393507 -0.12603836 -0.43952772 0.25374615 0.5329792 0.48260042 0.06634374 -0.5234901
00000000: 5ed8 0b3f 3fab 8f3e 0fc5 133f bb37 48be
00000010: 3493 163f 83a8 9a3d 9ae9 e43e 01d3 88bd
00000020: 754b e33e 3310 01be c709 e1be 04eb 813e
00000030: 5371 083f 6717 f73e 3adf 873d 7203 06bf

graph_embedding2.att_edge f4 [1, 1, 16]
0.2905118 0.39724845 0.32847375 0.4933218 0.43566778 0.21742626 0.42902362 0.25053337
0.13789661 -0.23767905 -0.45556688 0.214097 -0.39795434 0.1421527 0.5653507 0.19721048
00000000: f6bd 943e 2664 cb3e b62d a83e ad94 fc3e
00000010: d90f df3e fda4 5e3e fca8 db3e e945 803e
00000020: c534 0d3e 2362 73be 1040 e9be 3e3c 5b3e
00000030: acc0 cbbe 7a90 113e d3ba 103f 8bf1 493e

graph_embedding2.bias f4 [16]
0.0026704685 0.001549935 0.0012135014 -0.0015203534 0.000629453 0.0022413353 0.00067526003 -0.0011405117
-0.0009624322 0.003117191 0.00041378904 0.0022524795 -0.0030273825 -0.0034404946 -0.0010214914 0.0012479806
00000000: 0703 2f3b 3027 cb3a 5a0e 9f3a 9846 c7ba
00000010: e001 253a 5ee3 123b ef03 313a 397d 95ba
00000020: bb4b 7cba c949 4c3b d3f1 d839 569e 133b
00000030: 0d67 46bb ec79 61bb 90e3 85ba 4893 a33a

graph_embedding2.lin_src.weight f4 [16, 16]
0.3234757 -0.11675433 -0.36654446 0.41064915 -0.19152397 -0.0360608 0.055958536 -0.23356926
-0.17224614 -0.05653941 0.076825134 -0.2619397 0.057038296 0.35135397 -0.16200708 -0.41851678
0.23920698 -0.1077151 0.24137463 0.30582708 -0.10183751 -0.18642221 0.3726267 -0.2451303
-0.3022996 0.28965595 0.18387395 0.1457885 -0.40979493 -0.3550291 0.2815875 0.057786953
0.3812615 -0.23982078 -0.014776396 0.11465159 -0.39994514 -0.0948813 -0.39074174 0.2066402
-0.37973136 0.20566998 -0.23009585 -0.1499652 -0.3004761 0.20366612 0.17623624 -0.12415596
-0.34734944 0.20678811 -0.014189965 0.08297136 0.036115464 0.032707967 0.098785415 -0.2565334
0.0859511 0.095558025 -0.04439287 -0.42802584 -0.24154201 -0.035716582 0.08275828 0.29468685
-0.05860234 -0.1174438 0.3543564 0.2889631 -0.206954 0.056636855 0.13245632 -0.07165598
0.4053875 0.14817052 0.17789057 0.2857703 -0.30999798 0.40662268 0.19597703 0.34625074
-0.13658117 -0.26897287 0.27281073 -0.15934438 0.054903194 -0.23631023 -0.068599515 0.16994521
0.25568244 0.39263424 -0.34036025 -0.3904802 0.21083248 -0.40376398 -0.110146865 -0.34821326
0.38142934 0.10925745 0.26152092 -0.07905239 0.04881753 0.18967035 0.42615122 -0.15244065
-0.40483016 -0.12045859 0.2765685 0.42441386 0.24169599 0.16599698 0.18282568 0.27239463
0.02228408 0.32534784 0.42494586 -0.02441008 0.052025527 -0.40481463 -0.0062923143 0.39730698
0.24519362 0.2603913 0.3150129 0.36450964 0.09263316 -0.040981654 -0.21301965 -0.22596103
-0.02733937 -0.42780054 0.10695509 0.31663233 -0.3217062 -0.09280032 -0.24358073 -0.25797743
0.051928718 -0.15390414 -0.11596776 0.23017876 -0.08128228 -0.30730158 -0.16624501 0.07143605
-0.31004134 0.024550034 -0.16164984 -0.42792326 -0.24835603 0.40855002 -0.012430126 0.20465966
0.18566655 0.069658495 -0.025799062 0.19539617 -0.33994693 0.26329857 0.41799137 -0.15176791
-0.16185541 -0.4018465 0.136737 0.24150948 -0.122908875 -0.18520665 -0.37289512 -0.36119857
0.22287372 -0.052545484 0.051026307 0.14431417 0.23634982 -0.04289659 0.37779495 0.3049076
0.11206217 -0.43397042 0.099592194 -0.29599983 -0.1515843 -0.3495032 0.41645485 0.16839692
-0.17363787 -0.13765746 -0.20784527 -0.17823441 0.32202253 0.0833433 0.087904654 0.3510608
0.08069342 0.11264149 0.22995603 -0.021483831 -0.20670608 -0.32479563 0.32922548 -0.36249176
0.008217285 0.289021 -0.012044344 0.15563804 0.14784454 -0.050139226 -0.15405777 0.15485992
-0.107573904 0.3290625 0.18211251 -0.18822397 -0.11087493 -0.23088633 0.0754346 -0.17674631
-0.028618574 0.20798752 0.3807877 -0.092861794 0.30555013 0.31170556 -0.3094319 -0.12752368
-0.030131664 -0.07239834 -0.11781074 -0.18584429 0.07946251 0.09104889 -0.34490818 0.0827506
-0.3539287 0.0127709545 0.40677375 0.34488356 0.34376836 0.43170527 0.0564371 0.020399213
0.006183903 -0.33945465 -0.014231212 0.41039798 -0.2544345 -0.19472966 -0.3497942 -0.0778783
0.15879469 0.072820805 0.29516527 -0.42286044 0.32239714 -0.12474494 -0.10732064 0.36625522
00000000: 9b9e a53e e51c efbd b7ab bbbe 9b40 d23e
00000010: dc1e 44be 7db4 13bd c734 653d c82c 6fbe
00000020: 4b61 30be de95 67bd 7f56 9d3d f61c 86be
00000030: fda0 693d abe4 b33e 2fe5 25be d547 d6be
00000040: adf2 743e bc99 dcbd e92a 773e 5e95 9c3e
00000050: 2f90 d0bd 77e5 3ebe edc8 be3e 7003 7bbe
00000060: 03c7 9abe c94d 943e 7449 3c3e 9549 153e
00000070: a4d0 d1be 60c6 b5be 3d2c 903e 03b2 6c3d
00000080: b534 c33e 9493 75be b218 72bc 74ce ea3d
00000090: 9cc5 ccbe 2151 c2bd 4d0f c8be 7d99 533e
000000a0: 266c c2be 279b 523e 3f9e 6bbe 7a90 19be
000000b0: 01d8 99be da8d 503e 4677 343e 7b45 febd
000000c0: c9d7 b1be 43c0 533e 077d 68bc e3ec a93d
000000d0: cfed 133d caf8 053d 0250 ca3d 5958 83be
000000e0: 2107 b03d edb3 c33d 4cd5 35bd 3426 dbbe
000000f0: ca56 77be 8d4b 12bd 2c7d a93d 32e1 963e
00000100: 0209 70bd 6086 f0bd 346e b53e f9f2 933e
00000110: c0eb 53be 0cfc 673d a1a2 073e 5fc0 92bd
00000120: f38e cf3e 03ba 173e f228 363e 7c50 923e
00000130: 0eb8 9ebe d930 d03e 34ae 483e c747 b13e
00000140: efdb 0bbe d0b6 89be d9ad 8b3e 2c2b 23be
00000150: 2ce2 603d 4ffb 71be e77d 8cbd 1e06 2e3e
00000160: cfe8 823e 5b07 c93e b343 aebe 05ed c7be
00000170: 78e4 573e 27ba cebe ae94 e1bd 0249 b2be
00000180: b54a c33e 5fc2 df3d 12e6 853e 38e6 a1bd
00000190: e4f4 473d f238 423e 7e30 da3e 6719 1cbe
000001a0: e645 cfbe feb2 f6bd 639a 8d3e c64c d93e
000001b0: 277f 773e 1dfb 293e a836 3b3e 4f77 8b3e
000001c0: 1a8d b63c fe93 a63e 8192 d93e a6f7 c7bc
000001d0: b818 553d dd43 cfbe c22f cebb d26b cb3e
000001e0: 0914 7b3e 0252 853e 5f49 a13e 02a1 ba3e
000001f0: 74b6 bd3d 61dc 27bd d321 5abe 5462 67be
00000200: d1f6 dfbc ac08 dbbe 450b db3d a21d a23e
00000210: adb6 a4be 180e bebd 3a6d 79be 9e15 84be
00000220: 35b3 543d 0c99 1dbe 8180 edbd fbb3 6b3e
00000230: 5377 a6bd a256 9dbe 223c 2abe 104d 923d
00000240: bdbd 9ebe 271d c93c 8987 25be c218 dbbe
00000250: 0b51 7ebe 782d d13e baa7 4bbc 4d92 513e
00000260: 5f1f 3e3e 1da9 8e3d 8e58 d3bc ef15 483e
00000270: 860d aebe 12cf 863e f702 d63e 0c69 1bbe
00000280: 6dbd 25be d3be cdbe c904 0c3e 434e 773e
00000290: a6b7 fbbd d0a6 3dbe 1cec bebe 05ef b8be
000002a0: 0239 643e ef39 57bd f600 513d 18c7 133e
000002b0: b005 723e 56b4 2fbd 576e c13e d91c 9c3e
000002c0: da80 e53d 5f31 debe fef6 cb3d 4a8d 97be
000002d0: ea38 1bbe 15f2 b2be 9239 d53e 3e70 2c3e
000002e0: 20ce 31be 14f6 0cbe 64d5 54be 1583 36be
000002f0: 23e0 a43e e4af aa3d 5b07 b43d 3ebe b33e
00000300: 9742 a53d 95b0 e63d 9879 6b3e dcfe afbc
00000310: c2aa 53be 9d4b a6be 3e90 a83e 8598 b9be
00000320: cba1 063c 8ffa 933e a455 45bc 945f 1f3e
00000330: 8f64 173e ca5e 4dbd 52c1 1dbe 9993 1e3e
00000340: b54f dcbd e17a a83e b47b 3a3e c9bd 40be
00000350: 6512 e3bd 776d 6cbe 757d 9a3d fcfc 34be
00000360: 8071 eabc aefa 543e 9bf6 c23e 532e bebd
00000370: 1171 9c3e df97 9f3e dc6d 9ebe 9195 02be
00000380: aed6 f6bc 9545 94bd c246 f1bd f74d 3ebe
00000390: 3ebd a23d d777 ba3d ce97 b0be 2679 a93d
000003a0: 2436 b5be 443d 513c a644 d03e 9494 b03e
000003b0: 6802 b03e 7908 dd3e 972a 673d 401c a73c
000003c0: 57a2 ca3b 00cd adbe 082a 69bc af1f d23e
000003d0: 3d45 82be 3667 47be 3a18 b3be a87e 9fbd
000003e0: 139b 223e 1323 953d e71f 973e 2a81 d8be
000003f0: 3d11 a53e 467a ffbd ecca dbbd ce85 bb3e

graph_embedding2.lin_dst.weight f4 [16, 16]
0.3234757 -0.11675433 -0.36654446 0.41064915 -0.19152397 -0.0360608 0.055958536 -0.23356926
-0.17224614 -0.05653941 0.076825134 -0.2619397 0.057038296 0.35135397 -0.16200708 -0.41851678
0.23920698 -0.1077151 0.24137463 0.30582708 -0.10183751 -0.18642221 0.3726267 -0.2451303
-0.3022996 0.28965595 0.18387395 0.1457885 -0.40979493 -0.3550291 0.2815875 0.057786953
0.3812615 -0.23982078 -0.014776396 0.11465159 -0.39994514 -0.0948813 -0.39074174 0.2066402
-0.37973136 0.20566998 -0.23009585 -0.1499652 -0.3004761 0.20366612 0.17623624 -0.12415596
-0.34734944 0.20678811 -0.014189965 0.08297136 0.036115464 0.032707967 0.098785415 -0.2565334
0.0859511 0.095558025 -0.04439287 -0.42802584 -0.24154201 -0.035716582 0.08275828 0.29468685
-0.05860234 -0.1174438 0.3543564 0.2889631 -0.206954 0.056636855 0.13245632 -0.07165598
0.4053875 0.14817052 0.17789057 0.2857703 -0.30999798 0.40662268 0.19597703 0.34625074
-0.13658117 -0.26897287 0.27281073 -0.15934438 0.054903194 -0.23631023 -0.068599515 0.16994521
0.25568244 0.39263424 -0.34036025 -0.3904802 0.21083248 -0.40376398 -0.110146865 -0.34821326
0.38142934 0.10925745 0.26152092 -0.07905239 0.04881753 0.18967035 0.42615122 -0.15244065
-0.40483016 -0.12045859 0.2765685 0.42441386 0.24169599 0.16599698 0.18282568 0.27239463
0.02228408 0.32534784 0.42494586 -0.02441008 0.052025527 -0.40481463 -0.0062923143 0.39730698
0.24519362 0.2603913 0.3150129 0.36450964 0.09263316 -0.040981654 -0.21301965 -0.22596103
-0.02733937 -0.42780054 0.10695509 0.31663233 -0.3217062 -0.09280032 -0.24358073 -0.25797743
0.051928718 -0.15390414 -0.11596776 0.23017876 -0.08128228 -0.30730158 -0.16624501 0.07143605
-0.31004134 0.024550034 -0.16164984 -0.42792326 -0.24835603 0.40855002 -0.012430126 0.20465966
0.18566655 0.069658495 -0.025799062 0.19539617 -0.33994693 0.26329857 0.41799137 -0.15176791
-0.16185541 -0.4018465 0.136737 0.24150948 -0.122908875 -0.18520665 -0.37289512 -0.36119857
0.22287372 -0.052545484 0.051026307 0.14431417 0.23634982 -0.04289659 0.37779495 0.3049076
0.11206217 -0.43397042 0.099592194 -0.29599983 -0.1515843 -0.3495032 0.41645485 0.16839692
-0.17363787 -0.13765746 -0.20784527 -0.17823441 0.32202253 0.0833433 0.087904654 0.3510608
0.08069342 0.11264149 0.22995603 -0.021483831 -0.20670608 -0.32479563 0.32922548 -0.36249176
0.008217285 0.289021 -0.012044344 0.15563804 0.14784454 -0.050139226 -0.15405777 0.15485992
-0.107573904 0.3290625 0.18211251 -0.18822397 -0.11087493 -0.23088633 0.0754346 -0.17674631
-0.028618574 0.20798752 0.3807877 -0.092861794 0.30555013 0.31170556 -0.3094319 -0.12752368
-0.030131664 -0.07239834 -0.11781074 -0.18584429 0.07946251 0.09104889 -0.34490818 0.0827506
-0.3539287 0.0127709545 0.40677375 0.34488356 0.34376836 0.43170527 0.0564371 0.020399213
0.006183903 -0.33945465 -0.014231212 0.41039798 -0.2544345 -0.19472966 -0.3497942 -0.0778783
0.15879469 0.072820805 0.29516527 -0.42286044 0.32239714 -0.12474494 -0.10732064 0.36625522
00000000: 9b9e a53e e51c efbd b7ab bbbe 9b40 d23e
00000010: dc1e 44be 7db4 13bd c734 653d c82c 6fbe
00000020: 4b61 30be de95 67bd 7f56 9d3d f61c 86be
00000030: fda0 693d abe4 b33e 2fe5 25be d547 d6be
00000040: adf2 743e bc99 dcbd e92a 773e 5e95 9c3e
00000050: 2f90 d0bd 77e5 3ebe edc8 be3e 7003 7bbe
00000060: 03c7 9abe c94d 943e 7449 3c3e 9549 153e
00000070: a4d0 d1be 60c6 b5be 3d2c 903e 03b2 6c3d
00000080: b534 c33e 9493 75be b218 72bc 74ce ea3d
00000090: 9cc5 ccbe 2151 c2bd 4d0f c8be 7d99 533e
000000a0: 266c c2be 279b 523e 3f9e 6bbe 7a90 19be
000000b0: 01d8 99be da8d 503e 4677 343e 7b45 febd
000000c0: c9d7 b1be 43c0 533e 077d 68bc e3ec a93d
000000d0: cfed 133d caf8 053d 0250 ca3d 5958 83be
000000e0: 2107 b03d edb3 c33d 4cd5 35bd 3426 dbbe
000000f0: ca56 77be 8d4b 12bd 2c7d a93d 32e1 963e
00000100: 0209 70bd 6086 f0bd 346e b53e f9f2 933e
00000110: c0eb 53be 0cfc 673d a1a2 073e 5fc0 92bd
00000120: f38e cf3e 03ba 173e f228 363e 7c50 923e
00000130: 0eb8 9ebe d930 d03e 34ae 483e c747 b13e
00000140: efdb 0bbe d0b6 89be d9ad 8b3e 2c2b 23be
00000150: 2ce2 603d 4ffb 71be e77d 8cbd 1e06 2e3e
00000160: cfe8 823e 5b07 c93e b343 aebe 05ed c7be
00000170: 78e4 573e 27ba cebe ae94 e1bd 0249 b2be
00000180: b54a c33e 5fc2 df3d 12e6 853e 38e6 a1bd
00000190: e4f4 473d f238 423e 7e30 da3e 6719 1cbe
000001a0: e645 cfbe feb2 f6bd 639a 8d3e c64c d93e
000001b0: 277f 773e 1dfb 293e a836 3b3e 4f77 8b3e
000001c0: 1a8d b63c fe93 a63e 8192 d93e a6f7 c7bc
000001d0: b818 553d dd43 cfbe c22f cebb d26b cb3e
000001e0: 0914 7b3e 0252 853e 5f49 a13e 02a1 ba3e
000001f0: 74b6 bd3d 61dc 27bd d321 5abe 5462 67be
00000200: d1f6 dfbc ac08 dbbe 450b db3d a21d a23e
00000210: adb6 a4be 180e bebd 3a6d 79be 9e15 84be
00000220: 35b3 543d 0c99 1dbe 8180 edbd fbb3 6b3e
00000230: 5377 a6bd a256 9dbe 223c 2abe 104d 923d
00000240: bdbd 9ebe 271d c93c 8987 25be c218 dbbe
00000250: 0b51 7ebe 782d d13e baa7 4bbc 4d92 513e
00000260: 5f1f 3e3e 1da9 8e3d 8e58 d3bc ef15 483e
00000270: 860d aebe 12cf 863e f702 d63e 0c69 1bbe
00000280: 6dbd 25be d3be cdbe c904 0c3e 434e 773e
00000290: a6b7 fbbd d0a6 3dbe 1cec bebe 05ef b8be
000002a0: 0239 643e ef39 57bd f600 513d 18c7 133e
000002b0: b005 723e 56b4 2fbd 576e c13e d91c 9c3e
000002c0: da80 e53d 5f31 debe fef6 cb3d 4a8d 97be
000002d0: ea38 1bbe 15f2 b2be 9239 d53e 3e70 2c3e
000002e0: 20ce 31be 14f6 0cbe 64d5 54be 1583 36be
000002f0: 23e0 a43e e4af aa3d 5b07 b43d 3ebe b33e
00000300: 9742 a53d 95b0 e63d 9879 6b3e dcfe afbc
00000310: c2aa 53be 9d4b a6be 3e90 a83e 8598 b9be
00000320: cba1 063c 8ffa 933e a455 45bc 945f 1f3e
00000330: 8f64 173e ca5e 4dbd 52c1 1dbe 9993 1e3e
00000340: b54f dcbd e17a a83e b47b 3a3e c9bd 40be
00000350: 6512 e3bd 776d 6cbe 757d 9a3d fcfc 34be
00000360: 8071 eabc aefa 543e 9bf6 c23e 532e bebd
00000370: 1171 9c3e df97 9f3e dc6d 9ebe 9195 02be
00000380: aed6 f6bc 9545 94bd c246 f1bd f74d 3ebe
00000390: 3ebd a23d d777 ba3d ce97 b0be 2679 a93d
000003a0: 2436 b5be 443d 513c a644 d03e 9494 b03e
000003b0: 6802 b03e 7908 dd3e 972a 673d 401c a73c
000003c0: 57a2 ca3b 00cd adbe 082a 69bc af1f d23e
000003d0: 3d45 82be 3667 47be 3a18 b3be a87e 9fbd
000003e0: 139b 223e 1323 953d e71f 973e 2a81 d8be
000003f0: 3d11 a53e 467a ffbd ecca dbbd ce85 bb3e

graph_embedding2.lin_edge.weight f4 [16, 2]
0.15056866 0.5315579 -0.30913103 0.4753369 0.37695366 0.18068317 -0.06624921 -0.5565043
0.21851228 0.15927356 -0.38753033 0.09714988 0.29356113 0.47128898 0.22009268 -0.26159015
0.053026173 -0.048447575 0.36071116 -0.49144942 0.05813245 -0.4579217 0.31903902 0.09732975
-0.56803656 0.030035507 -0.009644867 -0.016565852 0.10682219 -0.16715072 -0.26750985 -0.33742148
00000000: ac2e 1a3e 2e14 083f 6c46 9ebe 5c5f f33e
00000010: 1200 c13e 0205 393e aaad 87bd 1177 0ebf
00000020: afc1 5f3e 9c18 233e 606a c6be 84f6 c63d
00000030: a54d 963e ca4c f13e fa5f 613e 25ef 85be
00000040: f931 593d f770 46bd 22af b83e 429f fbbe
00000050: 4b1c 6e3d b774 eabe 1559 a33e d254 c73d
00000060: d86a 11bf 060d f63c 8105 1ebc 1cb5 87bc
00000070: 98c5 da3d 8f29 2bbe 0df7 88be 82c2 acbe

norm_lin1.weight f4 [16]
0.997466 0.9974292 1.001334 0.9983062 0.9981235 1.001049 0.99878204 1.0019865
0.9978224 1.0000081 1.0002725 1.0021043 0.9999849 1.0006793 0.99704224 1.001876
00000000: ef59 7f3f 8557 7f3f b62b 803f ff90 7f3f
00000010: 0685 7f3f 6022 803f 2eb0 7f3f 1841 803f
00000020: 4a71 7f3f 4400 803f ee08 803f f444 803f
00000030: 03ff 7f3f 4216 803f 293e 7f3f 793d 803f

norm_lin1.bias f4 [16]
-0.0037396348 0.0011036553 -0.0011961504 -0.0010620112 -1.2392631e-05 -0.0021480555 0.0017019203 -0.00013969338
0.0018781011 0.00043771337 0.0011251103 0.0011508621 -0.0025709688 0.0030915993 0.0020810775 0.00016904135
00000000: a914 75bb 87a8 903a 26c8 9cba 2f33 8bba
00000010: f2e9 4fb7 64c6 0cbb f812 df3a a87a 12b9
00000020: 9e2a f63a e57c e539 7078 933a 86d8 963a
00000030: b37d 28bb 6e9c 4a3b b062 083b b140 3139

norm_lin1.running_mean f4 [16]
0.22792324 1.0221051 0.13399208 0.59407 1.5330776 0.1912992 0.44148853 0.37821463
0.008104516 0.034377445 0.7033108 0.2856681 0.68616647 0.059137538 0.29695237 0.43805403
00000000: b664 693e 57d4 823f 3835 093e f914 183f
00000010: e33b c43f f0e3 433e c90a e23e 59a5 c13e
00000020: cec8 043c 5dcf 0c3d 2d0c 343f 1743 923e
00000030: 9ba8 2f3f 343a 723d 240a 983e 9e48 e03e

norm_lin1.running_var f4 [16]
0.028806057 0.5591615 0.013486103 0.19218415 1.2508937 0.024721213 0.10847216 0.08118543
0.0052072937 0.006508772 0.26733664 0.048665542 0.25477335 0.006828215 0.0472893 0.10708856
00000000: aefa eb3c 3525 0f3f d1f4 5c3c eccb 443e
00000010: 491d a03f 2484 ca3c a726 de3d 8c44 a63d
00000020: f2a1 aa3b 8947 d53b 59e0 883e 8555 473d
00000030: a771 823e 38bf df3b 6db2 413d 3f51 db3d

lin_1.weight f4 [16, 16]
-0.043044146 0.2912617 -0.26389349 0.067030735 -0.21096292 0.17042638 0.248636 -0.10290686
0.25229302 0.17179932 -0.22890405 -0.5564851 0.12340126 -0.3941845 0.067700244 -0.24916472
0.14003758 -0.32342476 -0.39392757 -0.21930866 0.09768106 -0.2910805 -0.0021597135 0.2950967
-0.01974205 0.12733217 -0.2873389 -0.37067378 -0.08222784 0.3736409 -0.33267468 -0.022099013
0.15095225 -0.25339487 0.037733782 -0.02191155 -0.060382146 -0.09152819 -0.18612376 -0.58558065
-0.032635067 -0.39628026 -0.19978492 -0.18009308 -0.3650576 0.093162425 0.22857425 -0.32012916
-0.13304135 0.67583257 0.12443429 -0.023432195 0.27534205 -0.21649115 -0.01493703 0.09554282
-0.026944038 0.051666792 0.110764615 -0.19771157 -0.35689393 0.3806755 0.1758745 -0.1450464
-0.37401113 -0.10975519 -0.18615253 -0.01913772 0.5534904 0.31235152 -0.23623273 -0.17345376
0.09882645 -0.20263408 0.10863143 -0.318404 0.16068318 0.01965727 0.06168903 0.3524982
0.50010157 0.17880122 -0.36158943 0.35721037 0.04087574 -0.13866225 0.22729367 -0.25034165
-0.06256982 -0.17655827 0.2896551 -0.0040234546 0.34742117 0.2563687 0.03026152 0.14289922
0.054764777 -0.14206997 0.47795105 -0.39542168 -0.087747514 0.16022226 0.4195966 0.04600452
0.18346731 -0.18120006 0.12245147 -0.24952573 0.31350383 0.35074338 0.12166302 -0.06220382
0.21015549 0.16596942 0.0565165 -0.19730037 -0.12007569 0.24657553 -0.44220936 -0.28694943
-0.012974652 0.5116049 -0.26399305 0.059825625 0.26955783 0.30968994 0.122087166 0.10716668
0.33827883 -0.1372762 -0.06569442 -0.06254336 -0.14297614 0.3148811 -0.25493118 0.17676786
0.115723506 0.1649401 0.6468497 -0.24032675 -0.34393898 -0.069145985 0.019730005 -0.04379439
-0.01196845 -0.15522411 0.37238976 0.48891255 0.021295676 0.16854955 0.2818043 -0.20234811
-0.23449929 0.31465584 -0.09068754 -0.25674802 -0.26846752 0.11969257 -0.2559746 0.2622208
0.062265065 0.108234525 0.3114419 0.3020151 -0.07526762 -0.17422807 -0.3939139 0.04113764
0.5673201 -0.20907941 -0.03821593 -0.0953193 0.1383524 0.04155148 -0.45059574 -0.028431194
0.27326646 0.14951271 0.19906779 -0.35869136 0.38591647 -0.069662094 -0.012234657 -0.23493603
-0.31621793 0.0353431 0.1039069 -0.07103009 0.12061356 -0.3612669 -0.4716266 -0.20146717
-0.28639075 0.26242852 -0.22061694 -0.25794104 -0.48237473 0.20185909 0.051362716 -0.22356018
-0.12810059 -0.24960311 0.10634814 0.056600343 -0.15172414 0.18019578 -0.46713465 0.20030393
0.1201804 0.124548465 0.13417904 0.16035329 -0.1836608 0.17763741 -0.29097727 0.4046361
-0.55563825 -0.37518588 -0.18151218 -0.290615 0.18681873 -0.040999617 0.0938548 0.019223507
0.41984847 0.17733246 0.058988534 -0.23194158 0.06549688 0.0125864465 0.11637325 0.08067981
0.22274087 -0.18260862 -0.30272523 0.017578969 -0.3120831 -0.22514129 0.106444694 0.61352295
-0.18282345 -0.06881235 0.12672448 -0.1266169 -0.2809612 -0.6306129 -0.13774548 -0.15476334
-0.12391702 0.14802352 0.24772073 -0.3101394 0.13541284 -0.18573381 0.1773268 0.36040673
00000000: 0f4f 30bd 4120 953e 0c1d 87be 6947 893d
00000010: aa06 58be 4184 2e3e 709a 7e3e d5c0 d2bd
00000020: 8d2c 813e 29ec 2f3e d365 6abe cf75 0ebf
00000030: cdb9 fc3d 8dd2 c9be 6da6 8a3d 0925 7fbe
00000040: 0366 0f3e ee97 a5be e0b0 c9be 7392 60be
00000050: 020d c83d 8108 95be fb89 0dbb ea16 973e
00000060: 14ba a1bc 5d63 023e 161e 93be f4c8 bdbe
00000070: 1267 a8bd dc4d bf3e 5654 aabe fd08 b5bc
00000080: 3a93 1a3e f9bc 81be bd8e 1a3d da7f b3bc
00000090: 4553 77bd 2273 bbbd 3a97 3ebe 9de8 15bf
000000a0: 59ac 05bd 3fe5 cabe 6b94 4cbe 526a 38be
000000b0: d4e8 babe f1cb be3d 5e0f 6a3e f8e7 a3be
000000c0: fe3b 08be 5d03 2d3f 68d7 fe3d e0f4 bfbc
000000d0: a2f9 8c3e dbaf 5dbe 72ba 74bc f4ab c33d
000000e0: beb9 dcbc 8fa0 533d 8fd8 e23d e774 4abe
000000f0: cdba b6be e6e7 c23e 7218 343e 0b87 14be
00000100: 637e bfbe 54c7 e0bd c59e 3ebe b5c6 9cbc
00000110: 8cb1 0d3f 8aec 9f3e fee6 71be dd9d 31be
00000120: 8665 ca3d 4f7f 4fbe 287a de3d d905 a3be
00000130: 228a 243e 4808 a13c a3ad 7c3d a57a b43e
00000140: a806 003f ab17 373e 4022 b9be 47e4 b63e
00000150: 526d 273d 7afd 0dbe acbf 683e c82c 80be
00000160: 9b24 80bd b1cb 34be ac4d 943e 2fd7 83bb
00000170: 30e1 b13e c242 833e 02e7 f73c 2c54 123e
00000180: 0851 603d ca7a 11be 00b6 f43e b674 cabe
00000190: f8b4 b3bd 4e11 243e 5ed5 d63e 3c6f 3c3d
000001a0: dbde 3b3e 828c 39be d6c7 fa3d ac83 7fbe
000001b0: 9383 a03e a394 b33e 762a f93d 6fc9 7ebd
000001c0: 0033 573e e3f3 293e d87d 673d 1c09 4abe
000001d0: 3eea f5bd 4c7e 7c3e 4469 e2be 09eb 92be
000001e0: a393 54bc 8af8 023f 192a 87be b70b 753d
000001f0: 7c03 8a3e ae8f 9e3e d608 fa3d 347a db3d
00000200: e232 ad3e 2292 0cbe cc8a 86bd bc16 80bd
00000210: 5668 12be 1838 a13e 5786 82be a202 353e
00000220: 7200 ed3d 0fe6 283e f197 253f 3718 76be
00000230: c518 b0be 699c 8dbd d2a0 a13c bf61 33bd
00000240: 5117 44bc 12f3 1ebe dfa9 be3e bf52 fa3e
00000250: 4574 ae3c 4198 2c3e a748 903e 5834 4fbe
00000260: 9520 70be 921a a13e 64ba b9bd 7a74 83be
00000270: 9374 89be 6121 f53d 1a0f 83be ce41 863e
00000280: a709 7f3d 10aa dd3d 5075 9f3e b9a1 9a3e
00000290: e925 9abd d868 32be 15af c9be f17f 283d
000002a0: e43b 113f ea18 56be 4f88 1cbd c436 c3bd
000002b0: 40ac 0d3e e231 2a3d 7cb4 e6be 89e8 e8bc
000002c0: 95e9 8b3e dc19 193e 6dd8 4b3e 65a6 b7be
000002d0: d896 c53e 00ab 8ebd df73 48bc 1293 70be
000002e0: 51e7 a1be edc3 103d 24cd d43d 3978 91bd
000002f0: 3e04 f73d faf7 b8be 0b79 f1be 694d 4ebe
00000300: cfa1 92be 085d 863e 68e9 61be d910 84be
00000310: d2f9 f6be 26b4 4e3e b661 523d f6ec 64be
00000320: cd2c 03be f597 7fbe 0ecd d93d c3d5 673d
00000330: 935d 1bbe 3e85 383e 462c efbe 791c 4d3e
00000340: 2421 f63d 4413 ff3d 3b66 093e a733 243e
00000350: 9411 3cbe 95e6 353e f9fa 94be 772c cf3e
00000360: 4f3e 0ebf 5d18 c0be 54de 39be 7dcb 94be
00000370: 694d 3f3e 37ef 27bd f236 c03d 9e7a 9d3c
00000380: 61f6 d63e a496 353e f69d 713d 1882 6dbe
00000390: 3a23 863d 6237 4e3c 1955 ee3d 753b a53d
000003a0: 2f16 643e c1fd 3abe cdfe 9abe c501 903c
000003b0: 5bc9 9fbe 708b 66be adff d93d d70f 1d3f
000003c0: 1236 3bbe 7ded 8cbd 10c4 013e dca7 01be
000003d0: 25da 8fbe d96f 21bf 270d 0dbe 487a 1ebe
000003e0: 35c8 fdbd 7a93 173e 81aa 7d3e 97ca 9ebe
000003f0: aaa9 0a3e 0131 3ebe 2895 353e 3b87 b83e

lin_1.bias f4 [16]
-0.0008357611 0.0035192382 0.0011617754 0.002391719 -0.002685221 0.00067315914 0.0034941435 -0.0022438862
-0.003942838 -0.0010981451 -0.00023438403 -0.0029541657 0.0022566307 -0.0033588572 -0.0013385274 -0.0008091926
00000000: fa16 5bba 05a3 663b b746 983a 63be 1c3b
00000010: 88fa 2fbb f276 303a 00fe 643b 2a0e 13bb
00000020: ec32 81bb a3ef 8fba fcc4 75b9 ad9a 41bb
00000030: fbe3 133b 4620 5cbb 8771 afba ff1f 54ba

norm_lin2.weight f4 [32]
0.9956506 1.0007092 1.0027106 0.99851435 0.9969955 0.9979872 1.0029057 1.0014501
0.9981065 0.99919724 0.99958205 0.99804085 1.0016114 0.9992288 0.9984364 1.004576
0.99846023 0.99833363 1.000504 1.0018812 1.0004859 0.9991447 1.000846 0.9964969
1.0018237 1.0025911 0.99817973 1.0021756 1.0010314 0.9992189 1.0020407 0.9981217
00000000: f5e2 7e3f 3d17 803f d258 803f a39e 7f3f
00000010: 193b 7f3f 177c 7f3f 375f 803f 842f 803f
00000020: e883 7f3f 64cb 7f3f 9ce4 7f3f 9b7f 7f3f
00000030: cd34 803f 75cd 7f3f 8799 7f3f f295 803f
00000040: 179b 7f3f cb92 7f3f 8410 803f a53d 803f
00000050: ec0f 803f f2c7 7f3f b91b 803f 6c1a 7f3f
00000060: c23b 803f e854 803f b588 7f3f 4a47 803f
00000070: cc21 803f cfcc 7f3f df42 803f e784 7f3f

norm_lin2.bias f4 [32]
0.0017348762 0.0037336007 0.0023178924 -0.0031821094 0.004098305 0.0031539209 0.0032606374 0.0035553784
-0.003472875 0.002298808 0.0006424745 0.0029645648 -0.0019720574 -0.0015982036 -0.0024258033 0.0038026122
0.0019556454 0.0030927407 0.0030499122 -0.00090339454 0.00013357328 0.00077872357 0.0014014555 0.0034725042
-0.0019871523 0.003167437 0.0023699857 -3.8082304e-05 -0.00010853699 0.0026499736 0.0013316923 0.00146756
00000000: c964 e33a 6daf 743b c8e7 173b f08a 50bb
00000010: 134b 863b 03b2 4e3b 6bb0 553b 5a01 693b
00000020: 2d99 63bb 99a7 163b bc6b 283a 2549 423b
00000030: a23d 01bb d07a d1ba 3afa 1ebb 3f35 793b
00000040: 492a 003b 94af 4a3b 09e1 473b c8d1 6cba
00000050: ce0f 0c39 4123 4c3a 0bb1 b73a f492 633b
00000060: e23a 02bb c694 4f3b c351 1b3b 90ba 1fb8
00000070: 5a9e e3b8 2eab 2d3b 2e8c ae3a 245b c03a

norm_lin2.running_mean f4 [32]
0.06483044 0.49918437 1.1533142 0.16899581 0.5750689 0.44949603 0.37921068 0.7300557
0.23663206 0.1332682 0.20525825 0.14252283 0.38397783 0.18855609 0.1092142 0.4570102
0.22792324 1.0221051 0.13399208 0.59407 1.5330776 0.1912992 0.44148853 0.37821463
0.008104516 0.034377445 0.7033108 0.2856681 0.68616647 0.059137538 0.29695237 0.43805403
00000000: d2c5 843d 1895 ff3e cd9f 933f 3d0d 2d3e
00000010: b737 133f 5824 e63e e727 c23e eee4 3a3f
00000020: ad4f 723e 7677 083e 382f 523e 81f1 113e
00000030: be98 c43e d914 413e b2ab df3d 3efd e93e
00000040: b664 693e 57d4 823f 3835 093e f914 183f
00000050: e33b c43f f0e3 433e c90a e23e 59a5 c13e
00000060: cec8 043c 5dcf 0c3d 2d0c 343f 1743 923e
00000070: 9ba8 2f3f 343a 723d 240a 983e 9e48 e03e

norm_lin2.running_var f4 [32]
0.03830183 0.5079797 2.6101718 0.07965406 0.18810494 0.11693441 0.3141259 1.1307232
0.11870231 0.06363691 0.26630238 0.020722017 0.08747477 0.03322572 0.08586751 0.43191946
0.028806057 0.5591615 0.013486103 0.19218415 1.2508937 0.024721213 0.10847216 0.08118543
0.0052072937 0.006508772 0.26733664 0.048665542 0.25477335 0.006828215 0.0472893 0.10708856
00000000: 61e2 1c3d f50a 023f 0e0d 2740 ab21 a33d
00000010: 959e 403e 4f7b ef3d 1cd5 a03e 8abb 903f
00000020: 321a f33d 1154 823d c958 883e 38c1 a93c
00000030: f925 b33d b117 083d 4edb af3d 8c24 dd3e
00000040: aefa eb3c 3525 0f3f d1f4 5c3c eccb 443e
00000050: 491d a03f 2484 ca3c a726 de3d 8c44 a63d
00000060: f2a1 aa3b 8947 d53b 59e0 883e 8555 473d
00000070: a771 823e 38bf df3b 6db2 413d 3f51 db3d

lin_2.weight f4 [16, 32]
0.07150115 -0.02719317 -0.05767341 -0.12465682 0.25738138 0.06736767 0.21931393 0.038753044
0.030366398 -0.2158268 0.0023266273 0.078520976 -0.54510134 0.037843615 -0.018753603 0.29854453
0.11297622 0.14798155 -0.021238953 0.3322491 0.12029924 0.13417944 -0.03919973 0.050561108
-0.0070269248 0.20168255 -0.12560797 -0.2595981 -0.24328046 -0.026930572 -0.097445644 -0.19692835
0.41618764 0.08302434 -0.2138214 0.11781809 0.11087492 0.1969328 0.22177926 0.017931484
0.015215978 0.060988136 -0.0954643 -0.1571466 0.027498886 0.109722696 0.13861653 -0.1989621
0.24464677 -0.008594385 -0.019061534 -0.17702276 -0.21705456 -0.07317437 -0.32269612 -0.1248489
-0.3269227 0.2523823 0.06792552 -0.089188 0.20172359 -0.13577797 -0.21172968 -0.012432363
0.08518661 0.10258727 -0.18342398 0.3251524 0.046461802 -0.014253493 -0.4406818 0.010114842
-0.2067718 0.06313265 -0.1644699 0.009295359 0.05668507 -0.016027773 0.03152893 0.09068311
-0.16379875 0.1436272 -0.13929662 0.052375823 0.0057893 -0.32824144 -0.2582808 0.15662758
-0.11005049 0.17724143 -0.23464294 0.064590774 -0.38506803 0.11959867 0.1334161 -0.090418346
0.00598274 0.15554 -0.33975214 -0.04018141 0.035681877 -0.07874425 -0.21355742 -0.097580716
-0.07481284 0.32221517 -0.019464703 0.11143889 -0.18630685 0.020727176 -0.09544645 0.12641087
0.040741682 0.090074055 -0.1360997 -0.0089674555 0.07183524 0.29789025 -0.08572157 -0.08868278
0.1656901 -0.06645586 -0.023256283 0.26918626 0.21599671 -0.5566731 0.11132865 -0.052575447
-0.27744874 -0.029397253 -0.13846341 -0.014965298 -0.1840593 -0.13054562 0.08890314 -0.06992939
-0.06785491 0.050201584 0.22608684 -0.2954192 -0.1190111 0.2396723 -0.21950588 -0.14147563
-0.123596564 0.0289042 0.19696164 0.34696588 -0.0009132268 -0.15073681 -0.31422597 -0.37360355
-0.011343648 -0.0053246743 0.014266751 0.22932543 -0.072751686 0.080405034 -0.2292864 0.009033732
0.14548048 -0.14145376 -0.100953884 0.20766088 0.027587237 -0.08891391 -0.05329433 -0.004614643
0.062839925 -0.2055697 0.040417805 -0.16750236 0.09477448 -0.24531761 -0.061912574 0.021008495
-0.22940502 -0.1225787 0.0019881146 0.29079592 -0.2510426 -0.10415945 0.05396649 0.06747065
0.42769748 0.19160089 -0.22213578 -0.14304672 0.44040993 -0.08908423 -0.08538729 -0.11995423
0.20519957 0.19824336 0.23477033 -0.20387779 0.11420149 0.15589952 -0.15453471 0.14482605
-0.04484427 0.22371185 -0.3179719 -0.04456968 -0.13366398 0.020739855 -0.34457424 -0.051280152
-0.09987797 0.18716179 0.16364694 0.07617539 -0.0087610865 -0.044033635 0.29425964 -0.026392434
-0.06287328 0.1572912 0.0036976456 0.27456698 0.24030833 0.27313912 -0.140904 -0.1549369
0.12627062 0.018398022 0.21819662 0.080969825 0.0035664274 0.055780936 0.21617459 -0.048846588
-0.27263296 0.13633667 0.37692502 0.0512823 -0.1356722 -0.03385023 -0.22155216 0.19676027
-0.15455602 0.28207865 0.16579744 -0.0913119 -0.1590184 -0.1839663 -0.082240075 0.18742672
0.0010395459 0.12976143 0.10291172 -0.059428867 0.0856803 -0.11422351 0.25262943 0.42102647
00000000: 326f 923d 36c4 debc f43a 6cbd 134c ffbd
00000010: 7ec7 833e 10f8 893d d593 603e 83bb 1e3d
00000020: f4c2 f83c b301 5dbe 547a 183b 9bcf a03d
00000030: c38b 0bbf e801 1b3d 28a1 99bc d4da 983e
00000040: 1460 e73d 7a88 173e 50fd adbc 8e1c aa3e
00000050: 735f f63d 5666 093e e58f 20bd 2a19 4f3d
00000060: 1e42 e6bb df85 4e3e 609f 00be 0bea 84be
00000070: 831e 79be 819d dcbc 9591 c7bd 96a7 49be
00000080: 8c16 d53e aa08 aa3d fff3 5abe 9c4a f13d
00000090: 6412 e33d c0a8 493e 1a1a 633e 0ce5 923c
000000a0: 704c 793c b2ce 793d c982 c3bd 0aeb 20be
000000b0: 5845 e13c 4bb6 e03d 7ef1 0d3e b9bc 4bbe
000000c0: af84 7a3e 77cf 0cbc ef26 9cbc 7445 35be
000000d0: 8d43 5ebe 72dc 95bd 6d38 a5be c8b0 ffbd
000000e0: 6a62 a7be 4138 813e 891c 8b3d 33a8 b6bd
000000f0: a190 4e3e 6109 0bbe aacf 58be 1cb1 4bbc
00000100: 5176 ae3d 4619 d23d 7fd3 3bbe 607a a63e
00000110: bb4e 3e3d 7c87 69bc 0ba1 e1be b9b8 253c
00000120: fdbb 53be b14b 813d cc6a 28be 904b 183c
00000130: 9b2e 683d ad4c 83bc 7b24 013d 11b8 b93d
00000140: dcba 27be 0213 133e c6a3 0ebe 0888 563d
00000150: 2bb4 bd3b 430f a8be 623d 84be fb62 203e
00000160: 2762 e1bd c77e 353e 3d46 70be 2b48 843d
00000170: a327 c5be 26f0 f43d 3b9e 083e 412d b9bd
00000180: dc0a c43b e145 1f3e fef3 adbe 4395 24bd
00000190: 2927 123d aa44 a1bd ccae 5abe 66d8 c7bd
000001a0: 7937 99bd 63f9 a43e 7174 9fbc 133a e43d
000001b0: 39c7 3ebe 0acc a93c 6e79 c3bd da71 013e
000001c0: c0e0 263d bf78 b83d b85d 0bbe 3cec 12bc
000001d0: 5b1e 933d 1285 983e ca8e afbd 519f b5bd
000001e0: aaaa 293e 031a 88bd f683 bebc c8d2 893e
000001f0: 3e2e 5d3e 2182 0ebf 4600 e43d 5a59 57bd
00000200: c30d 8ebe 82d2 f0bc 5ac9 0dbe 0231 75bc
00000210: 0b7a 3cbe c0ad 05be d912 b63d 2437 8fbd
00000220: 84f7 8abd 2da0 4d3d 4f83 673e 2f41 97be
00000230: 17bc f3bd a86c 753e 26c6 60be fdde 10be
00000240: 3220 fdbd 80c8 ec3c 50b0 493e 83a5 b13e
00000250: 9d65 6fba c05a 1abe 3ae2 a0be f748 bfbe
00000260: b5da 39bc 9b7a aebb 17bf 693c 49d4 6a3e
00000270: d6fe 94bd 65ab a43d 0eca 6abe 3802 143c
00000280: d6f8 143e 41d9 10be e9c0 cebd 0ea5 543e
00000290: a1fe e13c 7f18 b6bd 284b 5abd 6e36 97bb
000002a0: 38b2 803d dd80 52be 248d 253d bd85 2bbe
000002b0: 1f19 c23d 8a34 7bbe 0a98 7dbd 021a ac3c
000002c0: 26e9 6abe 8b0a fbbd 074b 023b 34e3 943e
000002d0: a888 80be 8d51 d5bd f70b 5d3d 0d2e 8a3d
000002e0: 2afb da3e 0633 443e 9077 63be d77a 12be
000002f0: 697d e13e cb71 b6bd 88df aebd 90aa f5bd
00000300: d61f 523e 4f00 4b3e a267 703e 57c5 50be
00000310: 79e2 e93d 20a4 1f3e 593e 1ebe 484d 143e
00000320: a0ae 37bd b814 653e 36cd a2be b28e 36bd
00000330: 36df 08be a1e6 a93c 096c b0be 230b 52bd
00000340: d28c ccbd 57a7 3f3e 1093 273e d801 9c3d
00000350: a98a 0fbc 9d5c 34bd 33a9 963e f234 d8bc
00000360: b5c3 80bd f210 213e 3354 723b 0b94 8c3e
00000370: 6313 763e e4d8 8b3e 2349 10be c7a7 1ebe
00000380: 164d 013e 73b7 963c ef6e 5f3e 82d3 a53d
00000390: b9ba 693b 8d7a 643d df5c 5d3e 5c13 48bd
000003a0: 8c96 8bbe d79b 0b3e 51fc c03e 640d 523d
000003b0: a7ed 0abe 8aa6 0abd 92de 62be 867b 493e
000003c0: ef43 1ebe 9d6c 903e cec6 293e bc01 bbbd
000003d0: b8d5 22be a961 3cbe 7c6d a8bd caec 3f3e
000003e0: 5f41 883a 2ee0 043e 61c3 d23d af6b 73bd
000003f0: 2779 af3d 04ee e9bd a558 813e c890 d73e

lin_2.bias f4 [16]
0.002820638 0.0016650452 -0.0007386025 0.00044139166 -0.0022417624 -0.001715519 0.0031462493 0.0031119229
0.0007703644 -0.0025488306 0.0043223356 0.002707212 0.00017610722 -0.0031810515 0.002051601 -0.0020796005
00000000: 74da 383b a53d da3a c69e 41ba 966a e739
00000010: 88ea 12bb 44db e0ba 4e31 4e3b 67f1 4b3b
00000020: 48f2 493a 480a 27bb 61a2 8d3b 7b6b 313b
00000030: 6ca9 3839 3079 50bb 2774 063b e849 08bb

norm_lin3.weight f4 [32]
0.997262 1.0022619 1.0012356 0.99734336 0.99792 0.99783564 1.0031337 1.0010291
0.9986544 0.99693567 0.9988024 1.0032216 1.0020558 0.99533504 1.0028284 0.9986232
0.99720556 0.99763995 0.9975547 1.0024682 0.99938494 0.9978611 0.9985175 0.99732363
0.9962734 0.99787164 0.99860203 1.0005088 0.9987019 0.9995585 0.9978271 0.99702096
00000000: 904c 7f3f 1e4a 803f 7d28 803f e551 7f3f
00000010: af77 7f3f 2872 7f3f af66 803f b921 803f
00000020: d1a7 7f3f 2d37 7f3f 84b1 7f3f 9169 803f
00000030: 5d43 803f 47ce 7e3f ae5c 803f c5a5 7f3f
00000040: dd48 7f3f 5565 7f3f bf5f 7f3f e150 803f
00000050: b1d7 7f3f d373 7f3f d89e 7f3f 9a50 7f3f
00000060: c60b 7f3f 8474 7f3f 62a4 7f3f ac10 803f
00000070: edaa 7f3f 11e3 7f3f 9971 7f3f c43c 7f3f

norm_lin3.bias f4 [32]
-0.0026446444 0.00025391945 -0.0028323706 -0.00084460457 0.00040964948 0.002688062 0.0039230697 0.0013719893
0.0034296804 0.003320276 0.0009214919 -0.0020634877 -0.0025957332 0.0025165456 0.003246432 -0.0025808616
0.0030004773 -0.0012452134 -0.0022901453 -0.0025969227 -0.0017825752 0.0020927517 0.003998836 -0.0028746
0.0030688364 0.0018665494 0.003650236 0.0019189011 0.001406956 -0.0015117361 0.0007837679 0.0013089674
00000000: c551 2dbb 7e20 8539 4b9f 39bb 7468 5dba
00000010: 39c6 d639 322a 303b 188d 803b 52d4 b33a
00000020: 7dc4 603b fd98 593b 4690 713a 943b 07bb
00000030: 2d1d 2abb a1ec 243b 17c2 543b ac23 29bb
00000040: a8a3 443b 6e36 a3ba 4316 16bb 2231 2abb
00000050: 4ca5 e9ba 8c26 093b ab08 833b c963 3cbb
00000060: 881e 493b 01a7 f43a cc38 6f3b a383 fb3a
00000070: 9c69 b83a 7225 c6ba c675 4d3a a891 ab3a

norm_lin3.running_mean f4 [32]
0.28398383 0.28795266 0.3106179 0.66260636 0.13706654 0.19090015 0.3518363 0.20329349
0.1698714 0.1845407 0.63189363 0.6538814 0.6313687 0.43402582 0.65487975 0.61184454
0.22792324 1.0221051 0.13399208 0.59407 1.5330776 0.1912992 0.44148853 0.37821463
0.008104516 0.034377445 0.7033108 0.2856681 0.68616647 0.059137538 0.29695237 0.43805403
00000000: 5466 913e 886e 933e 4f09 9f3e 92a0 293f
00000010: 2c5b 0c3e 547b 433e e323 b43e 2b2c 503e
00000020: c5f2 2d3e 3df8 3c3e c8c3 213f c564 273f
00000030: 61a1 213f a238 de3e 33a6 273f d8a1 1c3f
00000040: b664 693e 57d4 823f 3835 093e f914 183f
00000050: e33b c43f f0e3 433e c90a e23e 59a5 c13e
00000060: cec8 043c 5dcf 0c3d 2d0c 343f 1743 923e
00000070: 9ba8 2f3f 343a 723d 240a 983e 9e48 e03e
