Network/Weights/ppo_actor.pth (torch, 235517 bytes, 42 tensors)

graph_embedding.att_src f4 [1, 1, 16]
0	0x3ef1593b	0.4713839
1	0x3f099547	0.53743404
2	0x3e759af9	0.23984899
3	0xbe7f99f1	-0.24961068
4	0xbe60df52	-0.2196019
5	0x3ce36f62	0.027763072
6	0x3efd58ab	0.4948171
7	0x3e2982e0	0.16553831
8	0xbed71ea0	-0.42015553
9	0x3eb40c11	0.35165456
10	0xbf04218e	-0.516137
11	0xbd33a1ac	-0.043855354
12	0xbefb5654	-0.490893
13	0xbe41dd4c	-0.18932074
14	0xbe5f6b46	-0.21818265
15	0xbe8f477a	-0.2798422

graph_embedding.att_dst f4 [1, 1, 16]
0	0xbf0daa2b	-0.5533778
1	0xbdaabf8f	-0.08337318
2	0xbe6da07d	-0.23205753
3	0x3debacdd	0.115075804
4	0x3dc50f58	0.09622067
5	0xbec3951f	-0.38199708
6	0xbeb37655	-0.35051218
7	0xbecb79ff	-0.39741513
8	0x3ecc6599	0.39921263
9	0x3e76b12d	0.24091025
10	0x3e83ed17	0.25766823
11	0x3da9ccad	0.08290992
12	0xbeb1a3e5	-0.34695354
13	0xbe839e5e	-0.25706762
14	0xbdc2eb61	-0.09517551
15	0x3f068fd8	0.5256324

graph_embedding.att_edge f4 [1, 1, 16]
0	0x3df3d36c	0.1190556
1	0xbe891b0e	-0.26778454
2	0xbec9c6c9	-0.39409474
3	0xbefa6d83	-0.48911676
4	0x3d72f43a	0.059314944
5	0xbecae714	-0.39629424
6	0x3e0ab91e	0.13547179
7	0xbe963891	-0.29340032
8	0x3e39b844	0.18136698
9	0xbf02c974	-0.51088643
10	0x3eff8306	0.4990465
11	0xbe23ece2	-0.16008332
12	0x3bc3a444	0.0059705097
13	0x3e8783e8	0.26467824
14	0xbbf20bae	-0.0073866462
15	0xbeabeb74	-0.33578074

graph_embedding.bias f4 [16]
0	0xb4b6fe03	-3.408496e-07
1	0x340ea97e	1.3286441e-07
2	0x00000000	0.0
3	0xb48de22f	-2.6427867e-07
4	0x32e6732e	2.6827902e-08
5	0x35331557	6.671375e-07
6	0x396de2a0	0.00022686506
7	0x00000000	0.0
8	0x33d2813b	9.802394e-08
9	0x351961c1	5.713919e-07
10	0x33a72f4a	7.785145e-08
11	0x00000000	0.0
12	0x00000000	0.0
13	0x00000000	0.0
14	0x00000000	0.0
15	0xb32945d4	-3.9411887e-08

graph_embedding.lin_src.weight f4 [16, 15]
0	0x3e9a5a30	0.30146933
1	0x3cdfa35a	0.027299572
2	0xbe2ce9f8	-0.16886127
3	0x3e830fc8	0.25597978
4	0xbed3d85e	-0.41376013
5	0xbcaad628	-0.02085407
6	0xbedf1e1b	-0.43577656
7	0xbe9b718e	-0.30360073
8	0x3eb64eb1	0.35606912
9	0x3eb8db37	0.36104748
10	0x3eac5cc6	0.3366453
11	0xbe86d859	-0.26336935
12	0xbed35bfc	-0.41281116
13	0xbd79a76d	-0.060950685
14	0xbe9e1eea	-0.3088296
15	0xbeca731d	-0.3954095
16	0xbece02b9	-0.40236452
17	0xbddcb286	-0.10776238
18	0x3e3e0bd6	0.18559203
19	0x3e9af7e0	0.3026724
20	0x3e01d88f	0.12680267
21	0xbdca59b2	-0.09880389
22	0xbedc6b86	-0.43050784
23	0xbe3e3fa3	-0.18578963
24	0x3e8cb162	0.27479082
25	0xbeb6dabe	-0.35713762
26	0xbea9aea0	-0.3314104
27	0xbe6c265e	-0.23061511
28	0x3c863cf3	0.016386485
29	0xbee20901	-0.44147494
30	0x3e972fe5	0.29528728
31	0x3eb936af	0.36174533
32	0xbe5061e3	-0.20349841
33	0x3e3edb89	0.18638434
34	0x3e18ea51	0.14933135
35	0x3e260ee0	0.16216612
36	0x3ea30dd1	0.3184648
37	0x3d8e22ef	0.06940257
38	0xbe89e8b6	-0.26935357
39	0xbe8f092d	-0.27936688
40	0xbe0d8d36	-0.13823399
41	0xbea4a32f	-0.3215575
42	0x3bc23070	0.0059261844
43	0xbd2e9be3	-0.042629134
44	0x3e845912	0.25849205
45	0x3dc36680	0.09541035
46	0x3b99c4bf	0.0046926434
47	0x3da0054d	0.07813511
48	0xbe091f2e	-0.133908
49	0xbd727263	-0.05919112
50	0xbe706324	-0.23475319
51	0x3e97e098	0.2966354
52	0xbd468969	-0.04847089
53	0x3d887710	0.06663334
54	0x3e4a70a9	0.19769539
55	0xbe511376	-0.2041758
56	0x3d14a400	0.036289215
57	0xbec54cc9	-0.38535145
58	0xbebd0281	-0.36915973
59	0x3e0eb944	0.1393786
60	0x3e4d6452	0.200578
61	0xbebdaa12	-0.37043816
62	0x3ebeeb86	0.37289065
63	0x3e903ab6	0.28169793
64	0xbeb08e47	-0.3448355
65	0x3e0405ad	0.1289279
66	0xbd9bb414	-0.076027066
67	0x3e779e83	0.24181561
68	0x3ed14a2b	0.40876898
69	0x3ea6dd39	0.32590654
70	0x3ebcc701	0.36870578
71	0xba50b502	-0.00079615426
72	0x3e3baedf	0.18328427
73	0x3e2cb3d4	0.16865474
74	0xbeb9de42	-0.36302382
75	0x3eda52c5	0.42641273
76	0x3d874681	0.066052444
77	0x3d25ef7d	0.040511597
78	0xbed1093d	-0.4082736
79	0x3edb9ec8	0.42894578
80	0x3d251460	0.040302634
81	0xbecf579c	-0.40496528
82	0x3e8eff43	0.27929124
83	0x3ed3a0e9	0.41333702
84	0x3cb0def0	0.02159068
85	0xbe971aa0	-0.295125
86	0x3eaf400d	0.34228554
87	0x3d8fc709	0.07020385
88	0x3d0cb154	0.0343488
89	0x3e2efaa6	0.17087802
90	0x3e6b1dca	0.22960582
91	0xbeca455e	-0.39506048
92	0x3e858e2e	0.26085037
93	0xbee05200	-0.4381256
94	0x3e074de6	0.1321331
95	0xbe85a965	-0.261058
96	0x3edacf7b	0.4273642
97	0xbe3cd596	-0.18440852
98	0x3dc8ff35	0.09814302
99	0xbb6d4daa	-0.0036209621
100	0x3d049a94	0.03237398
101	0x3ed0673a	0.40703756
102	0x3e8481f1	0.25880387
103	0x3e4f83fb	0.2026519
104	0x3ddb7840	0.10716295
105	0x3e87a4e3	0.26492986
106	0x3e226990	0.15860581
107	0x3bc6e4b5	0.0060697445
108	0xbe929dd7	-0.28636047
109	0x3e69a07b	0.22815125
110	0xbce2318a	-0.027611513
111	0x3ebfa6ea	0.37432033
112	0x3e416adc	0.1888842
113	0xbe916c3b	-0.28402886
114	0xbed38e96	-0.41319722
115	0xbe1a623c	-0.15076536
116	0xbe1b0645	-0.1513911
117	0x3ec255bb	0.37956032
118	0x3e451a4e	0.19248316
119	0xbe4a1dd2	-0.19737938
120	0xbe1e58bc	-0.15463537
121	0xbe454def	-0.1926801
122	0x3e8c73da	0.27432138
123	0x3e6d2ba5	0.2316118
124	0x3dafe732	0.08589019
125	0x3ebc3dfa	0.36766034
126	0x3e988255	0.29786935
127	0xbe99b57e	-0.3002128
128	0xbd3ec3cb	-0.04657344
129	0x3ed63306	0.41835803
130	0xbd7baac2	-0.061442144
131	0x3e8237e0	0.25433254
132	0xbc8dec37	-0.01732455
133	0x3e44d297	0.19220959
134	0xbccd0553	-0.025026953
135	0x3dcca460	0.099922895
136	0x3ea88442	0.32913405
137	0x3ed7003b	0.41992363
138	0x3eaf977e	0.34295267
139	0x3e98345a	0.2972744
140	0xbd06b25d	-0.032884944
141	0xbe53601e	-0.20642135
142	0x3d47e546	0.048802637
143	0xbed60a37	-0.41804668
144	0x3d6d5d19	0.057950113
145	0xbe254147	-0.16138183
146	0xbe55bb65	-0.20872267
147	0xbe525e56	-0.20543799
148	0x3db08d31	0.0862068
149	0xbe468850	-0.19387937
150	0xbec76cc6	-0.38950175
151	0x3e54f032	0.20794752
152	0x3ea70be6	0.32626265
153	0xbe0ad6a4	-0.13558441
154	0x3e3ab78c	0.1823408
155	0x3e988a06	0.29792804
156	0xbe685b93	-0.22691183
157	0x3ece92fc	0.40346515
158	0xbdbc9cf7	-0.09209626
159	0x3e712770	0.235502
160	0xbea49178	-0.32142234
161	0x3ebbc3d6	0.36672848
162	0x3ea36140	0.31910133
163	0x3ea55a22	0.32295328
164	0x3e79258e	0.24330732
165	0xbcc570cd	-0.02410164
166	0x3c4b09df	0.01239249
167	0x3e379f48	0.17931855
168	0x3e45894b	0.19290654
169	0xbc29e80f	-0.0103702685
170	0xbead6391	-0.33865026
171	0x3e84e8ec	0.25958955
172	0xbe8c852a	-0.27445346
173	0xbe681412	-0.22663906
174	0xbe299840	-0.16561985
175	0x3dc081f8	0.093997896
176	0x3e0cd831	0.13754345
177	0xbe21c641	-0.15798284
178	0xbe319762	-0.17342904
179	0xbea415cc	-0.3204788
180	0x3d9a2df6	0.075282976
181	0xbe630657	-0.22170387
182	0xbed86394	-0.42263472
183	0xbebe1b25	-0.37130085
184	0x3e826bca	0.25472862
185	0xbd1b0634	-0.037847713
186	0xbe3f8d53	-0.18706255
187	0x3e07e9a7	0.13272725
188	0x3e65b3b3	0.22431831
189	0xbe924b9c	-0.2857331
190	0x3d5852de	0.052813403
191	0x3e2c5d1d	0.16832395
192	0xbe9aa5dd	-0.3020467
193	0x3e1035a1	0.14082958
194	0x3d7a7fd8	0.061157078
195	0x3eb18e4d	0.3467888
196	0x3df447e5	0.11927775
197	0xbd9322fd	-0.07184408
198	0x3e0bafc0	0.13641262
199	0xbd9c7fd3	-0.07641568
200	0xbe1c41d5	-0.15259488
201	0xbe1e37e0	-0.15451002
202	0x3ed29a14	0.41133177
203	0xbe212a07	-0.15738688
204	0xbe95abfd	-0.2923278
205	0x3e92ab96	0.28646535
206	0xbe291d17	-0.16515003
207	0xbc50b142	-0.012737574
208	0xbc890cd4	-0.01672975
209	0xbeb73755	-0.35784402
210	0x3e03a44a	0.1285564
211	0x3e4532d0	0.19257665
212	0x3e79af83	0.24383359
213	0x3cc73ad1	0.024320038
214	0x3e98b109	0.29822567
215	0xbea3c1c3	-0.31983766
216	0x3e11b752	0.14230087
217	0x3e61587b	0.22006409
218	0xbed0c039	-0.40771654
219	0xbe222e97	-0.15838085
220	0xbd73b960	-0.05950296
221	0xbe5ff2f1	-0.21870019
222	0x3ecf3d1c	0.4047631
223	0x3e875c7d	0.2643775
224	0x3e469a22	0.19394735
225	0xbecff4a6	-0.4061634
226	0x3e6b890c	0.23001498
227	0x3d138dc1	0.03602386
228	0x3ec844a2	0.39114863
229	0x3eac38a9	0.33636978
230	0x3eca2fcc	0.3948959
231	0x3e55ed23	0.20891242
232	0x3ed11bc6	0.40841502
233	0xbdddf7b4	-0.10838261
234	0x3e6d7096	0.2318748
235	0x3ea32f0a	0.31871825
236	0xbd95836b	-0.073004566
237	0x3eda886a	0.426822
238	0xbcf05e90	-0.029341966
239	0x3e367d3e	0.17821214

graph_embedding.lin_dst.weight f4 [16, 15]
0	0x3e9a5a30	0.30146933
1	0x3cdfa35a	0.027299572
2	0xbe2ce9f8	-0.16886127
3	0x3e830fc8	0.25597978
4	0xbed3d85e	-0.41376013
5	0xbcaad628	-0.02085407
6	0xbedf1e1b	-0.43577656
7	0xbe9b718e	-0.30360073
8	0x3eb64eb1	0.35606912
9	0x3eb8db37	0.36104748
10	0x3eac5cc6	0.3366453
11	0xbe86d859	-0.26336935
12	0xbed35bfc	-0.41281116
13	0xbd79a76d	-0.060950685
14	0xbe9e1eea	-0.3088296
15	0xbeca731d	-0.3954095
16	0xbece02b9	-0.40236452
17	0xbddcb286	-0.10776238
18	0x3e3e0bd6	0.18559203
19	0x3e9af7e0	0.3026724
20	0x3e01d88f	0.12680267
21	0xbdca59b2	-0.09880389
22	0xbedc6b86	-0.43050784
23	0xbe3e3fa3	-0.18578963
24	0x3e8cb162	0.27479082
25	0xbeb6dabe	-0.35713762
26	0xbea9aea0	-0.3314104
27	0xbe6c265e	-0.23061511
28	0x3c863cf3	0.016386485
29	0xbee20901	-0.44147494
30	0x3e972fe5	0.29528728
31	0x3eb936af	0.36174533
32	0xbe5061e3	-0.20349841
33	0x3e3edb89	0.18638434
34	0x3e18ea51	0.14933135
35	0x3e260ee0	0.16216612
36	0x3ea30dd1	0.3184648
37	0x3d8e22ef	0.06940257
38	0xbe89e8b6	-0.26935357
39	0xbe8f092d	-0.27936688
40	0xbe0d8d36	-0.13823399
41	0xbea4a32f	-0.3215575
42	0x3bc23070	0.0059261844
43	0xbd2e9be3	-0.042629134
44	0x3e845912	0.25849205
45	0x3dc36680	0.09541035
46	0x3b99c4bf	0.0046926434
47	0x3da0054d	0.07813511
48	0xbe091f2e	-0.133908
49	0xbd727263	-0.05919112
50	0xbe706324	-0.23475319
51	0x3e97e098	0.2966354
52	0xbd468969	-0.04847089
53	0x3d887710	0.06663334
54	0x3e4a70a9	0.19769539
55	0xbe511376	-0.2041758
56	0x3d14a400	0.036289215
57	0xbec54cc9	-0.38535145
58	0xbebd0281	-0.36915973
59	0x3e0eb944	0.1393786
60	0x3e4d6452	0.200578
61	0xbebdaa12	-0.37043816
62	0x3ebeeb86	0.37289065
63	0x3e903ab6	0.28169793
64	0xbeb08e47	-0.3448355
65	0x3e0405ad	0.1289279
66	0xbd9bb414	-0.076027066
67	0x3e779e83	0.24181561
68	0x3ed14a2b	0.40876898
69	0x3ea6dd39	0.32590654
70	0x3ebcc701	0.36870578
71	0xba50b502	-0.00079615426
72	0x3e3baedf	0.18328427
73	0x3e2cb3d4	0.16865474
74	0xbeb9de42	-0.36302382
75	0x3eda52c5	0.42641273
76	0x3d874681	0.066052444
77	0x3d25ef7d	0.040511597
78	0xbed1093d	-0.4082736
79	0x3edb9ec8	0.42894578
80	0x3d251460	0.040302634
81	0xbecf579c	-0.40496528
82	0x3e8eff43	0.27929124
83	0x3ed3a0e9	0.41333702
84	0x3cb0def0	0.02159068
85	0xbe971aa0	-0.295125
86	0x3eaf400d	0.34228554
87	0x3d8fc709	0.07020385
88	0x3d0cb154	0.0343488
89	0x3e2efaa6	0.17087802
90	0x3e6b1dca	0.22960582
91	0xbeca455e	-0.39506048
92	0x3e858e2e	0.26085037
93	0xbee05200	-0.4381256
94	0x3e074de6	0.1321331
95	0xbe85a965	-0.261058
96	0x3edacf7b	0.4273642
97	0xbe3cd596	-0.18440852
98	0x3dc8ff35	0.09814302
99	0xbb6d4daa	-0.0036209621
100	0x3d049a94	0.03237398
101	0x3ed0673a	0.40703756
102	0x3e8481f1	0.25880387
103	0x3e4f83fb	0.2026519
104	0x3ddb7840	0.10716295
105	0x3e87a4e3	0.26492986
106	0x3e226990	0.15860581
107	0x3bc6e4b5	0.0060697445
108	0xbe929dd7	-0.28636047
109	0x3e69a07b	0.22815125
110	0xbce2318a	-0.027611513
111	0x3ebfa6ea	0.37432033
112	0x3e416adc	0.1888842
113	0xbe916c3b	-0.28402886
114	0xbed38e96	-0.41319722
115	0xbe1a623c	-0.15076536
116	0xbe1b0645	-0.1513911
117	0x3ec255bb	0.37956032
118	0x3e451a4e	0.19248316
119	0xbe4a1dd2	-0.19737938
120	0xbe1e58bc	-0.15463537
121	0xbe454def	-0.1926801
122	0x3e8c73da	0.27432138
123	0x3e6d2ba5	0.2316118
124	0x3dafe732	0.08589019
125	0x3ebc3dfa	0.36766034
126	0x3e988255	0.29786935
127	0xbe99b57e	-0.3002128
128	0xbd3ec3cb	-0.04657344
129	0x3ed63306	0.41835803
130	0xbd7baac2	-0.061442144
131	0x3e8237e0	0.25433254
132	0xbc8dec37	-0.01732455
133	0x3e44d297	0.19220959
134	0xbccd0553	-0.025026953
135	0x3dcca460	0.099922895
136	0x3ea88442	0.32913405
137	0x3ed7003b	0.41992363
138	0x3eaf977e	0.34295267
139	0x3e98345a	0.2972744
140	0xbd06b25d	-0.032884944
141	0xbe53601e	-0.20642135
142	0x3d47e546	0.048802637
143	0xbed60a37	-0.41804668
144	0x3d6d5d19	0.057950113
145	0xbe254147	-0.16138183
146	0xbe55bb65	-0.20872267
147	0xbe525e56	-0.20543799
148	0x3db08d31	0.0862068
149	0xbe468850	-0.19387937
150	0xbec76cc6	-0.38950175
151	0x3e54f032	0.20794752
152	0x3ea70be6	0.32626265
153	0xbe0ad6a4	-0.13558441
154	0x3e3ab78c	0.1823408
155	0x3e988a06	0.29792804
156	0xbe685b93	-0.22691183
157	0x3ece92fc	0.40346515
158	0xbdbc9cf7	-0.09209626
159	0x3e712770	0.235502
160	0xbea49178	-0.32142234
161	0x3ebbc3d6	0.36672848
162	0x3ea36140	0.31910133
163	0x3ea55a22	0.32295328
164	0x3e79258e	0.24330732
165	0xbcc570cd	-0.02410164
166	0x3c4b09df	0.01239249
167	0x3e379f48	0.17931855
168	0x3e45894b	0.19290654
169	0xbc29e80f	-0.0103702685
170	0xbead6391	-0.33865026
171	0x3e84e8ec	0.25958955
172	0xbe8c852a	-0.27445346
173	0xbe681412	-0.22663906
174	0xbe299840	-0.16561985
175	0x3dc081f8	0.093997896
176	0x3e0cd831	0.13754345
177	0xbe21c641	-0.15798284
178	0xbe319762	-0.17342904
179	0xbea415cc	-0.3204788
180	0x3d9a2df6	0.075282976
181	0xbe630657	-0.22170387
182	0xbed86394	-0.42263472
183	0xbebe1b25	-0.37130085
184	0x3e826bca	0.25472862
185	0xbd1b0634	-0.037847713
186	0xbe3f8d53	-0.18706255
187	0x3e07e9a7	0.13272725
188	0x3e65b3b3	0.22431831
189	0xbe924b9c	-0.2857331
190	0x3d5852de	0.052813403
191	0x3e2c5d1d	0.16832395
192	0xbe9aa5dd	-0.3020467
193	0x3e1035a1	0.14082958
194	0x3d7a7fd8	0.061157078
195	0x3eb18e4d	0.3467888
196	0x3df447e5	0.11927775
197	0xbd9322fd	-0.07184408
198	0x3e0bafc0	0.13641262
199	0xbd9c7fd3	-0.07641568
200	0xbe1c41d5	-0.15259488
201	0xbe1e37e0	-0.15451002
202	0x3ed29a14	0.41133177
203	0xbe212a07	-0.15738688
204	0xbe95abfd	-0.2923278
205	0x3e92ab96	0.28646535
206	0xbe291d17	-0.16515003
207	0xbc50b142	-0.012737574
208	0xbc890cd4	-0.01672975
209	0xbeb73755	-0.35784402
210	0x3e03a44a	0.1285564
211	0x3e4532d0	0.19257665
212	0x3e79af83	0.24383359
213	0x3cc73ad1	0.024320038
214	0x3e98b109	0.29822567
215	0xbea3c1c3	-0.31983766
216	0x3e11b752	0.14230087
217	0x3e61587b	0.22006409
218	0xbed0c039	-0.40771654
219	0xbe222e97	-0.15838085
220	0xbd73b960	-0.05950296
221	0xbe5ff2f1	-0.21870019
222	0x3ecf3d1c	0.4047631
223	0x3e875c7d	0.2643775
224	0x3e469a22	0.19394735
225	0xbecff4a6	-0.4061634
226	0x3e6b890c	0.23001498
227	0x3d138dc1	0.03602386
228	0x3ec844a2	0.39114863
229	0x3eac38a9	0.33636978
230	0x3eca2fcc	0.3948959
231	0x3e55ed23	0.20891242
232	0x3ed11bc6	0.40841502
233	0xbdddf7b4	-0.10838261
234	0x3e6d7096	0.2318748
235	0x3ea32f0a	0.31871825
236	0xbd95836b	-0.073004566
237	0x3eda886a	0.426822
238	0xbcf05e90	-0.029341966
239	0x3e367d3e	0.17821214

graph_embedding.lin_edge.weight f4 [16, 2]
0	0xbefc2915	-0.49250093
1	0xbebb8b65	-0.36629787
2	0xbe87a5f6	-0.26493806
3	0x3e812d2e	0.25229782
4	0xbf08acea	-0.53388846
5	0xbd7339ee	-0.059381418
6	0xbdbcfb16	-0.09227578
7	0xbf007eab	-0.5019328
8	0xbeec7e86	-0.4619028
9	0x3eee850b	0.4658588
10	0xbf03e91b	-0.51527566
11	0xbef2cbc4	-0.47421086
12	0xbf06fd40	-0.5273018
13	0x3e1f6568	0.15566027
14	0xbd24b444	-0.040210977
15	0x3e8a5da9	0.27024582
16	0xbe826155	-0.25464883
17	0xbea6acb3	-0.32553634
18	0xbebb5076	-0.36584824
19	0xbeba99cb	-0.3644546
20	0x3f12b087	0.5730061
21	0xbe37b032	-0.17938307
22	0xbee59d11	-0.44846395
23	0xbea56b31	-0.32308343
24	0x3dedc771	0.11610306
25	0x3f0ebbef	0.55755514
26	0xbcfc8d9d	-0.030829245
27	0xbe6fbc0e	-0.23411581
28	0x3ee7e810	0.45294237
29	0xbf0c9734	-0.5491822
30	0xbe73609d	-0.23767324
31	0x3dbc7670	0.09202278

norm1.module.weight f4 [16]
0	0x3f8071e7	1.003476
1	0x3f7f1bd7	0.99651855
2	0x3f800000	1.0
3	0x3f7fa9be	0.9986838
4	0x3f7f495a	0.997213
5	0x3f7f90d9	0.99830395
6	0x3f806d7d	1.0033413
7	0x3f800000	1.0
8	0x3f7f7d9e	0.9980105
9	0x3f800bc7	1.0003594
10	0x3f802363	1.0010799
11	0x3f800000	1.0
12	0x3f800000	1.0
13	0x3f800000	1.0
14	0x3f800000	1.0
15	0x3f7ffefa	0.9999844

norm1.module.bias f4 [16]
0	0x3ac15c70	0.001475228
1	0xba87d91b	-0.0010364385
2	0xb9d2254c	-0.0004008211
3	0xba8c9991	-0.0010726919
4	0x3a2cbac5	0.000658911
5	0xba84a35e	-0.0010119488
6	0xbb0eddc3	-0.002179966
7	0x39e6766d	0.00043957253
8	0xba7426e6	-0.00093136576
9	0xb9849a11	-0.0002529179
10	0x3b0c96ab	0.002145211
11	0xbb0f13cb	-0.0021831866
12	0x3b055f5f	0.0020351035
13	0x39c58e5d	0.00037680837
14	0x3b15f234	0.002287996
15	0x3a683c55	0.0008859088

norm1.module.running_mean f4 [16]
0	0x4742cddc	49869.86
1	0x471357be	37719.742
2	0x00000000	0.0
3	0x46d5145e	27274.184
4	0x47313757	45367.34
5	0x455028ab	3330.5417
6	0x41bfdc3c	23.982536
7	0x00000000	0.0
8	0x47622d44	57901.266
9	0x45f2a224	7764.2676
10	0x47008e3f	32910.246
11	0x00000000	0.0
12	0x00000000	0.0
13	0x00000000	0.0
14	0x00000000	0.0
15	0x46fceebd	32375.37

norm1.module.running_var f4 [16]
0	0x4d5909ca	2.2758109e+08
1	0x4cface7e	1.314949e+08
2	0x3ba8e0f1	0.005153768
3	0x4c7fe6b4	6.708296e+07
4	0x4d2f8dc5	1.8408149e+08
5	0x496797a5	948602.3
6	0x45c73f4f	6375.9136
7	0x3ba8e0f1	0.005153768
8	0x4d8fd3ed	3.0162883e+08
9	0x4ab39f65	5.8858745e+06
10	0x4cb6bc90	9.580659e+07
11	0x3ba8e0f1	0.005153768
12	0x3ba8e0f1	0.005153768
13	0x3ba8e0f1	0.005153768
14	0x3ba8e0f1	0.005153768
15	0x4cb03bdc	9.239728e+07

graph_embedding2.att_src f4 [1, 1, 16]
0	0x3ef2e1d1	0.4743791
1	0xbdd78bce	-0.105247125
2	0xbee4c593	-0.44681987
3	0xbeddaf9b	-0.4329804
4	0xbef5b736	-0.4799134
5	0x3edbdda1	0.42942527
6	0x3d69189f	0.056908246
7	0xbec7b746	-0.39007014
8	0x3ea050d8	0.3131168
9	0x3ed48d65	0.41514125
10	0x3ee5011e	0.44727415
11	0xbdd401da	-0.10351916
12	0xbebff790	-0.37493563
13	0x3e4a3277	0.19745813
14	0xbedf328a	-0.43593246
15	0x3eeef187	0.46668646

graph_embedding2.att_dst f4 [1, 1, 16]
0	0x3f0633e8	0.5242295
1	0x3e7589da	0.23978367
2	0xbead420a	-0.33839446
3	0x3f0ab0db	0.5417611
4	0xbdd37237	-0.10324519
5	0xbeeaa47d	-0.4582862
6	0xbe191715	-0.14950211
7	0xbe03eef0	-0.12884116
8	0xbe0c347e	-0.13691899
9	0xbe4327d4	-0.19058162
10	0x3e641a66	0.22275695
11	0xbf173262	-0.59061253
12	0x3ed43f8e	0.41454738
13	0x3d1c043a	0.03808997
14	0x3ef52fad	0.47887936
15	0x3de86428	0.11347228

graph_embedding2.att_edge f4 [1, 1, 16]
0	0x3e6e177a	0.23251143
1	0xbb033c0b	-0.0020024802
2	0xbe402b15	-0.18766434
3	0xbe874576	-0.26420182
4	0xbe0e3a4f	-0.1388943
5	0xbefd879f	-0.49517533
6	0x3ed44eb9	0.4146631
7	0x3e7ec7d6	0.24880919
8	0xbe5f8272	-0.21827105
9	0x3f12036f	0.5703649
10	0x3ec235b7	0.37931606
11	0xbe13a386	-0.14417848
12	0x3eaeaa5c	0.3411435
13	0x3ec843a0	0.39114094
14	0xbdd1571c	-0.10221693
15	0x3ea32945	0.31867424

graph_embedding2.bias f4 [16]
0	0xb9e22679	-0.00043134743
1	0xba068fd5	-0.0005133127
2	0x399dc7bc	0.00030094187
3	0xbb2d5713	-0.0026449605
4	0x3b2873c0	0.0025703758
5	0x3a8adaa8	0.0010593729
6	0x3a9fac5c	0.0012182104
7	0x3a7457db	0.0009320953
8	0x3a3e32ca	0.0007255493
9	0xb50b6240	-5.192451e-07
10	0xba4ea31c	-0.00078825816
11	0xbaf828a6	-0.0018933013
12	0x3b016de2	0.0019749333
13	0x39c696b4	0.00037877786
14	0xbb1f92fa	-0.002434908
15	0xbb06ce6a	-0.002056981

graph_embedding2.lin_src.weight f4 [16, 16]
0	0x3eac79cc	0.33686674
1	0xbd9dd591	-0.0770675
2	0x3ec5aca6	0.38608283
3	0xbe1d9a5c	-0.15390915
4	0xbe6a0564	-0.22853619
5	0xbe1b5931	-0.15170743
6	0x3e178662	0.14797357
7	0x3eba2e4a	0.3636344
8	0xbeb79624	-0.35856736
9	0xbdac8c72	-0.08425225
10	0xbea09fb7	-0.31371853
11	0xbec37c2b	-0.3818067
12	0xbe27920d	-0.16364308
13	0x3eb36ef8	0.350456
14	0x3d040b51	0.032237355
15	0x3edaf41e	0.42764372
16	0xbe83b4aa	-0.25723773
17	0x3e9cc328	0.30617642
18	0x3eca67e8	0.395324
19	0x3e588712	0.21145275
20	0x3c9779b9	0.01849066
21	0x3e224cd4	0.1584962
22	0xbd356bd9	-0.044292305
23	0xbed8790a	-0.42279845
24	0x3e97e633	0.29667816
25	0x3ed42532	0.41434628
26	0xbe43d2df	-0.1912341
27	0xbe87f968	-0.2655747
28	0x3e39089b	0.18069689
29	0x3d95d719	0.07316417
30	0xbdca69ef	-0.098834865
31	0xbe354227	-0.17701016
32	0x3e9db0c2	0.30798918
33	0x3ea94970	0.3306384
34	0x3ea578af	0.32318637
35	0xbe67b1d0	-0.22626424
36	0x3e09348c	0.13398951
37	0x3e807a04	0.2509309
38	0xbeaea97c	-0.3411368
39	0xbe12f6d1	-0.14351965
40	0xbed77d23	-0.4208766
41	0xbe20a529	-0.15688004
42	0xbdb97657	-0.09055775
43	0xbe8c3b26	-0.27388877
44	0x3e72e6ff	0.2372093
45	0x3d8ddf63	0.06927373
46	0xbe48199f	-0.19541024
47	0xbeb8e7da	-0.3611439
48	0xbea2bfa7	-0.31786844
49	0x3e7a7957	0.2446035
50	0x3e25c8ae	0.16189834
51	0x3d65caa9	0.056101475
52	0x3cf84765	0.030307481
53	0x3deef0b2	0.11667003
54	0x3e3565ae	0.17714569
55	0xbe5c4273	-0.21509723
56	0x3d5b53fa	0.053546883
57	0xbd478b71	-0.048716966
58	0xbc989cc3	-0.018629437
59	0x3ec52670	0.38505888
60	0xbe1c7d87	-0.1528226
61	0xbde9e245	-0.114201106
62	0xbebb4b99	-0.36581114
63	0xbc9cb800	-0.019130707
64	0x3ebd2941	0.36945537
65	0x3e80a29f	0.2512407
66	0xbe09abcb	-0.1344444
67	0x3d866c0b	0.06563576
68	0xbe2242a4	-0.15845734
69	0x3d94051e	0.072275385
70	0xbe46054b	-0.19337957
71	0x3dc93c72	0.09825982
72	0xbdedc7e5	-0.116103925
73	0x3e6fc08a	0.23413292
74	0x3e67050c	0.22560519
75	0x3e0f9cad	0.14024611
76	0xbed8212b	-0.42212805
77	0xbdc874ab	-0.09787878
78	0x3e8e0adb	0.27742657
79	0xbeacfbdb	-0.337859
80	0x3ed87960	0.42280102
81	0xbe13466f	-0.14382337
82	0xbed7d39a	-0.42153627
83	0x3d8d6151	0.06903327
84	0x3db0d059	0.08633489
85	0xbdca10db	-0.09866496
86	0xbe2aceff	-0.16680525
87	0xbe8b58aa	-0.27216083
88	0xbecbe812	-0.39825493
89	0xbe89f3bd	-0.2694377
90	0x3e67b95d	0.22629304
91	0xbd1f8652	-0.038946457
92	0xbc8d70b4	-0.017265655
93	0x3e8f41cb	0.27979884
94	0x3eaf7ac6	0.34273356
95	0x3e91fe77	0.28514454
96	0x3de45431	0.11148871
97	0xbddeb1cc	-0.10873756
98	0x3e1a02f3	0.15040188
99	0x3eb435d4	0.35197318
100	0xbe7a1b50	-0.24424481
101	0x3b42c4c3	0.002971933
102	0xbe96f917	-0.29486915
103	0xbdb148b7	-0.086564474
104	0x3c86f82b	0.016475758
105	0x3db1c8d1	0.08680881
106	0x3e643462	0.22285607
107	0xbeab2281	-0.33424762
108	0x3d070eed	0.03297322
109	0xbea84c5d	-0.3287076
110	0x3d4ef19b	0.05052338
111	0xbdce82f0	-0.10083568
112	0xbe380bf6	-0.17973313
113	0xbed66af4	-0.41878474
114	0x3e586d88	0.21135533
115	0x3e8664a5	0.2624866
116	0xbe14840b	-0.14503495
117	0x3e89385a	0.26800805
118	0x3e7b8602	0.24562839
119	0x3e99a21a	0.30006486
120	0x3d340054	0.043945625
121	0xbe5b631d	-0.21424527
122	0xbe42ddf7	-0.19029985
123	0xbe11333f	-0.14179705
124	0x3e88f497	0.26749107
125	0x3e33c49c	0.1755547
126	0x3e251f94	0.16125327
127	0x3eb47ff7	0.3525388
128	0xbe39dbf7	-0.18150316
129	0xbc833076	-0.016014319
130	0x3e56214c	0.20911139
131	0xbe030451	-0.12794615
132	0x3e54309d	0.2072167
133	0xbeca49b7	-0.39509365
134	0xbec47de9	-0.38377312
135	0xbe3e88ba	-0.18606845
136	0xbec00c43	-0.37509355
137	0xbdecee8c	-0.11568937
138	0x3ec2af3c	0.38024318
139	0x3e86b62d	0.26310864
140	0x3e104b0f	0.14091133
141	0x3debf5c5	0.11521486
142	0x3e3cd1e3	0.1843944
143	0x3e9c77a8	0.3056004
144	0xbecf8199	-0.40528563
145	0x3ebe3207	0.37147543
146	0xbe30da81	-0.17270853
147	0x3e6d010b	0.23144929
148	0xbeb94b5f	-0.36190316
149	0xbeca6715	-0.3953177
150	0xbd35f461	-0.04442251
151	0xbec14d5c	-0.37754333
152	0xbbba13ec	-0.0056786444
153	0x3e20e567	0.1571251
154	0xbe909505	-0.28238693
155	0x3e2ac9d9	0.16678561
156	0xbe3537db	-0.17697088
157	0x3ca78dde	0.02045339
158	0x3df239c5	0.11827425
159	0x3ea69d02	0.32541662
160	0x3e673c46	0.22581586
161	0x3c56ae43	0.013103071
162	0xbec8bc8f	-0.3920636
163	0x3df67c11	0.120353825
164	0x3ea4479e	0.3208589
165	0x3e810b19	0.2520378
166	0xbdf80d83	-0.12111952
167	0x3d5515b9	0.05202267
168	0xbb9c809c	-0.0047760736
169	0x3c856cfe	0.016287323
170	0x3e9fc4d1	0.31204847
171	0xbe8445a3	-0.2583438
172	0x3eb7d2c5	0.35902992
173	0xbe8bb893	-0.27289256
174	0x3e1c6281	0.15271951
175	0x3e884487	0.26614782
176	0xbe4dc5a7	-0.2009493
177	0xbeb0dd30	-0.34543753
178	0xbcf64058	-0.030059978
179	0x3e5ceb6d	0.21574183
180	0xbcd9ee0e	-0.026602771
181	0x3e1c8eea	0.15288892
182	0x3e919dbb	0.2844065
183	0x3d971d42	0.07378627
184	0x3e34a157	0.17639671
185	0xbe450287	-0.19239245
186	0xbd975f3e	-0.07391213
187	0x3cd7686f	0.026294915
188	0xbe942ee4	-0.28942025
189	0x3da2a069	0.07940752
190	0x3e4dacac	0.200854
191	0xbec90636	-0.3926255
192	0x3e12c724	0.14333779
193	0xbecc4c50	-0.39901972
194	0xbd2e81f2	-0.042604394
195	0xbe978194	-0.29591048
196	0x3e9d14b9	0.30679873
197	0xbeb0b414	-0.3451239
198	0xbe14b59a	-0.145224
199	0xbed34e76	-0.41270798
200	0x3e606c78	0.21916378
201	0xbe72c53f	-0.23708056
202	0x3ea8a71c	0.32939994
203	0xbe9d19cc	-0.30683744
204	0xbe5b2637	-0.21401297
205	0xbe6c35ef	-0.23067449
206	0x3ea7f042	0.3280049
207	0xbe1e69b4	-0.1547001
208	0xbcd6cfdf	-0.026222168
209	0xbe8912e6	-0.2677223
210	0xbe19d812	-0.1502383
211	0x3df4283c	0.119217366
212	0xbe67a4b8	-0.22621429
213	0x3e91cd5f	0.28476998
214	0x3dc534a6	0.096291825
215	0xbd1ca841	-0.038246397
216	0xbcdd7070	-0.027031153
217	0xbeaf119d	-0.34193125
218	0xbe430455	-0.19044621
219	0x3e4131f5	0.18866713
220	0xbd58b981	-0.052911285
221	0xbed8838f	-0.4228787
222	0xbdd20b46	-0.102560565
223	0x3ed398e8	0.41327596
224	0x3e775dff	0.2415695
225	0xbeaa5e67	-0.33275148
226	0xbe80ff4d	-0.2519478
227	0xbe8d8724	-0.27642167
228	0xbe89e084	-0.26929104
229	0xbd866b8a	-0.0656348
230	0x3d706733	0.05869217
231	0x3dfd5c57	0.12371128
232	0xbed1e850	-0.40997553
233	0xbde56cb6	-0.112023756
234	0xbc5f7560	-0.013638824
235	0xbe42cada	-0.19022694
236	0xbd3083a6	-0.0430943
237	0x3ddb24bf	0.10700368
238	0xbe69afa7	-0.22820912
239	0xbcc456e8	-0.023967221
240	0x3ec6bd19	0.38816145
241	0x3ed2cd74	0.41172373
242	0xbe25337c	-0.16132921
243	0x3edb9cea	0.42893153
244	0x3e8cc1f0	0.27491713
245	0xbeb081bf	-0.34473988
246	0xbebff414	-0.37490904
247	0xbe0ca361	-0.13734199
248	0xbe98c47d	-0.2983741
249	0x3dcf547d	0.10123537
250	0xbddccbd9	-0.10781068
251	0x3e40ac3c	0.18815702
252	0xbca700d5	-0.020386139
253	0xbe9fe50f	-0.31229445
254	0x3e579797	0.2105392
255	0x3ecf28d7	0.40460846

graph_embedding2.lin_dst.weight f4 [16, 16]
0	0x3eac79cc	0.33686674
1	0xbd9dd591	-0.0770675
2	0x3ec5aca6	0.38608283
3	0xbe1d9a5c	-0.15390915
4	0xbe6a0564	-0.22853619
5	0xbe1b5931	-0.15170743
6	0x3e178662	0.14797357
7	0x3eba2e4a	0.3636344
8	0xbeb79624	-0.35856736
9	0xbdac8c72	-0.08425225
10	0xbea09fb7	-0.31371853
11	0xbec37c2b	-0.3818067
12	0xbe27920d	-0.16364308
13	0x3eb36ef8	0.350456
14	0x3d040b51	0.032237355
15	0x3edaf41e	0.42764372
16	0xbe83b4aa	-0.25723773
17	0x3e9cc328	0.30617642
18	0x3eca67e8	0.395324
19	0x3e588712	0.21145275
20	0x3c9779b9	0.01849066
21	0x3e224cd4	0.1584962
22	0xbd356bd9	-0.044292305
23	0xbed8790a	-0.42279845
24	0x3e97e633	0.29667816
25	0x3ed42532	0.41434628
26	0xbe43d2df	-0.1912341
27	0xbe87f968	-0.2655747
28	0x3e39089b	0.18069689
29	0x3d95d719	0.07316417
30	0xbdca69ef	-0.098834865
31	0xbe354227	-0.17701016
32	0x3e9db0c2	0.30798918
33	0x3ea94970	0.3306384
34	0x3ea578af	0.32318637
35	0xbe67b1d0	-0.22626424
36	0x3e09348c	0.13398951
37	0x3e807a04	0.2509309
38	0xbeaea97c	-0.3411368
39	0xbe12f6d1	-0.14351965
40	0xbed77d23	-0.4208766
41	0xbe20a529	-0.15688004
42	0xbdb97657	-0.09055775
43	0xbe8c3b26	-0.27388877
44	0x3e72e6ff	0.2372093
45	0x3d8ddf63	0.06927373
46	0xbe48199f	-0.19541024
47	0xbeb8e7da	-0.3611439
48	0xbea2bfa7	-0.31786844
49	0x3e7a7957	0.2446035
50	0x3e25c8ae	0.16189834
51	0x3d65caa9	0.056101475
52	0x3cf84765	0.030307481
53	0x3deef0b2	0.11667003
54	0x3e3565ae	0.17714569
55	0xbe5c4273	-0.21509723
56	0x3d5b53fa	0.053546883
57	0xbd478b71	-0.048716966
58	0xbc989cc3	-0.018629437
59	0x3ec52670	0.38505888
60	0xbe1c7d87	-0.1528226
61	0xbde9e245	-0.114201106
62	0xbebb4b99	-0.36581114
63	0xbc9cb800	-0.019130707
64	0x3ebd2941	0.36945537
65	0x3e80a29f	0.2512407
66	0xbe09abcb	-0.1344444
67	0x3d866c0b	0.06563576
68	0xbe2242a4	-0.15845734
69	0x3d94051e	0.072275385
70	0xbe46054b	-0.19337957
71	0x3dc93c72	0.09825982
72	0xbdedc7e5	-0.116103925
73	0x3e6fc08a	0.23413292
74	0x3e67050c	0.22560519
75	0x3e0f9cad	0.14024611
76	0xbed8212b	-0.42212805
77	0xbdc874ab	-0.09787878
78	0x3e8e0adb	0.27742657
79	0xbeacfbdb	-0.337859
80	0x3ed87960	0.42280102
81	0xbe13466f	-0.14382337
82	0xbed7d39a	-0.42153627
83	0x3d8d6151	0.06903327
84	0x3db0d059	0.08633489
85	0xbdca10db	-0.09866496
86	0xbe2aceff	-0.16680525
87	0xbe8b58aa	-0.27216083
88	0xbecbe812	-0.39825493
89	0xbe89f3bd	-0.2694377
90	0x3e67b95d	0.22629304
91	0xbd1f8652	-0.038946457
92	0xbc8d70b4	-0.017265655
93	0x3e8f41cb	0.27979884
94	0x3eaf7ac6	0.34273356
95	0x3e91fe77	0.28514454
96	0x3de45431	0.11148871
97	0xbddeb1cc	-0.10873756
98	0x3e1a02f3	0.15040188
99	0x3eb435d4	0.35197318
100	0xbe7a1b50	-0.24424481
101	0x3b42c4c3	0.002971933
102	0xbe96f917	-0.29486915
103	0xbdb148b7	-0.086564474
104	0x3c86f82b	0.016475758
105	0x3db1c8d1	0.08680881
106	0x3e643462	0.22285607
107	0xbeab2281	-0.33424762
108	0x3d070eed	0.03297322
109	0xbea84c5d	-0.3287076
110	0x3d4ef19b	0.05052338
111	0xbdce82f0	-0.10083568
112	0xbe380bf6	-0.17973313
113	0xbed66af4	-0.41878474
114	0x3e586d88	0.21135533
115	0x3e8664a5	0.2624866
116	0xbe14840b	-0.14503495
117	0x3e89385a	0.26800805
118	0x3e7b8602	0.24562839
119	0x3e99a21a	0.30006486
120	0x3d340054	0.043945625
121	0xbe5b631d	-0.21424527
122	0xbe42ddf7	-0.19029985
123	0xbe11333f	-0.14179705
124	0x3e88f497	0.26749107
125	0x3e33c49c	0.1755547
126	0x3e251f94	0.16125327
127	0x3eb47ff7	0.3525388
128	0xbe39dbf7	-0.18150316
129	0xbc833076	-0.016014319
130	0x3e56214c	0.20911139
131	0xbe030451	-0.12794615
132	0x3e54309d	0.2072167
133	0xbeca49b7	-0.39509365
134	0xbec47de9	-0.38377312
135	0xbe3e88ba	-0.18606845
136	0xbec00c43	-0.37509355
137	0xbdecee8c	-0.11568937
138	0x3ec2af3c	0.38024318
139	0x3e86b62d	0.26310864
140	0x3e104b0f	0.14091133
141	0x3debf5c5	0.11521486
142	0x3e3cd1e3	0.1843944
143	0x3e9c77a8	0.3056004
144	0xbecf8199	-0.40528563
145	0x3ebe3207	0.37147543
146	0xbe30da81	-0.17270853
147	0x3e6d010b	0.23144929
148	0xbeb94b5f	-0.36190316
149	0xbeca6715	-0.3953177
150	0xbd35f461	-0.04442251
151	0xbec14d5c	-0.37754333
152	0xbbba13ec	-0.0056786444
153	0x3e20e567	0.1571251
154	0xbe909505	-0.28238693
155	0x3e2ac9d9	0.16678561
156	0xbe3537db	-0.17697088
157	0x3ca78dde	0.02045339
158	0x3df239c5	0.11827425
159	0x3ea69d02	0.32541662
160	0x3e673c46	0.22581586
161	0x3c56ae43	0.013103071
162	0xbec8bc8f	-0.3920636
163	0x3df67c11	0.120353825
164	0x3ea4479e	0.3208589
165	0x3e810b19	0.2520378
166	0xbdf80d83	-0.12111952
167	0x3d5515b9	0.05202267
168	0xbb9c809c	-0.0047760736
169	0x3c856cfe	0.016287323
170	0x3e9fc4d1	0.31204847
171	0xbe8445a3	-0.2583438
172	0x3eb7d2c5	0.35902992
173	0xbe8bb893	-0.27289256
174	0x3e1c6281	0.15271951
175	0x3e884487	0.26614782
176	0xbe4dc5a7	-0.2009493
177	0xbeb0dd30	-0.34543753
178	0xbcf64058	-0.030059978
179	0x3e5ceb6d	0.21574183
180	0xbcd9ee0e	-0.026602771
181	0x3e1c8eea	0.15288892
182	0x3e919dbb	0.2844065
183	0x3d971d42	0.07378627
184	0x3e34a157	0.17639671
185	0xbe450287	-0.19239245
186	0xbd975f3e	-0.07391213
187	0x3cd7686f	0.026294915
188	0xbe942ee4	-0.28942025
189	0x3da2a069	0.07940752
190	0x3e4dacac	0.200854
191	0xbec90636	-0.3926255
192	0x3e12c724	0.14333779
193	0xbecc4c50	-0.39901972
194	0xbd2e81f2	-0.042604394
195	0xbe978194	-0.29591048
196	0x3e9d14b9	0.30679873
197	0xbeb0b414	-0.3451239
198	0xbe14b59a	-0.145224
199	0xbed34e76	-0.41270798
200	0x3e606c78	0.21916378
201	0xbe72c53f	-0.23708056
202	0x3ea8a71c	0.32939994
203	0xbe9d19cc	-0.30683744
204	0xbe5b2637	-0.21401297
205	0xbe6c35ef	-0.23067449
206	0x3ea7f042	0.3280049
207	0xbe1e69b4	-0.1547001
208	0xbcd6cfdf	-0.026222168
209	0xbe8912e6	-0.2677223
210	0xbe19d812	-0.1502383
211	0x3df4283c	0.119217366
212	0xbe67a4b8	-0.22621429
213	0x3e91cd5f	0.28476998
214	0x3dc534a6	0.096291825
215	0xbd1ca841	-0.038246397
216	0xbcdd7070	-0.027031153
217	0xbeaf119d	-0.34193125
218	0xbe430455	-0.19044621
219	0x3e4131f5	0.18866713
220	0xbd58b981	-0.052911285
221	0xbed8838f	-0.4228787
222	0xbdd20b46	-0.102560565
223	0x3ed398e8	0.41327596
224	0x3e775dff	0.2415695
225	0xbeaa5e67	-0.33275148
226	0xbe80ff4d	-0.2519478
227	0xbe8d8724	-0.27642167
228	0xbe89e084	-0.26929104
229	0xbd866b8a	-0.0656348
230	0x3d706733	0.05869217
231	0x3dfd5c57	0.12371128
232	0xbed1e850	-0.40997553
233	0xbde56cb6	-0.112023756
234	0xbc5f7560	-0.013638824
235	0xbe42cada	-0.19022694
236	0xbd3083a6	-0.0430943
237	0x3ddb24bf	0.10700368
238	0xbe69afa7	-0.22820912
239	0xbcc456e8	-0.023967221
240	0x3ec6bd19	0.38816145
241	0x3ed2cd74	0.41172373
242	0xbe25337c	-0.16132921
243	0x3edb9cea	0.42893153
244	0x3e8cc1f0	0.27491713
245	0xbeb081bf	-0.34473988
246	0xbebff414	-0.37490904
247	0xbe0ca361	-0.13734199
248	0xbe98c47d	-0.2983741
249	0x3dcf547d	0.10123537
250	0xbddccbd9	-0.10781068
251	0x3e40ac3c	0.18815702
252	0xbca700d5	-0.020386139
253	0xbe9fe50f	-0.31229445
254	0x3e579797	0.2105392
255	0x3ecf28d7	0.40460846

graph_embedding2.lin_edge.weight f4 [16, 2]
0	0xbed977bc	-0.42474163
1	0x3f09de2e	0.53854644
2	0xbe6e26b1	-0.23256947
3	0xbda9e082	-0.082947746
4	0xbf0e7268	-0.5564332
5	0xbee9e784	-0.45684445
6	0xbec46c6a	-0.38363963
7	0x3eb1ea28	0.3474896
8	0xbe8cd0bc	-0.27503002
9	0xbe382fa4	-0.17986923
10	0x3e5492a9	0.20759071
11	0xbf13cb00	-0.5773163
12	0xbd961a2f	-0.07329213
13	0xbe13686a	-0.143953
14	0x3e0c184e	0.13681147
15	0xbec1bf61	-0.37841323
16	0xbef792df	-0.4835424
17	0x3e62ca18	0.22147405
18	0xbe986e5c	-0.29771698
19	0x3e8279f2	0.25483662
20	0xbe94642d	-0.28982678
21	0x3e15ffdd	0.14648385
22	0x3ef69d33	0.48166808
23	0x3c9cdefd	0.019149298
24	0xbdf58c78	-0.11989683
25	0xbf0b6358	-0.5444846
26	0xbeb80fe9	-0.35949638
27	0x3cc1effe	0.023674008
28	0xbe346beb	-0.17619292
29	0x3edd0fdd	0.43176165
30	0xbec4c28d	-0.3842968
31	0x3da2f044	0.07955983

norm_lin1.weight f4 [16]
0	0x3f7f3f25	0.99705726
1	0x3f803f14	1.001925
2	0x3f7fb7db	0.99889916
3	0x3f7fddbe	0.99947727
4	0x3f80004c	1.0000091
5	0x3f802d1a	1.0013764
6	0x3f7f72a7	0.9978432
7	0x3f7f6238	0.99759245
8	0x3f80379c	1.0016971
9	0x3f7f9ca3	0.99848384
10	0x3f7fc59c	0.999109
11	0x3f8032aa	1.0015461
12	0x3f801b4f	1.0008334
13	0x3f8073c0	1.0035324
14	0x3f800680	1.0001984
15	0x3f80831a	1.0040009

norm_lin1.bias f4 [16]
0	0x39e85d06	0.00044319796
1	0xbafb5829	-0.0019176054
2	0xbaba88b1	-0.0014231411
3	0xb9a6dd5a	-0.00031826907
4	0x3927940c	0.00015981513
5	0xb9c1912f	-0.0003692
6	0x3aceea75	0.0015786426
7	0xb9974ce6	-0.00028858258
8	0xbaac9bb1	-0.0013168958
9	0xbab7d3ed	-0.0014024951
10	0xb71ae9c8	-9.233547e-06
11	0xb9d638ec	-0.0004085967
12	0xbb26f207	-0.002547385
13	0xba9c6d32	-0.0011934398
14	0xbb3baed3	-0.002863814
15	0xbb13792f	-0.002250265

norm_lin1.running_mean f4 [16]
0	0x3e5177aa	0.20455804
1	0x3f220f86	0.63304937
2	0x3de3f379	0.11130423
3	0x3dbfb2db	0.09360286
4	0x3f041541	0.5159493
5	0x3e3168da	0.17325154
6	0x3e9f33ef	0.3109431
7	0x3de814be	0.11332081
8	0x3e0e8b1a	0.1392025
9	0x3de1ccfe	0.11025427
10	0x3fa1199a	1.2585938
11	0x3e815c81	0.25265887
12	0x3e0cd41f	0.13752793
13	0x3dd549d2	0.10414471
14	0x3ed330c4	0.41248143
15	0x3f8b406a	1.0879033

norm_lin1.running_var f4 [16]
0	0x3d1290c5	0.035782594
1	0x3e618082	0.22021678
2	0x3c47d18d	0.012195957
3	0x3c8049bc	0.01566016
4	0x3e1858c9	0.14877619
5	0x3cb0ad5d	0.021567041
6	0x3d6bcba8	0.05756727
7	0x3d4dc54a	0.050236978
8	0x3c560692	0.01306309
9	0x3c2730e2	0.010204526
10	0x3f5ab67b	0.85434693
11	0x3db13971	0.08653534
12	0x3c5fcd88	0.013659842
13	0x3ccd8956	0.025089901
14	0x3db35252	0.08755936
15	0x3f2483aa	0.64263403

lin_1.weight f4 [16, 16]
0	0xbc877b20	-0.016538203
1	0x3ddc6ed7	0.107633285
2	0x3e9a5851	0.30145505
3	0x3e6e56f4	0.23275357
4	0x3dad1d2a	0.08452828
5	0x3ec76445	0.38943687
6	0xbf0ab63b	-0.5418431
7	0xbe236029	-0.15954651
8	0x3e42d88c	0.19027919
9	0x3c8295ad	0.015940512
10	0xbe89f659	-0.2694576
11	0x3e21411b	0.15747492
12	0xbea8716f	-0.32899043
13	0xbd600523	-0.0546924
14	0x3ded0675	0.11573497
15	0xbea78815	-0.3272101
16	0x3daa99a6	0.08330087
17	0xbd61752b	-0.05504338
18	0x3e81ebf6	0.25375336
19	0x3e90ac92	0.2825666
20	0x3e263a6d	0.16233225
21	0xbf2589a1	-0.6466313
22	0xbe7b33e1	-0.24531509
23	0x3e938fad	0.28820553
24	0x3d1dee09	0.038557086
25	0x3dd1e21f	0.10248207
26	0xbe692e4f	-0.22771572
27	0x3e9934d0	0.29923105
28	0x3d0d4614	0.03449066
29	0x3e066b0c	0.13126773
30	0xbe78d644	-0.24300486
31	0x3e28b0da	0.16473714
32	0xbe9e552d	-0.3092436
33	0xbca777ca	-0.020442862
34	0xbecc952a	-0.39957553
35	0xbedd240a	-0.43191558
36	0xbe283cf2	-0.16429499
37	0xbdb64803	-0.08900454
38	0xbeee9170	-0.46595335
39	0xbdc53370	-0.096289515
40	0xbd41f1aa	-0.04734961
41	0x3db20eed	0.08694253
42	0xbec9a23e	-0.39381593
43	0xbe04a0aa	-0.12951913
44	0xbd5b03b4	-0.05347033
45	0x3e4a19df	0.19736432
46	0xbc3c447f	-0.01149094
47	0x3e881b8c	0.26583517
48	0x3e3ed12a	0.18634477
49	0xbd89d677	-0.06730359
50	0x3d325344	0.04353644
51	0xbe72b750	-0.2370274
52	0xbd0d2649	-0.03446034
53	0xbe5e1414	-0.21687347
54	0xbeb767eb	-0.3582147
55	0xbe3d2f13	-0.18474989
56	0x3ed95e6d	0.42454854
57	0x3e6358e7	0.22201882
58	0x3f199bfd	0.60003644
59	0xbdb687a8	-0.08912593
60	0xbdc7d04b	-0.097565256
61	0xbe86be72	-0.26317173
62	0xbc85890e	-0.016300704
63	0x3e02ac5b	0.12761061
64	0x3e985528	0.2975247
65	0x3e47a8e3	0.19498019
66	0x3dbda3c1	0.09259749
67	0xbea603eb	-0.32424864
68	0xbb83b129	-0.004018922
69	0x3ed1b43b	0.40957817
70	0xbd8e1ccb	-0.069390856
71	0x3f14c69f	0.5811557
72	0xbdcbe355	-0.099554695
73	0x3e963994	0.29340804
74	0xbcadfbe8	-0.021238282
75	0x3c2b1a15	0.01044323
76	0xbc1855ba	-0.009297783
77	0xbda322b3	-0.07965603
78	0xbebecf5b	-0.37267575
79	0x3dcd4c15	0.10024277
80	0x3d2f1684	0.042746082
81	0xbeb98452	-0.36233765
82	0xbd8bb1f2	-0.0682105
83	0x3dffde8c	0.12493619
84	0xbd409a4a	-0.04702214
85	0x3da04164	0.07824972
86	0x3e38517b	0.17999832
87	0x3e01a491	0.12660433
88	0x3eb858de	0.360053
89	0x3ebf0392	0.3730741
90	0x3c90006f	0.017578332
91	0xbe720b0b	-0.23637025
92	0xbe60820f	-0.21924613
93	0x3f1fdd0e	0.6244668
94	0x3aa9a801	0.0012943746
95	0xbe28b7a9	-0.16476311
96	0xbe88cc0b	-0.26718172
97	0xbd0a7d34	-0.03381081
98	0x3e0170e0	0.12640715
99	0x3d61fd96	0.05517348
100	0x3e8e96d0	0.27849436
101	0x3e9c47df	0.30523583
102	0xbd4dd8ad	-0.050255466
103	0xbe9dca11	-0.30818227
104	0x3e00094f	0.12503551
105	0x3e70af59	0.2350439
106	0x3db1cc99	0.08681602
107	0x3e3ed4c3	0.1863585
108	0x3f212c75	0.6295846
109	0x3e4012f6	0.18757233
110	0xbe7eae18	-0.24871099
111	0x3e3c2c5b	0.18376295
112	0x3e7e981c	0.24862713
113	0x3e97a587	0.29618475
114	0xbefa0a21	-0.48835853
115	0x3dbd7c2a	0.09252198
116	0xbd3816e9	-0.044943724
117	0xbdc5e900	-0.09663582
118	0xbe1bdee0	-0.15221739
119	0xbe110b92	-0.1416457
120	0xbe931bc9	-0.28732136
121	0x3e5babc6	0.21452245
122	0x3e6eba93	0.2331336
123	0x3eb52d46	0.35386103
124	0x3d8197c7	0.06327777
125	0x3e759fe1	0.2398677
126	0xbd827dcf	-0.06371652
127	0xbed6806c	-0.41894853
128	0xbe670ce5	-0.22563513
129	0xbe7e9868	-0.24862826
130	0x3e5b4009	0.21411146
131	0xbeaa70a6	-0.3328907
132	0xbe2b0f3d	-0.16705032
133	0xbe333849	-0.1750194
134	0x3e03589f	0.12826775
135	0x3d937397	0.071997814
136	0xbd8449b9	-0.06459374
137	0x3ee4035b	0.4453381
138	0xbe20659f	-0.15663765
139	0x3e543e50	0.20726895
140	0x3e476c03	0.19474797
141	0xbe88d5aa	-0.26725513
142	0x3e824457	0.25442764
143	0xbeeabdc1	-0.45847896
144	0xbdf50e4a	-0.11965616
145	0xbe932901	-0.2874222
146	0x3cf53a8c	0.029935144
147	0xbe341ca7	-0.17589055
148	0x3f1a476f	0.6026525
149	0xbcce27c5	-0.025165448
150	0xbe91ee66	-0.28502196
151	0x3e6f02e1	0.23340942
152	0xbea92eb8	-0.33043456
153	0xbe56cca6	-0.20976505
154	0x3e838dd4	0.25694144
155	0xbe75a3f8	-0.2398833
156	0x3d1088f6	0.035286866
157	0x3e01a888	0.12661946
158	0x3dce8ba2	0.100852266
159	0xbe84cc89	-0.25937298
160	0xbd5c48d3	-0.053780388
161	0x3ea84b66	0.32870024
162	0xbe27efa4	-0.1640001
163	0xbe881857	-0.2658107
164	0x3f1ec732	0.620227
165	0xbe099dca	-0.13439098
166	0x3eae0d5d	0.3399457
167	0xbe151c68	-0.14561617
168	0x3e97932d	0.29604474
169	0x3dde5974	0.108569056
170	0xbe578010	-0.21044946
171	0x3d5f9cd0	0.054592907
172	0xbe8e6100	-0.2780838
173	0xbdd95d36	-0.10613482
174	0xbddf45c6	-0.1090198
175	0xbda2146a	-0.0791405
176	0x3f0c08d9	0.54701
177	0x3d6207c9	0.055183206
178	0xbb35384b	-0.0027651961
179	0x3d4bdf20	0.049773335
180	0x3da8911a	0.08230801
181	0xbdd449eb	-0.10365661
182	0xbdb4ab6f	-0.08821761
183	0xbe397541	-0.18111135
184	0x3d10b5d0	0.03532964
185	0x3daca384	0.08429626
186	0xbeb86479	-0.36014155
187	0xbf08f226	-0.5349449
188	0x3ed60722	0.41802317
189	0xbdb3367e	-0.08750628
190	0x3d95a903	0.07307627
191	0xbe1a4c69	-0.1506821
192	0xbeaf2218	-0.342057
193	0x3ed2b5eb	0.41154417
194	0x3e21182f	0.15731882
195	0xbd9afd1d	-0.07567809
196	0xbe814e13	-0.25254878
197	0xbe2b6523	-0.167378
198	0xbd2d1240	-0.042253733
199	0x3e152ea9	0.1456858
200	0x3e8724e3	0.2639533
201	0xbe890965	-0.2676498
202	0x3dd028e9	0.10164053
203	0xbe8cccff	-0.2750015
204	0x3e34022c	0.17578954
205	0x3e0a5d32	0.13512114
206	0xbeade8ea	-0.33966762
207	0xbed670c2	-0.41882902
208	0x3e6900e1	0.22754242
209	0xbe5461fd	-0.20740505
210	0xbe8621ab	-0.26197562
211	0xbe4695a9	-0.19393028
212	0x3b92b502	0.004477144
213	0x3dbea5de	0.093089804
214	0xbd29e858	-0.041481346
215	0x3e803b73	0.25045356
216	0x3ef9c46a	0.48782665
217	0xbee7cc50	-0.45273066
218	0xbdcbb6a9	-0.09946949
219	0x3ec9e9a7	0.39436075
220	0x3e8f42cd	0.27980652
221	0x3d1d0ead	0.038344074
222	0x3e312e37	0.17302786
223	0xbdcbde2b	-0.099544846
224	0xbdcf46c5	-0.1012092
225	0x3f00ca53	0.5030872
226	0x3d8fbdcc	0.07018623
227	0x3d817556	0.06321208
228	0x3d9e14f5	0.07718841
229	0xbca29fbc	-0.019851558
230	0xbd293c5e	-0.041317336
231	0x3e93aa9e	0.28841108
232	0x3db08db9	0.086207815
233	0x3e2d2dd3	0.16912012
234	0x3de62b91	0.112387784
235	0xbd1e3404	-0.038623825
236	0x3e150537	0.1455277
237	0x3e464c8d	0.1936514
238	0x3f316bca	0.693051
239	0x3e618e8a	0.2202703
240	0x3e98e547	0.29862425
241	0x3dae33e0	0.08505988
242	0x3efc3d72	0.4926563
243	0xbef3fbdb	-0.47653088
244	0xbd9b3121	-0.0757773
245	0xbd801174	-0.06253329
246	0x3daffcf3	0.08593168
247	0xbe9e9091	-0.3096967
248	0xbe1efb71	-0.15525605
249	0xbe447326	-0.1918455
250	0x3bfb472f	0.007668398
251	0x3e2b7822	0.16745046
252	0xbdb3cee1	-0.087796934
253	0x3eef53c4	0.46743596
254	0x3d8239d2	0.063586846
255	0x3d3ebdd6	0.04656776

lin_1.bias f4 [16]
0	0xb9536717	-0.00020160932
1	0x3b546172	0.0032406715
2	0xbb04d170	-0.0020266436
3	0x389b33b9	7.40061e-05
4	0x38bf197e	9.112338e-05
5	0x3af7de5b	0.0018910872
6	0xbab514ed	-0.001381544
7	0x398f9206	0.0002738388
8	0x3b4128a7	0.0029473694
9	0x3a27f36d	0.00064068177
10	0x3a681bfd	0.0008854268
11	0xba9dc448	-0.0012036646
12	0x398474e6	0.00025264098
13	0xb9ec7ecf	-0.00045107907
14	0xbb3494c1	-0.0027554485
15	0xb9b92e88	-0.00035320618

norm_lin2.weight f4 [32]
0	0x3f802c97	1.0013608
1	0x3f7f583f	0.9974403
2	0x3f8032ab	1.0015463
3	0x3f7f6bd9	0.9977394
4	0x3f805475	1.0025774
5	0x3f7f99ab	0.99843854
6	0x3f801125	1.0005232
7	0x3f80381f	1.0017127
8	0x3f80259c	1.0011477
9	0x3f7f9210	0.9983225
10	0x3f80175e	1.0007131
11	0x3f803d66	1.0018737
12	0x3f7f5ede	0.9975413
13	0x3f802973	1.0012649
14	0x3f802145	1.0010153
15	0x3f8031eb	1.0015234
16	0x3f804dd5	1.0023752
17	0x3f8059c0	1.002739
18	0x3f8046cb	1.0021604
19	0x3f7f8601	0.9981385
20	0x3f7f4b4a	0.99724257
21	0x3f7f5737	0.99742454
22	0x3f805688	1.0026407
23	0x3f7fedee	0.99972427
24	0x3f7ffe20	0.9999714
25	0x3f7f09e4	0.99624467
26	0x3f80336d	1.0015694
27	0x3f801ad0	1.0008183
28	0x3f7f51e0	0.99734306
29	0x3f7fd696	0.9993681
30	0x3f808b29	1.0042468
31	0x3f801037	1.0004948

norm_lin2.bias f4 [32]
0	0x3b2bf23b	0.002623691
1	0xbb6a6bfb	-0.0035769928
2	0x3b521a3b	0.0032059092
3	0x39676bd7	0.0002207005
4	0x3a4b3140	0.0007751174
5	0xbb02a7d7	-0.0019936466
6	0x3b04cc2c	0.0020263297
7	0x3ad78524	0.0016442877
8	0xbb37b0b8	-0.0028028917
9	0xb953af21	-0.00020187769
10	0x3b06168e	0.002046022
11	0x39e61a2b	0.00043888515
12	0x3b027607	0.0019906776
13	0x39a59aee	0.00031586684
14	0xb98e7dcc	-0.00027178077
15	0xbb2755c1	-0.002553329
16	0xbb47d915	-0.0030494381
17	0x3b4d3bdb	0.0031316194
18	0xba6c69d5	-0.0009018456
19	0xba8d680d	-0.0010788456
20	0x3b2cfba0	0.0026395097
21	0xbaeda6b8	-0.0018131351
22	0x3ad8cd59	0.001654069
23	0xbb11b1f1	-0.0022231305
24	0xbb1bd32a	-0.0023776987
25	0x3acae278	0.001547887
26	0x3a6940f2	0.0008897922
27	0xbac5bab2	-0.0015085547
28	0x3acb737f	0.0015522091
29	0xbb41aae7	-0.0029551329
30	0x3ae65c1e	0.001757506
31	0xbb15fc57	-0.0022886002

norm_lin2.running_mean f4 [32]
0	0x3ebb43be	0.3657512
1	0x3f334d87	0.7004017
2	0x3e3b1042	0.1826792
3	0x3e884480	0.2661476
4	0x3e07d075	0.13263114
5	0x3eef558c	0.46744955
6	0x3e744c4a	0.23857227
7	0x3e922a8a	0.2854808
8	0x3f572d63	0.8405363
9	0x3e2d4781	0.16921808
10	0x3f0f08f6	0.5587305
11	0x3ef85b52	0.48507172
12	0x3e1d0a1c	0.15335888
13	0x3f1a76f0	0.60337734
14	0x3e40f380	0.18842888
15	0x3e9903dd	0.2988576
16	0x3e5177aa	0.20455804
17	0x3f220f86	0.63304937
18	0x3de3f379	0.11130423
19	0x3dbfb2db	0.09360286
20	0x3f041541	0.5159493
21	0x3e3168da	0.17325154
22	0x3e9f33ef	0.3109431
23	0x3de814be	0.11332081
24	0x3e0e8b1a	0.1392025
25	0x3de1ccfe	0.11025427
26	0x3fa1199a	1.2585938
27	0x3e815c81	0.25265887
28	0x3e0cd41f	0.13752793
29	0x3dd549d2	0.10414471
30	0x3ed330c4	0.41248143
31	0x3f8b406a	1.0879033

norm_lin2.running_var f4 [32]
0	0x3e8ff6d7	0.2811801
1	0x3f9e2e56	1.2357891
2	0x3dc8aa32	0.09798087
3	0x3e55e614	0.20888549
4	0x3c9f7351	0.019464167
5	0x3f05dc88	0.5228963
6	0x3d3802eb	0.044924658
7	0x3efe686e	0.4968905
8	0x3fdc5e82	1.7216341
9	0x3d42c0bd	0.04754709
10	0x3e61357a	0.21993056
11	0x3f20534f	0.6262712
12	0x3da3a0f0	0.07989681
13	0x3f540f7a	0.82836115
14	0x3dfb8d8a	0.12282856
15	0x3e814542	0.25248152
16	0x3d1290c5	0.035782594
17	0x3e618082	0.22021678
18	0x3c47d18d	0.012195957
19	0x3c8049bc	0.01566016
20	0x3e1858c9	0.14877619
21	0x3cb0ad5d	0.021567041
22	0x3d6bcba8	0.05756727
23	0x3d4dc54a	0.050236978
24	0x3c560692	0.01306309
25	0x3c2730e2	0.010204526
26	0x3f5ab67b	0.85434693
27	0x3db13971	0.08653534
28	0x3c5fcd88	0.013659842
29	0x3ccd8956	0.025089901
30	0x3db35252	0.08755936
31	0x3f2483aa	0.64263403
