Network/Weights/ppo_critic.pth (torch, 22251 bytes, 37 tensors)

graph_embedding.att_src f4 [1, 1, 16]
00000000: 05ab 8b3e 7e88 df3e 1bfb b5bd cff1 143f
00000010: 25e5 163f a568 93be 9fe1 dbbe 140c d83e
00000020: 3eac c43d a1cf 92be 9c4c 1e3e 61b6 4bbe
00000030: 477d 0e3f 1bfd 6abd 091c 00bf 9d7a 893d
0.27278915 0.43658823 -0.08885785 0.5818147 0.58943397 -0.28790775 -0.42945573 0.42196715
0.09603165 -0.28674033 0.15458912 -0.19893791 0.5565991 -0.057370286 -0.5004278 0.0671284

graph_embedding.att_dst f4 [1, 1, 16]
00000000: 6bb1 483e 5d8a 833e 784d 0bbe 3ce1 cc3e
00000010: db23 393e dd96 083f de8f a43e 7f80 8b3e
00000020: 2500 d0bd 2f84 9d3e 55ef 16bf b58d 83be
00000030: b874 da3d 50a1 f23e 7bf9 15bf 72d3 00bc
0.1959893 0.256915 -0.1360377 0.4001559 0.18080084 0.533552 0.32141012 0.27246472
-0.101562776 0.3076491 -0.5895894 -0.2569405 0.106667936 0.47388697 -0.585838 -0.0078629125

graph_embedding.att_edge f4 [1, 1, 16]
00000000: 5282 07bf 4b55 cdbe 3464 c33e 58f4 e33e
00000010: 6086 043f 4d7e a6be 1c55 ecbe 3197 10bf
00000020: 39f5 dbbe fb1b 02bf c1c8 cbbe 368c 103e
00000030: 6076 73be cc3e 16bf 70af f53e bb22 f9be
-0.5293323 -0.40104136 0.38162386 0.44522357 0.5176754 -0.32518235 -0.46158683 -0.564807
-0.42960528 -0.50823945 -0.398016 0.14115986 -0.23775625 -0.5868957 0.4798541 -0.4865931

graph_embedding.bias f4 [16]
00000000: b099 7835 0000 0000 631c d935 49d2 88b5
00000010: 0000 0000 87a1 1cb5 0000 0000 ac50 ceb4
00000020: 0000 0000 0000 0000 0000 0000 0000 0000
00000030: b0e5 eeb6 160e f2b4 73aa e634 0000 0000
9.2610844e-07 0.0 1.6176022e-06 -1.0193991e-06 0.0 -5.834958e-07 0.0 -3.8429187e-07
0.0 0.0 0.0 0.0 -7.119692e-06 -4.5086261e-07 4.2964857e-07 0.0

graph_embedding.lin_src.weight f4 [16, 15]
00000000: d014 3cbd 3919 d9be 6321 523e e5f6 d7bc
00000010: 5b93 933e 976e 333e 4c0c a3bc 79a6 303c
00000020: ccbf c63e 14ba f13d 35e0 6abd 61a5 623e
00000030: c7a3 97be 705d fc3c 8884 bfbd aeda 04be
00000040: 1a4b 173e 4e08 77be d233 fabd 4273 cfbd
00000050: 1560 0e3e 2f0a 5a3d 803e cdbe 896b b33e
00000060: 2319 01bc 39a0 c6be 99a2 45bc 09f1 adbe
00000070: e584 bf3e b8e6 b5be a3e8 ca3e 15a6 d5be
00000080: 7dd7 173e 15fc bf3d db3c c4be b030 dc3d
00000090: cf71 de3e cfef 243d 6ced 713d 1343 df3d
000000a0: 78ab c33e aa1b 8cbe 7e38 ccbe fb1d 7e3e
000000b0: a3cd d9be be14 72be 66ad 633e 6038 fd3d
000000c0: 6043 ad3e 37cc 6b3d de04 293d 2878 6f3e
000000d0: 605a 023d a229 b93e 4526 743e 447f 0ebd
000000e0: a1da 28bd db58 9cbe 4b31 ebbd 97da d6bd
000000f0: bd4e df3e d1cd b43e b579 98be 1d40 cdbb
00000100: 3cf1 70bd fccd 113e 3a59 95be 282a 2b3d
00000110: d515 f1bd 8765 41be 6ce2 513d 77cd 41bd
00000120: c4d1 a3bd 69a2 fdbc 0d4f 89be b276 9fbd
00000130: 8e52 38be bb77 a73d 616a b73e c7a2 adbe
00000140: 1313 de3e f1d7 813e 87e5 cf3e 3284 643e
00000150: 6dae 963d 758d dcbe c4f2 aebe 9af5 bc3e
00000160: 4f68 b13e 49e1 34be 5483 3d3e ab3a 48be
00000170: 0c8e abbe b497 d13e afc0 2dbe 95db 043b
00000180: da89 be3d 75fb 3abd cbbf b3bd 7b43 14bd
00000190: f5ce c93e eab7 663e 39f6 b03e f7fe 433e
000001a0: 7dab 353e fb80 b3be f9dd d73d 38e7 423e
000001b0: c0f7 75be 18e6 413e 5868 15bd 29bc ecbc
000001c0: d43e afbb f627 903e ef0e d33e fc4a 38be
000001d0: 68de 80be a349 02be 3b68 863e e7a5 c93e
000001e0: a296 413c a206 ccbd 0647 8cbe 7e12 0ebc
000001f0: b710 c13e 1004 5bbe 7609 c9be 1085 2bbd
00000200: a6fb 403e 59b2 c2be 259e a23b ec0b 2c3e
00000210: 9f2a ba3e 6402 a13d e86f 2dbe 5068 dabe
00000220: 3fcc 423e 3cf4 a2be 5e6a b73e 7019 bebe
00000230: 9763 67be 85eb b8be 6481 d93e eece fa3d
00000240: d87e 80be b4c6 bf3e c4dd 88be 9f03 d03b
00000250: 3622 9a3e 8a5d 833e 014b 163e d051 b8be
00000260: 1216 45be dc8b bcbd 5dc4 b7be 8bc1 fe3d
00000270: 1b1a b7be 4096 a7bd 1760 893e e7e9 7fbe
00000280: bae7 aebe 1120 be3e 9be8 043e 4b0b 0ebe
00000290: fbd6 e33c 0654 18bc c5fc ddbe 6892 c9be
000002a0: e9ba b7be 6f99 b03e cafb d7be 00c6 b83c
000002b0: bc33 53be cbcc 1f3e d879 92be ab86 70be
000002c0: 8437 c3bc ce1a 93bd b4a1 d7bd 5a1b 6b3e
000002d0: 37ec 44be b104 b53e 1af1 74bd b5c5 6dbe
000002e0: 6677 b53e 8ebc 3ebd 5293 40be 30c4 0e3d
000002f0: 3bbf 9bbe 476c 833c 73ae 18be 6c58 76be
00000300: 62b7 58bc 33f8 423c 6ccd 2dbe f721 70bd
00000310: f75f 8f3d 09df 95be c9bb afbe 854e d43e
00000320: cdfd f73d c057 dd3e 044d b63e 3cd0 703e
00000330: beaf 7f3e 2194 263e 014e b0be d5f6 ccbe
00000340: 33c9 b23e fdc6 893e 8c93 bebe 6d69 a53e
00000350: 8bef d1be 4834 9b3d 9c3d c03e 4623 833e
00000360: 182f da3e 14dc 453e f24d 2d3e 3c02 883e
00000370: baa9 15be 6f61 adbe 5a78 a2be 28d0 a83e
00000380: 66f8 4ebe 15d5 abbd 434c ad3d 3446 bd3e
00000390: 3b59 36be 4aae a13d bc2b 663e e77c 1dbd
000003a0: 924c 863e f805 6f3e ae08 f1bd e8f9 403e
000003b0: 193b c13e c3fe a33e a1cb de3e 7c3e 893e
-0.045918286 -0.42402056 0.20520549 -0.026362846 0.2882336 0.17522655 -0.019903325 0.010781878
0.38818204 0.1180307 -0.057342727 0.221334 -0.2961714 0.030806273 -0.0935145 -0.12974045
0.14774743 -0.24124262 -0.12216915 -0.101294056 0.1390384 0.053232368 -0.40086746 0.3504298
-0.007879528 -0.38794115 -0.012062692 -0.33972958 0.37406078 -0.35527587 0.39630613 -0.41728273
0.14828296 0.09374253 -0.3832768 0.10751474 0.43446204 0.04026776 0.059064314 0.10901465
0.38216758 -0.27364856 -0.3988685 0.24816124 -0.425397 -0.23640725 0.22234115 0.12364268
0.33840466 0.0575678 0.041264407 0.2338568 0.03182447 0.36164576 0.23842724 -0.03478934
-0.041224126 -0.3053654 -0.11484011 -0.104909115 0.4361476 0.35313275 -0.29780355 -0.0062637464
-0.05882381 0.14238733 -0.29169637 0.04178825 -0.11771742 -0.18886386 0.051241323 -0.047315087
-0.07998994 -0.030961232 -0.26818123 -0.07786311 -0.18000242 0.08177134 0.35823348 -0.33913252
0.43373927 0.25360063 0.40604803 0.22316054 0.07357488 -0.43076673 -0.3416959 0.3690613
0.34649894 -0.17664064 0.18507129 -0.1955363 -0.3350681 0.40936053 -0.16968034 0.0020272483
0.09303637 -0.045649964 -0.08776816 -0.036197167 0.39415708 0.22531095 0.34562853 0.1914023
0.17741199 -0.35059342 0.10540385 0.19033515 -0.2402029 0.1893543 -0.036476463 -0.028898316
-0.005348066 0.28155488 0.4122233 -0.17997354 -0.25169683 -0.12723403 0.26251397 0.39384386
0.011815699 -0.099622026 -0.27397937 -0.008671401 0.37708065 -0.21388268 -0.3926503 -0.041874945
0.18845996 -0.38026693 0.0049627 0.16801423 0.36360642 0.07861784 -0.1693722 -0.4265771
0.19023226 -0.3182696 0.3582334 -0.37128782 -0.22596584 -0.36117187 0.4248153 0.122465
-0.25096774 0.37456286 -0.26731694 0.006348088 0.30104226 0.25657302 0.14677049 -0.35999918
-0.192467 -0.092063636 -0.35892 0.12439259 -0.35762104 -0.08182955 0.26831123 -0.2499157
-0.34161168 0.3713384 0.12979357 -0.13871495 0.027812472 -0.0092973765 -0.4335691 -0.39369512
-0.3588479 0.3449206 -0.42184287 0.022555351 -0.20625204 0.15605466 -0.28608584 -0.23488872
-0.023830183 -0.07182847 -0.10528889 0.22959653 -0.19230734 0.35355142 -0.059800245 -0.2321995
0.35442656 -0.04656654 -0.18806198 0.034855068 -0.30419335 0.016042842 -0.14910297 -0.24057168
-0.013227316 0.011899996 -0.16972893 -0.05862614 0.07000726 -0.29271725 -0.34322956 0.41466156
0.121089555 0.4323101 0.35605633 0.23516935 0.24969384 0.16267444 -0.34434512 -0.40032068
0.34919128 0.2690963 -0.37221944 0.32306996 -0.4100307 0.07578331 0.37547004 0.2561285
0.42614055 0.19322234 0.16924265 0.26564205 -0.14615527 -0.33863398 -0.31732446 0.3297131
-0.20211944 -0.083902515 0.084618114 0.36967623 -0.17807476 0.07894571 0.22477621 -0.038449194
0.26230294 0.2334212 -0.11769234 0.18845332 0.377404 0.32030305 0.43514732 0.26805484

graph_embedding.lin_dst.weight f4 [16, 15]
00000000: d014 3cbd 3919 d9be 6321 523e e5f6 d7bc
00000010: 5b93 933e 976e 333e 4c0c a3bc 79a6 303c
00000020: ccbf c63e 14ba f13d 35e0 6abd 61a5 623e
00000030: c7a3 97be 705d fc3c 8884 bfbd aeda 04be
00000040: 1a4b 173e 4e08 77be d233 fabd 4273 cfbd
00000050: 1560 0e3e 2f0a 5a3d 803e cdbe 896b b33e
00000060: 2319 01bc 39a0 c6be 99a2 45bc 09f1 adbe
00000070: e584 bf3e b8e6 b5be a3e8 ca3e 15a6 d5be
00000080: 7dd7 173e 15fc bf3d db3c c4be b030 dc3d
00000090: cf71 de3e cfef 243d 6ced 713d 1343 df3d
000000a0: 78ab c33e aa1b 8cbe 7e38 ccbe fb1d 7e3e
000000b0: a3cd d9be be14 72be 66ad 633e 6038 fd3d
000000c0: 6043 ad3e 37cc 6b3d de04 293d 2878 6f3e
000000d0: 605a 023d a229 b93e 4526 743e 447f 0ebd
000000e0: a1da 28bd db58 9cbe 4b31 ebbd 97da d6bd
000000f0: bd4e df3e d1cd b43e b579 98be 1d40 cdbb
00000100: 3cf1 70bd fccd 113e 3a59 95be 282a 2b3d
00000110: d515 f1bd 8765 41be 6ce2 513d 77cd 41bd
00000120: c4d1 a3bd 69a2 fdbc 0d4f 89be b276 9fbd
00000130: 8e52 38be bb77 a73d 616a b73e c7a2 adbe
00000140: 1313 de3e f1d7 813e 87e5 cf3e 3284 643e
00000150: 6dae 963d 758d dcbe c4f2 aebe 9af5 bc3e
00000160: 4f68 b13e 49e1 34be 5483 3d3e ab3a 48be
00000170: 0c8e abbe b497 d13e afc0 2dbe 95db 043b
00000180: da89 be3d 75fb 3abd cbbf b3bd 7b43 14bd
00000190: f5ce c93e eab7 663e 39f6 b03e f7fe 433e
000001a0: 7dab 353e fb80 b3be f9dd d73d 38e7 423e
000001b0: c0f7 75be 18e6 413e 5868 15bd 29bc ecbc
000001c0: d43e afbb f627 903e ef0e d33e fc4a 38be
000001d0: 68de 80be a349 02be 3b68 863e e7a5 c93e
000001e0: a296 413c a206 ccbd 0647 8cbe 7e12 0ebc
000001f0: b710 c13e 1004 5bbe 7609 c9be 1085 2bbd
00000200: a6fb 403e 59b2 c2be 259e a23b ec0b 2c3e
00000210: 9f2a ba3e 6402 a13d e86f 2dbe 5068 dabe
00000220: 3fcc 423e 3cf4 a2be 5e6a b73e 7019 bebe
00000230: 9763 67be 85eb b8be 6481 d93e eece fa3d
00000240: d87e 80be b4c6 bf3e c4dd 88be 9f03 d03b
00000250: 3622 9a3e 8a5d 833e 014b 163e d051 b8be
00000260: 1216 45be dc8b bcbd 5dc4 b7be 8bc1 fe3d
00000270: 1b1a b7be 4096 a7bd 1760 893e e7e9 7fbe
00000280: bae7 aebe 1120 be3e 9be8 043e 4b0b 0ebe
00000290: fbd6 e33c 0654 18bc c5fc ddbe 6892 c9be
000002a0: e9ba b7be 6f99 b03e cafb d7be 00c6 b83c
000002b0: bc33 53be cbcc 1f3e d879 92be ab86 70be
000002c0: 8437 c3bc ce1a 93bd b4a1 d7bd 5a1b 6b3e
000002d0: 37ec 44be b104 b53e 1af1 74bd b5c5 6dbe
000002e0: 6677 b53e 8ebc 3ebd 5293 40be 30c4 0e3d
000002f0: 3bbf 9bbe 476c 833c 73ae 18be 6c58 76be
00000300: 62b7 58bc 33f8 423c 6ccd 2dbe f721 70bd
00000310: f75f 8f3d 09df 95be c9bb afbe 854e d43e
00000320: cdfd f73d c057 dd3e 044d b63e 3cd0 703e
00000330: beaf 7f3e 2194 263e 014e b0be d5f6 ccbe
00000340: 33c9 b23e fdc6 893e 8c93 bebe 6d69 a53e
00000350: 8bef d1be 4834 9b3d 9c3d c03e 4623 833e
00000360: 182f da3e 14dc 453e f24d 2d3e 3c02 883e
00000370: baa9 15be 6f61 adbe 5a78 a2be 28d0 a83e
00000380: 66f8 4ebe 15d5 abbd 434c ad3d 3446 bd3e
00000390: 3b59 36be 4aae a13d bc2b 663e e77c 1dbd
000003a0: 924c 863e f805 6f3e ae08 f1bd e8f9 403e
000003b0: 193b c13e c3fe a33e a1cb de3e 7c3e 893e
-0.045918286 -0.42402056 0.20520549 -0.026362846 0.2882336 0.17522655 -0.019903325 0.010781878
0.38818204 0.1180307 -0.057342727 0.221334 -0.2961714 0.030806273 -0.0935145 -0.12974045
0.14774743 -0.24124262 -0.12216915 -0.101294056 0.1390384 0.053232368 -0.40086746 0.3504298
-0.007879528 -0.38794115 -0.012062692 -0.33972958 0.37406078 -0.35527587 0.39630613 -0.41728273
0.14828296 0.09374253 -0.3832768 0.10751474 0.43446204 0.04026776 0.059064314 0.10901465
0.38216758 -0.27364856 -0.3988685 0.24816124 -0.425397 -0.23640725 0.22234115 0.12364268
0.33840466 0.0575678 0.041264407 0.2338568 0.03182447 0.36164576 0.23842724 -0.03478934
-0.041224126 -0.3053654 -0.11484011 -0.104909115 0.4361476 0.35313275 -0.29780355 -0.0062637464
-0.05882381 0.14238733 -0.29169637 0.04178825 -0.11771742 -0.18886386 0.051241323 -0.047315087
-0.07998994 -0.030961232 -0.26818123 -0.07786311 -0.18000242 0.08177134 0.35823348 -0.33913252
0.43373927 0.25360063 0.40604803 0.22316054 0.07357488 -0.43076673 -0.3416959 0.3690613
0.34649894 -0.17664064 0.18507129 -0.1955363 -0.3350681 0.40936053 -0.16968034 0.0020272483
0.09303637 -0.045649964 -0.08776816 -0.036197167 0.39415708 0.22531095 0.34562853 0.1914023
0.17741199 -0.35059342 0.10540385 0.19033515 -0.2402029 0.1893543 -0.036476463 -0.028898316
-0.005348066 0.28155488 0.4122233 -0.17997354 -0.25169683 -0.12723403 0.26251397 0.39384386
0.011815699 -0.099622026 -0.27397937 -0.008671401 0.37708065 -0.21388268 -0.3926503 -0.041874945
0.18845996 -0.38026693 0.0049627 0.16801423 0.36360642 0.07861784 -0.1693722 -0.4265771
0.19023226 -0.3182696 0.3582334 -0.37128782 -0.22596584 -0.36117187 0.4248153 0.122465
-0.25096774 0.37456286 -0.26731694 0.006348088 0.30104226 0.25657302 0.14677049 -0.35999918
-0.192467 -0.092063636 -0.35892 0.12439259 -0.35762104 -0.08182955 0.26831123 -0.2499157
-0.34161168 0.3713384 0.12979357 -0.13871495 0.027812472 -0.0092973765 -0.4335691 -0.39369512
-0.3588479 0.3449206 -0.42184287 0.022555351 -0.20625204 0.15605466 -0.28608584 -0.23488872
-0.023830183 -0.07182847 -0.10528889 0.22959653 -0.19230734 0.35355142 -0.059800245 -0.2321995
0.35442656 -0.04656654 -0.18806198 0.034855068 -0.30419335 0.016042842 -0.14910297 -0.24057168
-0.013227316 0.011899996 -0.16972893 -0.05862614 0.07000726 -0.29271725 -0.34322956 0.41466156
0.121089555 0.4323101 0.35605633 0.23516935 0.24969384 0.16267444 -0.34434512 -0.40032068
0.34919128 0.2690963 -0.37221944 0.32306996 -0.4100307 0.07578331 0.37547004 0.2561285
0.42614055 0.19322234 0.16924265 0.26564205 -0.14615527 -0.33863398 -0.31732446 0.3297131
-0.20211944 -0.083902515 0.084618114 0.36967623 -0.17807476 0.07894571 0.22477621 -0.038449194
0.26230294 0.2334212 -0.11769234 0.18845332 0.377404 0.32030305 0.43514732 0.26805484

graph_embedding.lin_edge.weight f4 [16, 2]
00000000: b47b 99be fdfc fabe 65a1 cb3d 0647 9ebe
00000010: c2d5 a4be 6419 af3e 964b 813e 84ee 83be
00000020: cc2b 06bf f094 bf3b 3071 efbe ae2e 133f
00000030: a942 103f e2c2 523b ac0a a13e 48ec 7b3e
00000040: 647d 0bbd a2e3 a63d 5249 623d 8efd 6a3e
00000050: 4e28 073e b86e c2be 1dab b33e 94a6 f5bd
00000060: 1311 d0be 3806 d9bd 6d5e 06bf 97ee 26be
00000070: 4b8b 81bd 1b89 a73e 73c7 253d d3ee 3abe
-0.2997719 -0.4902114 0.09942893 -0.30913562 -0.32194334 0.3419906 0.2525298 -0.2576791
-0.5241058 0.005846612 -0.46766043 0.574931 0.56351715 0.0032159616 0.31453454 0.24601853
-0.03405513 0.08148886 0.055245705 0.22948286 0.13198969 -0.37975097 0.35091487 -0.11994663
-0.40638027 -0.10596889 -0.5248783 -0.16301952 -0.06325396 0.3272179 0.040473413 -0.18255167

norm1.module.weight f4 [16]
00000000: 9798 7f3f 0000 803f f435 803f e340 803f
00000010: 0000 803f e215 803f 0000 803f f039 803f
00000020: 0000 803f 0000 803f 0000 803f 0000 803f
00000030: d987 7f3f 0b29 803f 740b 7f3f 0000 803f
0.9984221 1.0 1.0016465 1.0019802 1.0 1.0006678 1.0 1.0017681
1.0 1.0 1.0 1.0 0.9981666 1.0012525 0.9962685 1.0

norm1.module.bias f4 [16]
00000000: dd42 1b3b a0f1 29b7 17c7 9bba 546d 04bb
00000010: 2d3e 643a e85d e83a 7a63 f5ba c9b4 ceb9
00000020: 3532 30bb 9c6f 8e3b dc6f db39 900a 8e3a
00000030: 898c ea3a e02b c1ba ee0c 29bb 657c eeba
0.0023690977 -1.0129443e-05 -0.0011884895 -0.0020206766 0.00087067747 0.0017728182 -0.0018721663 -0.00039426077
-0.0026885394 0.004346801 0.00041854277 0.0010836888 0.0017894666 -0.0014737807 -0.002579506 -0.0018195031

norm1.module.running_mean f4 [16]
00000000: a0e0 9646 0000 0000 680e 8846 50ee 1547
00000010: 0000 0000 ab50 4146 0000 0000 e3e7 8147
00000020: 0000 0000 0000 0000 0000 0000 0000 0000
00000030: c0fa 1a45 4c44 1e47 a456 2747 0000 0000
19312.312 0.0 17415.203 38382.312 0.0 12372.167 0.0 66511.77
0.0 0.0 0.0 0.0 2479.6719 40516.297 42838.64 0.0

norm1.module.running_var f4 [16]
00000000: bfa0 074c f1e0 a83b 2c50 db4b 35e9 064d
00000010: f1e0 a83b ccea 4c4b f1e0 a83b aa1e ca4d
00000020: f1e0 a83b f1e0 a83b f1e0 a83b f1e0 a83b
00000030: dc3c 5149 e643 114d 2d69 254d f1e0 a83b
3.5554044e+07 0.005153768 2.8745816e+07 1.414644e+08 0.005153768 1.3429452e+07 0.005153768 4.238759e+08
0.005153768 0.005153768 0.005153768 0.005153768 857037.75 1.5232163e+08 1.7344584e+08 0.005153768

graph_embedding2.att_src f4 [1, 1, 16]
00000000: acde 84be eda9 a0be 42e9 d3be e45e c43e
00000010: cfaa 173f c4db e03c ff05 65be b691 4e3e
00000020: bd5e c13e d66a 173f 02f4 1bbe 6b0a bbbe
00000030: 1d6c 303e de1c 85be 9d9d 6d3e 4f75 13be
-0.25951135 -0.31379643 -0.413889 0.38353646 0.5924501 0.027448542 -0.22365569 0.20172772
0.37767592 0.59147394 -0.152298 -0.36531386 0.17228742 -0.25998586 0.23204656 -0.14400218

graph_embedding2.att_dst f4 [1, 1, 16]
00000000: 2d3d f03e 479e 3a3c 7265 843e 16c6 c0be
00000010: dedb fd3e 2866 103f 5b3f d6be ede0 15bf
00000020: e6c3 5bbe 01df d3be 0d32 e9be e2e4 f3bd
00000030: f495 0fbc 4f7e 4f3e ae82 dfbe f5fe e43e
0.46921673 0.011390275 0.25858647 -0.37651128 0.49581808 0.5640588 -0.4184521 -0.58546335
-0.21461448 -0.41381076 -0.45545998 -0.1190889 -0.008763779 0.20263027 -0.43654388 0.44725767

graph_embedding2.att_edge f4 [1, 1, 16]
00000000: 1713 81bd 1950 143d ed59 bcbb dde1 913e
00000010: dac8 b1be 74a4 10bf edcf 6b3e c970 96be
00000020: 5971 6abe 7e6a 8abe 98d5 1fbe eee3 8b3d
00000030: 739e cebc 0d30 a5bd c7d7 6b3e 4344 babd
-0.06302469 0.0362092 -0.0057480247 0.28492633 -0.3472355 -0.56500936 0.23028536 -0.29382923
-0.22894801 -0.27034372 -0.15608823 0.068305835 -0.025222039 -0.080658056 0.23031531 -0.09095051

graph_embedding2.bias f4 [16]
00000000: 0b5d 09ba d290 833b ec3b 123b accb 823b
00000010: 45a9 ee3a e72c d93a cd35 09bb f156 773a
00000020: 8376 b4bb 59a8 3dba 9f99 23bb c384 363b
00000030: b6fb 40bb e54c 14bb c52d 4e3b f4b1 183b
-0.000524 0.0040150667 0.0022313548 0.0039915647 0.0018208405 0.0016569168 -0.0020936609 0.00094352575
-0.0055072918 -0.00072348636 -0.0024963391 0.0027850128 -0.0029446906 -0.002262884 0.0031460386 0.0023299428

graph_embedding2.lin_src.weight f4 [16, 16]
00000000: 8403 ce3e cc79 c9be 6737 1ebe 3f98 7ebe
00000010: 20e8 bdbe f169 44be 1403 91be cacd b53b
00000020: 917e cabd f1a5 bdbe 2c24 b73e fdd6 753e
00000030: 2214 6d3e 75ba 043e 464a 933e 2467 f43c
00000040: 047c 423e 118e 133e dec5 9b3d 34a5 613e
00000050: fb01 8cbe 4046 9abd 8742 cebe b36a a73e
00000060: 75d6 873e 20b3 f0bd b1f4 9fbe ee95 d03d
00000070: e04b a23e 3187 78bc eca0 89bc 4b39 28be
00000080: fcc8 873e 5d52 c23e f2f6 2c3d e731 49be
00000090: a3b5 d53e dc9b ce3e 947e 673e bf94 623e
000000a0: 233f 71be a687 2f3d dceb d43e 3383 88be
000000b0: 2cd2 d4be 0f37 f6bd c914 933e 9f8e 6a3e
000000c0: 523d 313e 55ef 90be 89d1 c8be b856 9cbe
000000d0: 29ef 19be d3f6 8cbe 0307 55be e846 923e
000000e0: 228e c33e 671b 893e 01f1 883c 0ac6 1ebe
000000f0: c627 d9be 452f 323e 2c10 a7be 5021 b6be
00000100: cc8b cdbb b69e a6be 5f07 c6be bc50 b03e
00000110: 272d 25be 031a a1be 844c d7bd 47f7 ce3e
00000120: f1a7 50bb ff0e a43e 14b9 943e 65fe c73d
00000130: 0ae7 a03e 90f5 f83d 8a60 abbe ea48 01bd
00000140: 5739 9a3e 2515 12be 0242 59be 8fed a0be
00000150: 6a5c 693e f72d 643e 2047 c1be 6030 7fbd
00000160: 5d7a 07be 5632 af3c 57ff 8c3e 8163 df3d
00000170: c04d a23e 41a2 a0be aab1 fbbd 9d93 babe
00000180: 6955 44bd bce1 98bd 618c 0c3d 7212 9f3d
00000190: cdc7 61be c6ee 12be 38c7 af3e 58d0 843e
000001a0: c2bb a13e 4f86 8fbc 4a19 843e 28ab eb3b
000001b0: 78be 8cbe 7bd1 91bd 6a35 45bc 816a a5be
000001c0: e1b7 b43d cf60 d8be 9307 6ebd cb72 713e
000001d0: 071e 61be a469 f83d c5dd 683e df1c 473e
000001e0: 228d 4c3e 9531 3cbe 9895 9c3d b7d2 dc3d
000001f0: ca22 183d 55f0 d7bd 001f 013e 4609 96be
00000200: ffa7 5ebe c7d5 c0be 7b41 53bd 4744 493e
00000210: 12e5 3e3e b032 44be 6ec8 deb9 722d 683d
00000220: a538 0f3e 2bcc 62be 332d 643e 15ae cdbc
00000230: 0fd2 99bb c482 923d 0013 943e 26dd a33e
00000240: 849d 83bd ace3 8ebe b02e 923e b6a6 b13e
00000250: e712 c53e bc6a 4a3e 1bec 4f3e 86ab d6be
00000260: 118e 7e3e 3b4f 93be 2322 18be 05a3 8fbe
00000270: e3c0 c4be d116 d0be a39d 31be 1c04 0a3e
00000280: 947e 7bbb 71c1 cc3d c5b4 b03e a4e4 6f3e
00000290: ebeb bb3e 8945 8b3e ade4 313e 944a 9c3e
000002a0: a46d 313e 8759 3ebe b607 953e d29d 14be
000002b0: 3452 a63e 7078 85be 84bd 5a3e 1ad2 753e
000002c0: 3f33 273e 2a40 28be 8f1b be3e a676 983e
000002d0: cd4b 78be c2f9 813d ceee 20bd 1f0d b13e
000002e0: ec1c 11be 0ae3 7dbe 5f0f 403e edef c1be
000002f0: 040d d4be bbee 853e 8801 ad3c cf7a 2c3d
00000300: 9b66 c5be 02e1 97bd afb3 c3be d2c9 8c3d
00000310: cc59 493e 85c1 7d3e 1b7a 4f3e ea4e 883d
00000320: d0ae 9a3e df04 bdbe 915c a0bd 5cfa 3b3e
00000330: 6915 20be 2d30 833d 5ea6 24be a8ca ac3e
00000340: a949 8ebe 3322 c03d 22be 893e 1324 48be
00000350: ce45 c13e 5e0b d53d f83d 97be eaa9 75be
00000360: 10a8 a5be 3d89 bd3e 7538 69be 29fd 013e
00000370: 6176 a5be 027b 43be 4d18 293e 65e4 bc3e
00000380: 5895 55be ed3f 4fbe 6749 883d d9c0 85be
00000390: 80c3 2c3e f1d5 a9be 2977 ac3b 79e9 d63e
000003a0: 3c64 843e e26f 373c ebc8 a13d 77dc 5c3d
000003b0: 702d 0ebe 3772 f23c 228c 91be 4be9 8c3e
000003c0: 85de debe 2abb d3be 1e79 b83e 8961 93bc
000003d0: be3c 8b3e 39b6 d43d ec5d c83e e3bd 7bbe
000003e0: 711c d43e c6b1 be3e 8d75 1bbd bf5f d33e
000003f0: fa0c a63d 0d97 dbbe 4b4b adbc 6f29 93be
0.40237057 -0.39350736 -0.15450822 -0.24862765 -0.3709116 -0.19181038 -0.2832266 0.0055482136
-0.09887422 -0.37040666 0.35769784 0.24007793 0.23152211 0.12961753 0.28767604 0.029834338
0.1899262 0.14409663 0.076060995 0.22035676 -0.2734526 -0.075329304 -0.4028513 0.32698593
0.26530805 -0.117529154 -0.31241372 0.10184847 0.31698513 -0.015168951 -0.016800366 -0.16428106
0.26520526 0.37953463 0.042227693 -0.19647942 0.4174014 0.40353286 0.2260688 0.22127055
-0.23559241 0.042853974 0.41586196 -0.26662597 -0.41566598 -0.1202222 0.28726795 0.22905968
0.17308548 -0.28307596 -0.39222363 -0.3053491 -0.15032639 -0.27532062 -0.20803456 0.28569722
0.38194376 0.2677872 0.016716482 -0.15505233 -0.42413157 0.17400844 -0.32629526 -0.3557229
-0.0062727686 -0.32542962 -0.386775 0.34436595 -0.16130506 -0.31465158 -0.10512641 0.40423033
-0.0031838382 0.3204269 0.29047453 0.09765319 0.3142627 0.12156212 -0.3347209 -0.031563677
0.30121872 -0.14265878 -0.21216586 -0.31431243 0.2278916 0.22283159 -0.37749577 -0.062301993
-0.13230272 0.021386307 0.2753856 0.10907651 0.31699944 -0.3137379 -0.12289746 -0.36440745
-0.047933016 -0.074649304 0.034313563 0.0776719 -0.22048874 -0.14348897 0.3433168 0.25940204
0.3158856 -0.017520098 0.25800544 0.0071920343 -0.27489066 -0.07120033 -0.012036661 -0.3230782
0.088241346 -0.4226136 -0.058112692 0.23578946 -0.21984111 0.12129524 0.22740848 0.19444607
0.19975713 -0.18378289 0.0764572 0.10782378 0.037142552 -0.105438866 0.12609482 -0.2930395
-0.21743773 -0.376631 -0.05157612 0.19654952 0.18642071 -0.19159961 -0.0004249247 0.056683965
0.13986452 -0.22148196 0.22282867 -0.025107423 -0.0046942304 0.07153848 0.28920746 0.3200466
-0.06426528 -0.27908075 0.28551245 0.34697503 0.38490984 0.19767278 0.20304911 -0.41927737
0.24858882 -0.28771386 -0.14856772 -0.28054062 -0.3842841 -0.40642408 -0.1734529 0.1347813
-0.0038375007 0.099978335 0.34512916 0.23427063 0.3670343 0.2720149 0.17372389 0.3052565
0.17326981 -0.1858884 0.29107445 -0.14513329 0.3248459 -0.2606845 0.21361357 0.24005929
0.16328143 -0.16430727 0.371304 0.29778022 -0.24247666 0.06346466 -0.039290242 0.34580323
-0.14171189 -0.2479364 0.18755864 -0.3787836 -0.4141618 0.261587 0.021118894 0.042109307
-0.38554844 -0.07415964 -0.38223025 0.06874432 0.19663161 0.24780853 0.20261423 0.06655677
0.30211496 -0.3691778 -0.07830156 0.18357223 -0.15633167 0.06405673 -0.16079089 0.33748364
-0.27790573 0.09381523 0.26902872 -0.19545011 0.3774857 0.10402559 -0.29539466 -0.23990598
-0.32354784 0.37018767 -0.22775443 0.12694229 -0.32316878 -0.19089893 0.16513176 0.36893
-0.20857751 -0.2023923 0.066546254 -0.26123694 0.16871452 -0.33171037 0.0052632284 0.41975
0.25857723 0.011196109 0.0789965 0.05392119 -0.1388452 0.029595478 -0.28427225 0.27521738
-0.43529144 -0.41353732 0.36029905 -0.017990844 0.2719478 0.10386319 0.39134157 -0.24584155
0.4142795 0.37245005 -0.037953902 0.41283986 0.08107944 -0.4288868 -0.021154067 -0.2874255

graph_embedding2.lin_dst.weight f4 [16, 16]
00000000: 8403 ce3e cc79 c9be 6737 1ebe 3f98 7ebe
00000010: 20e8 bdbe f169 44be 1403 91be cacd b53b
00000020: 917e cabd f1a5 bdbe 2c24 b73e fdd6 753e
00000030: 2214 6d3e 75ba 043e 464a 933e 2467 f43c
00000040: 047c 423e 118e 133e dec5 9b3d 34a5 613e
00000050: fb01 8cbe 4046 9abd 8742 cebe b36a a73e
00000060: 75d6 873e 20b3 f0bd b1f4 9fbe ee95 d03d
00000070: e04b a23e 3187 78bc eca0 89bc 4b39 28be
00000080: fcc8 873e 5d52 c23e f2f6 2c3d e731 49be
00000090: a3b5 d53e dc9b ce3e 947e 673e bf94 623e
000000a0: 233f 71be a687 2f3d dceb d43e 3383 88be
000000b0: 2cd2 d4be 0f37 f6bd c914 933e 9f8e 6a3e
000000c0: 523d 313e 55ef 90be 89d1 c8be b856 9cbe
000000d0: 29ef 19be d3f6 8cbe 0307 55be e846 923e
000000e0: 228e c33e 671b 893e 01f1 883c 0ac6 1ebe
000000f0: c627 d9be 452f 323e 2c10 a7be 5021 b6be
00000100: cc8b cdbb b69e a6be 5f07 c6be bc50 b03e
00000110: 272d 25be 031a a1be 844c d7bd 47f7 ce3e
00000120: f1a7 50bb ff0e a43e 14b9 943e 65fe c73d
00000130: 0ae7 a03e 90f5 f83d 8a60 abbe ea48 01bd
00000140: 5739 9a3e 2515 12be 0242 59be 8fed a0be
00000150: 6a5c 693e f72d 643e 2047 c1be 6030 7fbd
00000160: 5d7a 07be 5632 af3c 57ff 8c3e 8163 df3d
00000170: c04d a23e 41a2 a0be aab1 fbbd 9d93 babe
00000180: 6955 44bd bce1 98bd 618c 0c3d 7212 9f3d
00000190: cdc7 61be c6ee 12be 38c7 af3e 58d0 843e
000001a0: c2bb a13e 4f86 8fbc 4a19 843e 28ab eb3b
000001b0: 78be 8cbe 7bd1 91bd 6a35 45bc 816a a5be
000001c0: e1b7 b43d cf60 d8be 9307 6ebd cb72 713e
000001d0: 071e 61be a469 f83d c5dd 683e df1c 473e
000001e0: 228d 4c3e 9531 3cbe 9895 9c3d b7d2 dc3d
000001f0: ca22 183d 55f0 d7bd 001f 013e 4609 96be
00000200: ffa7 5ebe c7d5 c0be 7b41 53bd 4744 493e
00000210: 12e5 3e3e b032 44be 6ec8 deb9 722d 683d
00000220: a538 0f3e 2bcc 62be 332d 643e 15ae cdbc
00000230: 0fd2 99bb c482 923d 0013 943e 26dd a33e
00000240: 849d 83bd ace3 8ebe b02e 923e b6a6 b13e
00000250: e712 c53e bc6a 4a3e 1bec 4f3e 86ab d6be
00000260: 118e 7e3e 3b4f 93be 2322 18be 05a3 8fbe
00000270: e3c0 c4be d116 d0be a39d 31be 1c04 0a3e
00000280: 947e 7bbb 71c1 cc3d c5b4 b03e a4e4 6f3e
00000290: ebeb bb3e 8945 8b3e ade4 313e 944a 9c3e
000002a0: a46d 313e 8759 3ebe b607 953e d29d 14be
000002b0: 3452 a63e 7078 85be 84bd 5a3e 1ad2 753e
000002c0: 3f33 273e 2a40 28be 8f1b be3e a676 983e
000002d0: cd4b 78be c2f9 813d ceee 20bd 1f0d b13e
000002e0: ec1c 11be 0ae3 7dbe 5f0f 403e edef c1be
000002f0: 040d d4be bbee 853e 8801 ad3c cf7a 2c3d
00000300: 9b66 c5be 02e1 97bd afb3 c3be d2c9 8c3d
00000310: cc59 493e 85c1 7d3e 1b7a 4f3e ea4e 883d
00000320: d0ae 9a3e df04 bdbe 915c a0bd 5cfa 3b3e
00000330: 6915 20be 2d30 833d 5ea6 24be a8ca ac3e
00000340: a949 8ebe 3322 c03d 22be 893e 1324 48be
00000350: ce45 c13e 5e0b d53d f83d 97be eaa9 75be
00000360: 10a8 a5be 3d89 bd3e 7538 69be 29fd 013e
00000370: 6176 a5be 027b 43be 4d18 293e 65e4 bc3e
00000380: 5895 55be ed3f 4fbe 6749 883d d9c0 85be
00000390: 80c3 2c3e f1d5 a9be 2977 ac3b 79e9 d63e
000003a0: 3c64 843e e26f 373c ebc8 a13d 77dc 5c3d
000003b0: 702d 0ebe 3772 f23c 228c 91be 4be9 8c3e
000003c0: 85de debe 2abb d3be 1e79 b83e 8961 93bc
000003d0: be3c 8b3e 39b6 d43d ec5d c83e e3bd 7bbe
000003e0: 711c d43e c6b1 be3e 8d75 1bbd bf5f d33e
000003f0: fa0c a63d 0d97 dbbe 4b4b adbc 6f29 93be
0.40237057 -0.39350736 -0.15450822 -0.24862765 -0.3709116 -0.19181038 -0.2832266 0.0055482136
-0.09887422 -0.37040666 0.35769784 0.24007793 0.23152211 0.12961753 0.28767604 0.029834338
0.1899262 0.14409663 0.076060995 0.22035676 -0.2734526 -0.075329304 -0.4028513 0.32698593
0.26530805 -0.117529154 -0.31241372 0.10184847 0.31698513 -0.015168951 -0.016800366 -0.16428106
0.26520526 0.37953463 0.042227693 -0.19647942 0.4174014 0.40353286 0.2260688 0.22127055
-0.23559241 0.042853974 0.41586196 -0.26662597 -0.41566598 -0.1202222 0.28726795 0.22905968
0.17308548 -0.28307596 -0.39222363 -0.3053491 -0.15032639 -0.27532062 -0.20803456 0.28569722
0.38194376 0.2677872 0.016716482 -0.15505233 -0.42413157 0.17400844 -0.32629526 -0.3557229
-0.0062727686 -0.32542962 -0.386775 0.34436595 -0.16130506 -0.31465158 -0.10512641 0.40423033
-0.0031838382 0.3204269 0.29047453 0.09765319 0.3142627 0.12156212 -0.3347209 -0.031563677
0.30121872 -0.14265878 -0.21216586 -0.31431243 0.2278916 0.22283159 -0.37749577 -0.062301993
-0.13230272 0.021386307 0.2753856 0.10907651 0.31699944 -0.3137379 -0.12289746 -0.36440745
-0.047933016 -0.074649304 0.034313563 0.0776719 -0.22048874 -0.14348897 0.3433168 0.25940204
0.3158856 -0.017520098 0.25800544 0.0071920343 -0.27489066 -0.07120033 -0.012036661 -0.3230782
0.088241346 -0.4226136 -0.058112692 0.23578946 -0.21984111 0.12129524 0.22740848 0.19444607
0.19975713 -0.18378289 0.0764572 0.10782378 0.037142552 -0.105438866 0.12609482 -0.2930395
-0.21743773 -0.376631 -0.05157612 0.19654952 0.18642071 -0.19159961 -0.0004249247 0.056683965
0.13986452 -0.22148196 0.22282867 -0.025107423 -0.0046942304 0.07153848 0.28920746 0.3200466
-0.06426528 -0.27908075 0.28551245 0.34697503 0.38490984 0.19767278 0.20304911 -0.41927737
0.24858882 -0.28771386 -0.14856772 -0.28054062 -0.3842841 -0.40642408 -0.1734529 0.1347813
-0.0038375007 0.099978335 0.34512916 0.23427063 0.3670343 0.2720149 0.17372389 0.3052565
0.17326981 -0.1858884 0.29107445 -0.14513329 0.3248459 -0.2606845 0.21361357 0.24005929
0.16328143 -0.16430727 0.371304 0.29778022 -0.24247666 0.06346466 -0.039290242 0.34580323
-0.14171189 -0.2479364 0.18755864 -0.3787836 -0.4141618 0.261587 0.021118894 0.042109307
-0.38554844 -0.07415964 -0.38223025 0.06874432 0.19663161 0.24780853 0.20261423 0.06655677
0.30211496 -0.3691778 -0.07830156 0.18357223 -0.15633167 0.06405673 -0.16079089 0.33748364
-0.27790573 0.09381523 0.26902872 -0.19545011 0.3774857 0.10402559 -0.29539466 -0.23990598
-0.32354784 0.37018767 -0.22775443 0.12694229 -0.32316878 -0.19089893 0.16513176 0.36893
-0.20857751 -0.2023923 0.066546254 -0.26123694 0.16871452 -0.33171037 0.0052632284 0.41975
0.25857723 0.011196109 0.0789965 0.05392119 -0.1388452 0.029595478 -0.28427225 0.27521738
-0.43529144 -0.41353732 0.36029905 -0.017990844 0.2719478 0.10386319 0.39134157 -0.24584155
0.4142795 0.37245005 -0.037953902 0.41283986 0.08107944 -0.4288868 -0.021154067 -0.2874255

graph_embedding2.lin_edge.weight f4 [16, 2]
00000000: 55d2 0dbf 5b07 06bd 7e58 3d3e aa17 f23e
00000010: 5039 9c3e 73d1 383d 9024 5dbe 12b9 63be
00000020: eb5b 87be 9387 08bf 56f2 8fbe ca02 d0be
00000030: 2c26 83bd c2ab fb3e d54c 873e 0203 0dbf
00000040: df14 0b3e 8d24 523d 99f2 c8be e36c c6be
00000050: 6df2 a53d 0e9d 87bd d320 8f3b b6c9 bf3e
00000060: 3b03 823e 45af 023f 3884 7d3e 26d2 3d3e
00000070: 12c1 d6be 7068 9abe 9968 db3e a429 90be
-0.55399066 -0.03272186 0.18490788 0.4728368 0.30512476 0.04512162 -0.21595979 -0.22238567
-0.26437315 -0.5333187 -0.28114575 -0.40627128 -0.06403765 0.49154478 0.26425806 -0.55082715
0.1358218 0.05130439 -0.39247587 -0.3875495 0.0810288 -0.06621753 0.0043679266 0.3745858
0.2539309 0.5104869 0.24757469 0.18537197 -0.41944176 -0.30157804 0.4285324 -0.2815677

norm_lin1.weight f4 [16]
00000000: f76b 7f3f 886f 7f3f 6832 7f3f c706 7f3f
00000010: 938c 803f d957 7f3f 89ef 7f3f f74c 803f
00000020: 7670 803f 3f3a 7f3f e111 803f 1449 803f
00000030: ec7c 803f 2d4c 803f 792c 7f3f 5786 7f3f
0.99774116 0.9977956 0.9968629 0.99619716 1.00429 0.9974342 0.99974877 1.0023488
1.003432 0.9969825 1.0005456 1.0022302 1.0038123 1.0023247 0.99677235 0.9981436

norm_lin1.bias f4 [16]
00000000: 98dc 06bb e783 d7ba 8ad2 fa3a 2384 a6ba
00000010: ed2e 4f3a 7d5e 653b 5eee 44ba 75d3 0f3a
00000020: 171c 2c3b 187b 083a 0332 3bbb 0693 6d3a
00000030: 6cc5 3b3b 5a90 663b 0cf4 92bb 52ac 013b
-0.0020578261 -0.0016442508 0.0019136232 -0.0012704175 0.0007903416 0.0034998946 -0.0007512326 0.00054865266
0.002626186 0.00052063307 -0.0028563745 0.0009062741 0.0028651608 0.0035181255 -0.004484659 0.0019786549

norm_lin1.running_mean f4 [16]
00000000: 77f4 963e ad6a 2b3f 62aa b33e d864 d03e
00000010: 60d0 cf3d d691 8e3d 63e7 893d 17c5 d93e
00000020: f89f cf3d 48b6 743e 6819 723f e78c 433f
00000030: e7c0 7a3e 3fa2 883e 4b4d 833e 13b5 633e
0.29483387 0.6695965 0.3509093 0.40701938 0.10147166 0.0696141 0.06733587 0.4253318
0.101379335 0.2389766 0.94570017 0.76386875 0.24487649 0.26686284 0.25644907 0.22237043

norm_lin1.running_var f4 [16]
00000000: e66c 5b3d ebcc 723e 8ffb 953d 4c84 4e3e
00000010: 614c 713c c423 483c 6e05 3c3c f3c0 bf3d
00000020: 659d 2f3c d7eb 993d 490f e73e a6fb 933e
00000030: f25e 9c3d cdca b93d 6c57 a83d be93 813d
0.05357065 0.23710983 0.073233716 0.20167655 0.014727683 0.012215558 0.011475904 0.09362974
0.010718678 0.07515686 0.4512885 0.2890293 0.07635297 0.09071884 0.082197994 0.06327008

lin_1.weight f4 [16, 16]
00000000: 1587 edbd 2de2 20be 2b4b cf3e 0447 05be
00000010: 4ef1 893e ef31 b7be 5cac cb3e 164d 8abd
00000020: df71 18be 05ac cd3d 3f9b 013e dfc6 94bb
00000030: 1ada 3dbe 144b e6be beeb adbe 78ef 01be
00000040: 48db c0bd 4879 16be 8ae6 84be 91a9 933e
00000050: db1d f03e 277d 783e ffd1 0c3e 2e91 473c
00000060: 652d eabe 9c8e 43be 075b babe baa2 7bbe
00000070: 7d8c 413e 04e0 753c fc40 89bd b88d 6ebe
00000080: 2eee 89be 6a32 edbd fe5c 98bd fb40 25be
00000090: da7d 643e f49f 2d3e 2b54 3dbe 0bf0 a2be
000000a0: 8655 763e b068 3b3e a376 483d e82d 42be
000000b0: 733b 98be 4b93 78be 96ed 073f 28e1 a8be
000000c0: d38c e03e e1bc 7fbe 54b5 9bbe 1203 a0be
000000d0: a7e4 5dbd 53bd b43e 2827 ff3d 8ef5 23be
000000e0: 9282 07be 0cf4 d63e 9064 df3d 597b 70be
000000f0: ab14 10bd 79b0 efbd 76a4 53be 1a2c 873e
00000100: bb65 3d3e 4f43 533d c7a1 9fbd a652 f63e
00000110: a3eb bc3e 5ac2 1bbe 1183 4cbe 9a2d e4be
00000120: 5474 acbd 27c0 203e 5e13 863e a0f1 973e
00000130: 5976 81be 1002 4b3e 37ce 9cbd b0d4 343e
00000140: 9327 a23c be70 4fbe 8928 a03e cee7 463e
00000150: 51c4 a6be 2188 bf3e fef8 e8bc 44f2 8cbd
00000160: cf65 90be 053e 643e 0a83 7e3e 528a a33e
00000170: 222c 743e c0a3 9a3c 6d7f be3c df59 f2be
00000180: 3feb 38bd 4c76 02bf f3e2 793e 3844 ae3e
00000190: 606f 49be 0a54 ebbd 24b4 a53e 5754 60bd
000001a0: 667f f93d d5a8 223d 950c 0dbb 8eee d0be
000001b0: cb8e 80bd 2b6f b63e b116 663e ce02 4b3e
000001c0: f715 05bf 0d35 c93e 8015 94be 8ac7 253e
000001d0: c499 5ebe ca5f d9bc e275 be3e c711 3fbe
000001e0: 82fb 5abb 66ed e93e 02dd 33bd a962 d7bc
000001f0: 426a 203e 5a18 123d a6df adbd ecb2 643d
00000200: 1f6e 1e3e 5368 e4bd 6dc5 383e 0543 1d3e
00000210: 20a6 bebd caea 97bd f961 dbbd 8320 66be
00000220: 04a9 b13d 9b1b 3d3e 99d5 28bf 5d0e 7a3e
00000230: ab70 6d3e fc18 cbbe fc39 1e3e 93e0 713e
00000240: d8c2 6ebe 4016 4f3e db9c b43e 4751 14be
00000250: c8a7 ddbd 4471 0c3e 90ae 7dbe 1194 773c
00000260: b418 1abf fb86 b63d 705f 15be 1ef7 0abe
00000270: 6983 b6be e251 d73d b835 e83d f026 a93e
00000280: 9e52 98be b9e0 9ebe 342d 00be edf9 30be
00000290: 401d 93be 6775 23bd d8a6 81be 3593 f4be
000002a0: 9e0c 4c3d 9df8 86be 980f 46be 0a95 023c
000002b0: 0e6d c7bd 6b1f 1c3e a69d fbbe 5d82 d6bd
000002c0: 2675 9e3e b985 b43e 84e1 0c3e be78 19bc
000002d0: 3167 06be 8e8b 97be 5f40 0dbe ea43 cbbe
000002e0: f49d 17be 5c10 9bbd c8b7 ce3d 309d 06bf
000002f0: dffe ae3e 179c f2bc 41a9 713d dc36 55be
00000300: fa0c 6a3e aa3c a03e ae86 8e3e f5f4 303e
00000310: 16a0 833c 7d42 9c3e 89e9 683d a925 823d
00000320: 0870 b13e 1d55 103e 5b8a a8be 9bfd 2bbe
00000330: e56b c4be 8e9c 133e 0df0 a9be aaf3 94be
00000340: 84d3 4b3e 97c1 34bd 622c acbd ae25 cbbe
00000350: bdc6 893d 81a6 afbe df62 553e ea97 26bd
00000360: cf70 33be 28a7 693e 702f 9bbe afb0 803e
00000370: 47dc 96bd 87b0 ff3e a045 503e ca39 9cbe
00000380: ce5b 233e 9a3c 493e d898 0bbd 1a53 06bd
00000390: 24ae 39be 783c 7c3e f1c2 063f ceb7 b8be
000003a0: 0c32 99bd af6b 03bf ed39 2a3c 60c6 583e
000003b0: cae8 65be c994 d8bd e0e4 693e 3e42 913d
000003c0: d97a 22be 38d6 7c3d cc49 c63e 6dd1 9cbe
000003d0: 635d d53e d9cb 993e 58ee ad3d 4437 7abe
000003e0: b58c 603e 0b44 acbc 6af6 543d ed1f 7a3d
000003f0: ffcd df3e 60bc 9a3e ebe5 28bd b649 713e
-0.115980305 -0.15711279 0.40487036 -0.13015372 0.26941913 -0.35780284 0.39779937 -0.06752984
-0.14887188 0.10042576 0.12656878 -0.004540309 -0.1854023 -0.44979155 -0.3396892 -0.12689006
-0.094168246 -0.14694703 -0.25957137 0.28840306 0.46897778 0.24266492 0.13751982 0.01218061
-0.45737758 -0.1909737 -0.36397573 -0.24573794 0.18901248 0.015007023 -0.06701848 -0.23296249
-0.2693953 -0.11581881 -0.07439612 -0.1613807 0.22313634 0.16955549 -0.18489139 -0.31823763
0.24056062 0.18301654 0.048941266 -0.18962824 -0.29732856 -0.24274938 0.530969 -0.3298428
0.4385744 -0.24974395 -0.3041178 -0.31252342 -0.054173138 0.35300693 0.1245864 -0.1601164
-0.13233402 0.41983068 0.10907853 -0.23484553 -0.03517596 -0.11703581 -0.20668206 0.26400834
0.18495838 0.051577862 -0.077945285 0.4810993 0.36898527 -0.15210858 -0.19971873 -0.4456604
-0.08420625 0.156983 0.2618665 0.29676533 -0.25285605 0.19825006 -0.0765652 0.17659259
0.019794261 -0.20257851 0.31280926 0.19424364 -0.32571653 0.37408546 -0.028439041 -0.06882146
-0.28202674 0.22289284 0.24854675 0.31941468 0.2384496 0.01887691 0.02325412 -0.4733419
-0.045146223 -0.50961757 0.2440298 0.34036422 -0.19671392 -0.114906386 0.32364 -0.054767933
0.121825024 0.039711792 -0.0021522392 -0.40807003 -0.062772356 0.3563169 0.22469594 0.19825289
-0.5198664 0.39298287 -0.28922653 0.161894 -0.21738344 -0.026534934 0.37199312 -0.18659125
-0.003341407 0.45688933 -0.04391194 -0.026292162 0.15665534 0.035667755 -0.08489923 0.055834696
0.15471695 -0.11152711 0.18044062 0.15357597 -0.093090296 -0.07417829 -0.10712046 -0.2247334
0.08674815 0.18467562 -0.65950924 0.24419542 0.2318751 -0.396675 0.15451807 0.23620825
-0.23316514 0.20223331 0.3527592 -0.1448413 -0.10823017 0.13715082 -0.24773622 0.015110985
-0.60193944 0.08912464 -0.14587188 -0.1357083 -0.35647133 0.10513665 0.11338371 0.3303752
-0.29750532 -0.31030825 -0.12517244 -0.17282839 -0.28733253 -0.039906885 -0.25322604 -0.4776856
0.04981672 -0.26361552 -0.19341886 0.007970104 -0.097375974 0.1524636 -0.49143714 -0.104740836
0.30948752 0.35258272 0.13757902 -0.009367166 -0.13125302 -0.2959866 -0.13794087 -0.39700252
-0.14806348 -0.0757148 0.10093647 -0.525836 0.34178826 -0.029615445 0.058999304 -0.20821708
0.22856513 0.31296283 0.27837127 0.17280944 0.016067546 0.30519477 0.05686334 0.06354839
0.34655786 0.14094968 -0.32918057 -0.16795962 -0.38363567 0.1441519 -0.33190957 -0.2909215
0.19904906 -0.044129934 -0.08406903 -0.39677185 0.067273594 -0.3430672 0.20838498 -0.04067222
-0.17523502 0.22817671 -0.3030963 0.251348 -0.07366233 0.49939367 0.2033906 -0.3051284
0.1595299 0.19652024 -0.03408131 -0.032794096 -0.18132836 0.24632442 0.52641207 -0.36077732
-0.07480249 -0.5133619 0.010389787 0.21169424 -0.22452083 -0.105752535 0.22841215 0.07092713
-0.15867175 0.061727732 0.38728178 -0.3062853 0.4167281 0.30038336 0.08492726 -0.24435145
0.21928675 -0.02102854 0.05199281 0.061065603 0.4371185 0.30221844 -0.04123489 0.23563275

lin_1.bias f4 [16]
00000000: bbe7 cdba 3b91 803b 43ed 27bb 125b 4f3b
00000010: 71e8 64ba 9bee 4d3b 3e49 80ba 788d 3b3b
00000020: 8146 d13a 9e5d c33a 98df 473b 0aaf 0bbb
00000030: b3f3 a13b 81d1 8cbb 46ab 7fba 8c76 1e3b
-0.001570932 0.003923563 -0.0025623597 0.0031639975 -0.0008732146 0.0031422738 -0.0009787453 0.0028618257
0.0015966446 0.001490522 0.0030498262 -0.0021314048 0.0049423813 -0.0042974357 -0.0009753 0.0024179546

norm_lin2.weight f4 [32]
00000000: 81f5 7e3f 98b5 7f3f 090e 803f 4564 803f
00000010: 2434 7f3f 6c5b 803f 94e0 7f3f a3c4 7f3f
00000020: 1748 7f3f 483a 803f 4440 803f 6f13 7f3f
00000030: 536e 7f3f efcb 7f3f 855a 803f 7b4e 803f
00000040: b5d6 7e3f 5e43 7f3f da61 803f 8b1c 7f3f
00000050: dcd5 7f3f c5ec 7e3f d074 7f3f 7588 803f
00000060: b106 7f3f 4c5a 803f fd77 803f f847 803f
00000070: 790b 803f cb64 803f b5c1 7f3f 1ac1 7f3f
0.9959336 0.99886465 1.0004283 1.00306 0.99688935 1.00279 0.99952054 0.9990942
0.99719375 1.0017786 1.0019612 0.9963903 0.99777716 0.9992055 1.0027624 1.002395
0.99546367 0.9971217 1.0029862 0.9965293 0.999357 0.9958003 0.99787617 1.0041643
0.99619585 1.0027556 1.0036618 1.0021963 1.0003501 1.003076 0.9990495 0.99904025

norm_lin2.bias f4 [32]
00000000: 0492 7d3b 1fd7 a9b9 85ce a7ba 372d afba
00000010: 5d3e 33ba c9da 2ebb c905 56bb 6f9b 80bb
00000020: 19fc 50ba 23e1 db3a 4046 7fbb 5a0d 88ba
00000030: 4f34 a93a 0d29 c43a 52bf c63a 0f63 b1ba
00000040: 5dc0 ac3a aaee fdba f2a3 91bb 711e 3d3b
00000050: c39d d73a d1ca 9d3b 3647 ae3a 5945 503b
00000060: d138 983b 8476 503b 8973 f2ba a103 27bb
00000070: 6906 97b9 c425 ca3a 0a8e 9e3a d2ef b3ba
0.0038691768 -0.0003239447 -0.0012802636 -0.0013364916 -0.0006837601 -0.00266807 -0.0032657257 -0.003924779
-0.0007972136 0.001677547 -0.0038951784 -0.0010379956 0.0012909266 0.0014965847 0.0015163219 -0.001353355
0.0013179887 -0.0019373496 -0.0044445926 0.0028857256 0.0016450215 0.0048154374 0.0013296369 0.0031779616
0.004645445 0.0031808922 -0.0018497567 -0.002548434 -0.0002880574 0.0015422632 0.0012096774 -0.0013728088

norm_lin2.running_mean f4 [32]
00000000: f337 113f 0463 283f de5a bc3d 86c2 de3e
00000010: 8d10 063e d2cd a43e d953 683f 517e 503f
00000020: b08b c13e c089 be3e 1c83 413e 6bc2 623d
00000030: 17d1 cc3e 7a34 103e 3c43 c63d 8f0b 0e3e
00000040: 77f4 963e ad6a 2b3f 62aa b33e d864 d03e
00000050: 60d0 cf3d d691 8e3d 63e7 893d 17c5 d93e
00000060: f89f cf3d 48b6 743e 6819 723f e78c 433f
00000070: e7c0 7a3e 3fa2 883e 4b4d 833e 13b5 633e
0.56725997 0.65776086 0.09197019 0.43507785 0.13092251 0.32188278 0.9075294 0.81442744
0.37801886 0.3721447 0.1889767 0.055361193 0.40003273 0.14082518 0.09680793 0.13871597
0.29483387 0.6695965 0.3509093 0.40701938 0.10147166 0.0696141 0.06733587 0.4253318
0.101379335 0.2389766 0.94570017 0.76386875 0.24487649 0.26686284 0.25644907 0.22237043

norm_lin2.running_var f4 [32]
00000000: 71cf 903e a9d1 803f a23f 0d3d 00d7 e63e
00000010: 7077 c03c 89e8 063e 92f1 f93f 4c8d ca3f
00000020: 96b7 923e 13a9 563e 258d 7c3d e184 2b3c
00000030: 2fd0 313e 44e9 b63d 571d b23c fccf 643d
00000040: e66c 5b3d ebcc 723e 8ffb 953d 4c84 4e3e
00000050: 614c 713c c423 483c 6e05 3c3c f3c0 bf3d
00000060: 659d 2f3c d7eb 993d 490f e73e a6fb 933e
00000070: f25e 9c3d cdca b93d 6c57 a83d be93 813d
0.28283265 1.0063983 0.034484513 0.45085907 0.023494452 0.13174643 1.9526846 1.582437
0.2865569 0.20962934 0.061658043 0.0104686925 0.17364572 0.08931211 0.021742506 0.05586241
0.05357065 0.23710983 0.073233716 0.20167655 0.014727683 0.012215558 0.011475904 0.09362974
0.010718678 0.07515686 0.4512885 0.2890293 0.07635297 0.09071884 0.082197994 0.06327008

lin_2.weight f4 [16, 32]
00000000: d715 133e dc23 80be 3f4f b6bd cd31 c13d
00000010: 8e9d d43d db7a 063e 4149 9ebd 80e1 5bbd
00000020: 2464 2f3e 0bcc 89be 444c 283e cee3 213e
00000030: ddbb be3d d496 b33d ac9c 7fbe 01f1 9ebd
00000040: f6eb 3e3e 0c46 a8be 3e59 da3b f589 18be
00000050: e5da 243e 4353 963d dce5 b2bd 696b 533e
00000060: 81c5 583e 9a4d 813e b8ea 5bbe a362 ae3e
00000070: 0520 823e 8fcc 3d3e f9ea 8a3d 6e69 3c3d
00000080: 2636 ba3c 8335 c2be 0ab4 a0be cf65 88be
00000090: c858 cfbc 790b 3b3c 5328 b63d 9181 953e
000000a0: b80c 4bba 3abc bc3c 8788 af3d 4d77 b93d
000000b0: 5876 373d a066 48bd 8944 a13d 4b7a fc3d
000000c0: cae5 cabc 5ffc acbe f20d b93d 42e6 403d
000000d0: ac65 21be 5ef8 bbbe 3140 a1bd 4fbb be3b
000000e0: 80b6 c8be 3a11 3c3e d4fe 833b 78db 6dbc
000000f0: d184 79be c70f 9abd 0f51 4c3b 1e94 bdbd
00000100: ce95 0f3e 1f20 103d 90b6 debd 5ce1 a13d
00000110: a40c b33d af64 31be d56f a8be 1adf a43d
00000120: 2e9b a43d 9aa0 153e 7ca5 b0bc a41c 4cbe
00000130: 2e9f 0b3e 6172 94be 0003 93be 74c5 b2bd
00000140: b960 cebc 1595 783e 7dd5 523e fa4c e0bd
00000150: a852 8d3e 6072 18be 53ea d1be 8950 2c3e
00000160: e7a6 53bb 552a a63b c21b 193e 97e5 17bd
00000170: 87c7 4cbe 61b4 2b3d 6245 f03d 4506 82be
00000180: d67d 3ebd c5b9 efbc 2950 78be 72f8 0fbe
00000190: 8fe8 9bbe abcf 2f3d 5d55 18bd 8ad8 cbbd
000001a0: 9ff7 1ebe 052d 963d bf94 bbbe 7aa7 2f3d
000001b0: 11c9 cdbd 182d f73d f2ea f4bd 53df 3dbe
000001c0: 2fd1 fb3d f4cd 27be 0b76 e2bd f1ce bd3e
000001d0: d4f4 9a3e 573c 473e c909 2f3e 16b8 8a3e
000001e0: f375 4d3c f6f6 c6bd b59c 93bb ba8a 75bb
000001f0: 2c42 50be ff5b 253e a524 f6ba 3020 90be
00000200: a409 fe3c 76d8 7b3c 822c 343d 1f4f 8dbe
00000210: 3672 6b3e dac6 94be 9ab6 973d a446 68be
00000220: 379f 6abe c7f2 0e3e dc61 f43d bffc 733e
00000230: 1c56 dd3c 168f 573e b7c6 513d 4960 b83d
00000240: 1092 28be 552a 863e 6b6c e53c feeb aebd
00000250: e600 be3e 6451 e1bd 701f 103e 422b 8a3e
00000260: 87c8 f8bd a0e2 173e a438 8dbe 89c1 993d
00000270: b6bc f13c 2b81 80be 491d 963d 955f 21bb
00000280: 6a61 573e 3e94 b93d ddaa 96bd 3a9a a53b
00000290: 4562 d0bd 5833 a9bd b7c0 5ebe fd67 9fbd
000002a0: 93b8 42be 5fd7 fd3d 344d 8ebe 4f2b 0bbd
000002b0: bc44 843e b887 20bd a471 c7bb 7ca6 ad3e
000002c0: 2463 4b3e e48d d1bd 901c 08be 9e84 123e
000002d0: eecc 88be ac98 f43d b6ab ecbd caab cd3c
000002e0: 2a8c 173e 1623 893e 24ec 05be 3558 efbd
000002f0: 1353 ae3c 3471 80be 5562 b93e ee1a 673e
00000300: 675b 093e 0cf4 e0bc c7a1 8abd 2bc6 923e
00000310: 2f67 88bd 0523 99bd b169 403e 2068 a8bd
00000320: 8eb7 953e 815c e43d 0c44 c73d 358e e8bb
00000330: 5c10 8e3e 0db3 353d 7871 983e 6931 4d3d
00000340: 88f3 00bd f055 12be d595 853c 64c8 c33e
00000350: 6e57 c93e 0cb0 38be a5f5 c5bc 9902 5fbe
00000360: f0ca 123e fcba 44be 5098 9b3d 26b0 403e
00000370: c470 84bd 8da0 4ebe 101a a93d b3d2 e13d
00000380: fb58 75be 0212 093e 2c64 55be b258 fc3d
00000390: 915c d93d 4221 9e3e d403 e63e 3c43 b7bc
000003a0: 1d90 9abe 441e 803d cd00 903e 71d2 23bc
000003b0: 4e78 82bd 3a95 4abd 140c aabe 4903 8a3e
000003c0: 111b 9e3e 8983 693d 5d2f db3c e762 5d3b
000003d0: a3b9 e23d 84b2 b1bc c546 44bd ddd7 09bd
000003e0: 68ad 803d 4403 4ebd 1967 0e3e 8ca0 38bd
000003f0: 04cc 36bd 3566 a6bd ff91 4a3e bdc4 43bd
0.143638 -0.2502736 -0.08901834 0.09433327 0.10381614 0.13132803 -0.07728816 -0.05368185
0.17128044 -0.26913485 0.16435343 0.15809557 0.09313176 0.087690026 -0.2496211 -0.077608116
0.186447 -0.32865942 0.0066634705 -0.14896376 0.16099127 0.073401 -0.087352484 0.20646442
0.21169092 0.25254518 -0.21476257 0.3405963 0.25415054 0.18535064 0.06783099 0.045998983
0.022730898 -0.3793145 -0.3138736 -0.26640174 -0.025310889 0.0114163095 0.0889441 0.29200414
-0.00077457307 0.023038972 0.085709624 0.09055958 0.044790596 -0.048925996 0.078744 0.12328013
-0.024767775 -0.33786294 0.09035863 0.04709459 -0.15761441 -0.36712927 -0.07873572 0.005820669
-0.39201736 0.18365946 0.0040281806 -0.014517657 -0.24367072 -0.075225405 0.0031176244 -0.09256767
0.1402199 0.035186883 -0.10874665 0.07904312 0.087426454 -0.17323564 -0.3289782 0.08050366
0.08037411 0.14612046 -0.021563284 -0.199328 0.13634941 -0.28993514 -0.28713226 -0.087290674
-0.025192605 0.2427562 0.20589252 -0.10952182 0.27602124 -0.1488738 -0.40999088 0.16827597
-0.0032295526 0.0050709643 0.14951995 -0.03708419 -0.19997989 0.04192007 0.11731984 -0.25395408
-0.046506725 -0.029263387 -0.24249329 -0.14059618 -0.30450866 0.042922657 -0.037190784 -0.09953411
-0.15524147 0.073328055 -0.36636922 0.042884327 -0.10048116 0.12069148 -0.11958875 -0.18542223
0.12295758 -0.16387159 -0.11057671 0.37071946 0.30264914 0.19456612 0.17093576 0.2709357
0.012540328 -0.09715073 -0.004504765 -0.003746672 -0.20337743 0.16148375 -0.0018779231 -0.28149557
0.031010456 0.0153714325 0.04398776 -0.27599427 0.22992787 -0.29057962 0.07407875 -0.22683197
-0.22912298 0.139598 0.11932728 0.23826884 0.0270186 0.21050677 0.0512149 0.0900274
-0.16461968 0.26204172 0.0280058 -0.08541106 0.3711006 -0.11001852 0.14074492 0.26986128
-0.121476226 0.14832544 -0.27582276 0.07507617 0.02950893 -0.25098547 0.073298045 -0.0024623622
0.21033254 0.09061478 -0.07356808 0.0050537856 -0.101749934 -0.08261746 -0.21753202 -0.07783506
-0.19015722 0.123945944 -0.27793276 -0.03397685 0.2583369 -0.03919193 -0.006086545 0.3391608
0.19862038 -0.102321416 -0.13292146 0.14308402 -0.2671885 0.11943182 -0.11556189 0.02510633
0.14799562 0.2678458 -0.13078362 -0.11686746 0.021279847 -0.25086367 0.36207834 0.22568867
0.13413773 -0.02746012 -0.06769138 0.28666815 -0.06660306 -0.074773826 0.18790318 -0.08222985
0.29241604 0.11150456 0.09729776 -0.0070970305 0.27746856 0.04436021 0.2977407 0.05009595
-0.03148225 -0.14290595 0.016306797 0.38238823 0.39324516 -0.18035907 -0.024164984 -0.21778335
0.14335227 -0.19211954 0.07597411 0.18817195 -0.06466821 -0.20178433 0.08256924 0.11026516
-0.23959725 0.13385776 -0.20838994 0.12321605 0.10613359 0.3088475 0.44924796 -0.022370927
-0.30188075 0.06255773 0.2812561 -0.009998904 -0.063706025 -0.04945872 -0.3321234 0.2695563
0.30880025 0.057010207 0.026755983 0.0033780874 0.11070564 -0.021691568 -0.047919054 -0.03365313
0.062830746 -0.050296083 0.13906516 -0.045074984 -0.04462816 -0.08124963 0.19782256 -0.047795046

lin_2.bias f4 [16]
00000000: c9df 883b 3554 b1bb 38a3 5b3b 29bd 973b
00000010: 58a0 653b b26b 4f3b 0cfe beba 6632 10bb
00000020: 7a71 73ba 7d9d 1a3a 8414 47ba b187 92bb
00000030: 23b5 213b dfdf 5fbb cf51 aaba 3c97 87bb
0.004177068 -0.0054116496 0.0033514034 0.004630704 0.00350382 0.0031649885 -0.0014571561 -0.0022002696
-0.00092866237 0.00058981014 -0.00075943046 -0.004471742 0.0024674616 -0.0034160537 -0.0012994352 -0.0041379016

norm_lin3.weight f4 [32]
00000000: de1d 7f3f 82e6 7e3f 680e 7f3f 898e 803f
00000010: a099 803f 5279 803f 208f 803f f202 803f
00000020: a171 803f e89f 803f e1cc 7e3f dae5 7e3f
00000030: 779c 803f 36f8 7e3f 1f97 803f 38cd 7e3f
00000040: d9db 7e3f b4c9 7e3f 9627 7f3f 229e 803f
00000050: 029a 803f 4c0c 7f3f fec4 7e3f 254f 7f3f
00000060: 5fee 7e3f 44d8 7e3f 1e6e 803f 4afe 7e3f
00000070: b673 7f3f c726 7f3f 35cf 7e3f fd6b 803f
0.9965495 0.99570477 0.9963136 1.0043498 1.0046883 1.0037024 1.0043678 1.0000899
1.0034677 1.00488 0.9953137 0.99569476 1.0047749 0.9959749 1.0046118 0.9953189
0.9955421 0.99526525 0.9966978 1.0048258 1.0047 0.9962814 0.99519336 0.9973014
0.99582475 0.99548745 1.0033605 0.99606764 0.99785936 0.99668545 0.9953492 1.0032955

norm_lin3.bias f4 [32]
00000000: 76b0 8cbb f9e9 943b acbc a0bb fed4 753b
00000010: 0e18 9d3b 8404 9b3b 54fb a23b 8b67 943b
00000020: f1ed 903b 40b1 9e3b ce82 2e3b 171a 97bb
00000030: af80 993b 660a 673b 6448 27bb 6591 703b
00000040: c419 9d3b 6fec 9f3b fd9d 993b 3a51 9e3b
00000050: 1aaf 96bb d9dd 90bb 8917 09bb 2714 4bbb
00000060: a15b 9a3b d465 92bb cfd3 9cbb 5f77 963b
00000070: 43ae 873b 922b 63bb 6b8e 99bb 9c8a 983b
-0.0042934967 0.0045444933 -0.004905304 0.0037510986 0.0047941273 0.004730763 0.0049738083 0.004528945
0.004422896 0.004842907 0.0026628259 -0.0046112644 0.0046845297 0.0035254 -0.0025525326 0.0036707756
0.0047943313 0.00488048 0.004688023 0.0048314603 -0.0045985105 -0.0044209776 -0.002091857 -0.0030987354
0.00471063 -0.0044677053 -0.0047859917 0.004591867 0.0041406467 -0.003466342 -0.004686167 0.0046551954

norm_lin3.running_mean f4 [32]
00000000: da58 9d3e 3031 653e bd95 923f 99dc b93e
00000010: 68ae 003f 13c1 713e b4af 633e d866 fb3d
00000020: 928e 8f3e 6a5d 893e 85fb 793e 1fbb 353e
00000030: 2cc6 343e 2706 b93e a63d 703e 18aa 9e3e
00000040: 77f4 963e ad6a 2b3f 62aa b33e d864 d03e
00000050: 60d0 cf3d d691 8e3d 63e7 893d 17c5 d93e
00000060: f89f cf3d 48b6 743e 6819 723f e78c 433f
00000070: e7c0 7a3e 3fa2 883e 4b4d 833e 13b5 633e
0.3073185 0.22382045 1.1451946 0.36301115 0.5026612 0.23608808 0.22234994 0.12275475
0.2803846 0.26829082 0.24412353 0.17747162 0.17653722 0.36137506 0.23461017 0.30989146
0.29483387 0.6695965 0.3509093 0.40701938 0.10147166 0.0696141 0.06733587 0.4253318
0.101379335 0.2389766 0.94570017 0.76386875 0.24487649 0.26686284 0.25644907 0.22237043
