Network/Weights/ppo_critic.pth (torch, 22251 bytes, 37 tensors)

graph_embedding.att_src f4 [1, 1, 16]
00000000: eceb ec3e 3ff7 cfbe 0b46 bdbe 2a36 723e
00000010: 479a 893e 7aad 083f b72a d13e 7ee0 d33e
00000020: 04f4 24bd e38b ff3d 1f08 05bf e7c2 94be
00000030: 7b51 5c3e c680 0f3e 3f81 f5be a3e7 d23e
0.46273744 -0.4061832 -0.369675 0.23653474 0.26875517 0.53389704 0.408529 0.4138221
-0.040271774 0.12477853 -0.51965517 -0.2905495 0.21515457 0.14013967 -0.4795017 0.4119235

graph_embedding.att_dst f4 [1, 1, 16]
00000000: 3e6a dabe 7601 b2be 2d8d 15bf af30 7639
00000010: e626 73be 30a6 643e 8ebd b53e bfb8 afbe
00000020: 171e 09bf 4caa c63e fc02 873e 1904 1fbc
00000030: cc89 003e 5a9b 8c3e 57e3 d3bd e571 9c3d
-0.4265918 -0.3476674 -0.5841854 0.00023478524 -0.23745307 0.2232902 0.3549618 -0.34320638
-0.5356154 0.388018 0.26369464 -0.009705567 0.12552565 0.27462274 -0.10346096 0.07638911

graph_embedding.att_edge f4 [1, 1, 16]
00000000: 55d5 983e 3133 8e3d ab91 66bd a7d5 04be
00000010: 3898 05bf 6b1c 573e a7ea 08bf c362 aebe
00000020: ffd5 d83e 9e0a 88be d935 d23e 2be6 9dbe
00000030: 275a 003d 02b4 2ebc 8045 9d3e 66eb bf3d
0.2985026 0.06943358 -0.056291264 -0.12972127 -0.5218539 0.21006934 -0.5348305 -0.34059724
0.42350766 -0.265706 0.41056708 -0.30839667 0.031335976 -0.010663034 0.30717087 0.093710706

graph_embedding.bias f4 [16]
00000000: 18ea 33b6 0000 0000 0000 0000 8aad 16b5
00000010: e516 9a34 0000 0000 9b78 a036 b98d bbb5
00000020: 0000 0000 c052 b136 0000 0000 0000 0000
00000030: 5d79 bab7 dc54 28b5 b33d 47b7 a0a3 5cb6
-2.680934e-06 0.0 0.0 -5.6131887e-07 2.8701393e-07 0.0 4.782412e-06 -1.3973832e-06
0.0 5.2846444e-06 0.0 0.0 -2.2229442e-05 -6.2708364e-07 -1.187569e-05 -3.2877797e-06

graph_embedding.lin_src.weight f4 [16, 15]
00000000: 0d99 573e bf00 11be ad84 a73e 3de9 b73e
00000010: de49 c1be 565f 713e bce0 31be 9d3a e03c
00000020: 78da debd 27fa bb3e a2f0 923d 842e 07bd
00000030: c06b 4dbe f545 093d 31b6 9b3e 9f37 89bd
00000040: 3767 263e 019c 6cbe 6141 3dbe 5c60 b93e
00000050: 53ae cbbe 17d7 36be 1445 18be 268a 013e
00000060: eec3 9cbe 3373 f1bd 7bc6 cdbe b328 9d3d
00000070: a436 c4be ea17 76bd b0e8 c8be 576f 45bd
00000080: cbaf 20be 4ddd c03e 84c4 e0be a32b cdbe
00000090: c36c 72be d988 303e ef7a 6a3e 34cb a1be
000000a0: f688 debe 38ea a5be c210 d63e 79a7 513d
000000b0: f83f 0b3e 4549 db3b 5943 80be 07fa 8cbe
000000c0: f516 ba3d a178 b33e 990d 51be 1832 9a3e
000000d0: d3ff 85be e095 373e 4490 c23e 9368 a0be
000000e0: c881 813e 8acd b33e 789a cdbd 0f79 853e
000000f0: a097 ac3e 5700 6cbe 4810 183e f069 46be
00000100: ac76 953e d077 ae3e 0f98 2c3d ffe3 f2bd
00000110: 75dd de3e 2851 cc3e e481 fbbd 94b2 d23d
00000120: 0fba bbbe ede8 59be c666 d73d d5e5 ae3e
00000130: fce2 de3e 82c3 d6be b174 f13d ac17 fdbd
00000140: cb14 60be 00f8 a03e e3fe 3ebe e872 d03e
00000150: 5ffe dabd 7a2d bb3d 1e0b 403d 98f8 b6be
00000160: a6ad b13e aa6c c4be 8c9d 2bbe d393 bebd
00000170: aad4 2dbe da28 633d b1ea 8e3e c981 1dbd
00000180: bdc8 a93e 1ecc ae3d 85d1 aa3e 114d 663e
00000190: bede 42bc 626d 703e f284 94bc 7818 38be
000001a0: 6563 de3e d720 c4bd 1a31 abbe f0b5 eb3c
000001b0: 0550 b6bc f11f 66bd 5f56 a9bd 73ba 95be
000001c0: 2561 cebe 3315 70be 6758 c53e ee52 7d3d
000001d0: 065a bfbe 97a2 6b3e 15f9 fe3d 690c d1be
000001e0: 2db4 0bbd 81a3 96be 0340 6d3e 946f 1d3b
000001f0: 0be6 a23e 6ade 4fbe ce0b b2be d064 8e3e
00000200: dd13 003e acad 77bc f175 223e 1399 c3bd
00000210: f409 f13d 72dd 8fbe 8b22 363e 36b2 85be
00000220: 527f bbbe d735 443d 713b edbd 2004 423d
00000230: 92f7 44be a264 6e3e 7b1c 8cbe 83d0 453e
00000240: 79e6 8d3d c5f7 4cbe e48a 4ebe 03f6 c6bd
00000250: 5553 acbe aa61 783e b84e 0c3e c62c f6bd
00000260: 27a4 cf3e 6e06 8a3d 907e 9dbe 671b 9d3d
00000270: 2dd5 3cbe 5047 35be 0000 c23d 17fa 23be
00000280: f948 adbe d638 6d3d a143 d43e 180c dfbe
00000290: 3418 88bc b7b0 75bd 9c93 9d3e 196f 5cbe
000002a0: 479a a93e 8385 f93d ced5 cf3b ccc3 afbe
000002b0: e1e2 b2be 7b3b afbe b6a2 4ebe 624f 123c
000002c0: f7de 153e 85b2 af3e 734c 5cbe cba2 44be
000002d0: 613a 91be 466c ddbe f821 893e ee05 cd3e
000002e0: 3ad3 6f3e 4c83 343c b837 5cbe 195e d83d
000002f0: 06fa a63d 7830 233d e16f d3be 413f d53e
00000300: 903f 113e 2f97 db3e c102 febd 5a10 2dbe
00000310: 4008 853e 7962 333c 033f b33e 4bbc 823e
00000320: 10ec 04be 4769 7a3e 7c7b 9d3e 8f90 abbe
00000330: 0b6f 9d3e b94d 9c3e 3b75 33be 459c 963e
00000340: 96f7 73bd ff52 9d3e b8a7 7b3d 706b bb3e
00000350: 2183 a9be fb4f acbe e51b af3e c77d d63e
00000360: e323 a73e 332f ad3d f746 4f3e c1ff a33d
00000370: f61f 353e 969c 38bc e116 073e 7ccc 4f3e
00000380: 29ca b7be 1453 7d3e b268 b93e 6b20 c23e
00000390: f3a2 563e 4f03 7abd e5a2 ba3e 7075 463e
000003a0: 8573 86bd 3083 34be c1d5 2c3e 83c9 0abe
000003b0: 3e49 4b3d b1a2 003d 16cc dbbd e918 303e
0.21054478 -0.14160441 0.3271841 0.35920134 -0.3775167 0.23571524 -0.17370886 0.027371699
-0.10881513 0.3671429 0.07174803 -0.033003345 -0.20060635 0.03351398 0.3041244 -0.06700062
0.16250311 -0.23106386 -0.18481971 0.3620633 -0.39781436 -0.17855488 -0.14870101 0.12650356
-0.30618232 -0.11789551 -0.4019049 0.076737784 -0.38322937 -0.0600814 -0.39240026 -0.048201885
-0.1569206 0.3766884 -0.4389993 -0.40072355 -0.23674302 0.17239703 0.22898458 -0.31600344
-0.43463868 -0.32405257 0.4180966 0.051185105 0.13598621 0.006692084 -0.25051382 -0.27534506
0.0908641 0.3505297 -0.20415343 0.30116343 -0.2617174 0.17928267 0.3800069 -0.31329784
0.25294328 0.3511775 -0.10039228 0.26068923 0.3370943 -0.23047005 0.14849961 -0.1937635
0.29192102 0.34075785 0.042137202 -0.11859893 0.43528333 0.39905667 -0.12280634 0.10287967
-0.3666539 -0.2128026 0.10517649 0.34159723 0.4353255 -0.41946036 0.11789835 -0.12358031
-0.21882932 0.3143921 -0.18651919 0.40712667 -0.10693049 0.09139533 0.046885602 -0.35736537
0.34702796 -0.38364154 -0.16759318 -0.09305539 -0.16975656 0.05545888 0.2791343 -0.03845385
0.33160964 0.08535026 0.33362976 0.22490336 -0.011893926 0.23479226 -0.0181298 -0.17978084
0.43435207 -0.09576576 -0.334359 0.028773278 -0.022254953 -0.056182805 -0.08268427 -0.29243812
-0.4030849 -0.23445587 0.38544008 0.061846666 -0.3737337 0.23011242 0.124498524 -0.4082978
-0.034107376 -0.2942162 0.2316895 0.0024022805 0.31816134 -0.20299688 -0.3477463 0.2781129
0.12507577 -0.01511709 0.15865304 -0.09550681 0.117694765 -0.28098637 0.17786615 -0.26112527
-0.36620575 0.04790291 -0.11583603 0.047367215 -0.19235066 0.23280576 -0.2736548 0.19317822
0.06928725 -0.20016392 -0.2017017 -0.09714892 -0.33657327 0.24256006 0.13701904 -0.120202586
0.40554926 0.067395076 -0.30760622 0.07671242 -0.18440695 -0.17702985 0.09472656 -0.1601337
-0.33844736 0.05791553 0.41457847 -0.43563914 -0.016613103 -0.05998298 0.3077668 -0.21526755
0.33125517 0.121836685 0.006342626 -0.3432907 -0.3493872 -0.34225067 -0.20179257 0.008930059
0.14635836 0.34315887 -0.21513538 -0.19202726 -0.28364852 -0.4324667 0.2678373 0.40043586
0.2342042 0.011017632 -0.2150563 0.10564823 0.08153157 0.039841145 -0.41296294 0.4164982
0.14184403 0.4288878 -0.12402869 -0.16900769 0.25982857 0.010948771 0.35009012 0.2553428
-0.12980676 0.24454223 0.30758274 -0.33508727 0.30748782 0.30528048 -0.17525189 0.294161
-0.05956229 0.30727383 0.061439246 0.36605406 -0.33107856 -0.3365477 0.3420097 0.41892835
0.32644567 0.08456268 0.20241915 0.080077656 0.17687973 -0.011267802 0.13192321 0.20292848
-0.35896423 0.24738723 0.3621269 0.37915358 0.20960598 -0.06103831 0.36452404 0.19380736
-0.06565002 -0.17628169 0.16878416 -0.13553433 0.049630396 0.031405155 -0.10732286 0.17197002

graph_embedding.lin_dst.weight f4 [16, 15]
00000000: 0d99 573e bf00 11be ad84 a73e 3de9 b73e
00000010: de49 c1be 565f 713e bce0 31be 9d3a e03c
00000020: 78da debd 27fa bb3e a2f0 923d 842e 07bd
00000030: c06b 4dbe f545 093d 31b6 9b3e 9f37 89bd
00000040: 3767 263e 019c 6cbe 6141 3dbe 5c60 b93e
00000050: 53ae cbbe 17d7 36be 1445 18be 268a 013e
00000060: eec3 9cbe 3373 f1bd 7bc6 cdbe b328 9d3d
00000070: a436 c4be ea17 76bd b0e8 c8be 576f 45bd
00000080: cbaf 20be 4ddd c03e 84c4 e0be a32b cdbe
00000090: c36c 72be d988 303e ef7a 6a3e 34cb a1be
000000a0: f688 debe 38ea a5be c210 d63e 79a7 513d
000000b0: f83f 0b3e 4549 db3b 5943 80be 07fa 8cbe
000000c0: f516 ba3d a178 b33e 990d 51be 1832 9a3e
000000d0: d3ff 85be e095 373e 4490 c23e 9368 a0be
000000e0: c881 813e 8acd b33e 789a cdbd 0f79 853e
000000f0: a097 ac3e 5700 6cbe 4810 183e f069 46be
00000100: ac76 953e d077 ae3e 0f98 2c3d ffe3 f2bd
00000110: 75dd de3e 2851 cc3e e481 fbbd 94b2 d23d
00000120: 0fba bbbe ede8 59be c666 d73d d5e5 ae3e
00000130: fce2 de3e 82c3 d6be b174 f13d ac17 fdbd
00000140: cb14 60be 00f8 a03e e3fe 3ebe e872 d03e
00000150: 5ffe dabd 7a2d bb3d 1e0b 403d 98f8 b6be
00000160: a6ad b13e aa6c c4be 8c9d 2bbe d393 bebd
00000170: aad4 2dbe da28 633d b1ea 8e3e c981 1dbd
00000180: bdc8 a93e 1ecc ae3d 85d1 aa3e 114d 663e
00000190: bede 42bc 626d 703e f284 94bc 7818 38be
000001a0: 6563 de3e d720 c4bd 1a31 abbe f0b5 eb3c
000001b0: 0550 b6bc f11f 66bd 5f56 a9bd 73ba 95be
000001c0: 2561 cebe 3315 70be 6758 c53e ee52 7d3d
000001d0: 065a bfbe 97a2 6b3e 15f9 fe3d 690c d1be
000001e0: 2db4 0bbd 81a3 96be 0340 6d3e 946f 1d3b
000001f0: 0be6 a23e 6ade 4fbe ce0b b2be d064 8e3e
00000200: dd13 003e acad 77bc f175 223e 1399 c3bd
00000210: f409 f13d 72dd 8fbe 8b22 363e 36b2 85be
00000220: 527f bbbe d735 443d 713b edbd 2004 423d
00000230: 92f7 44be a264 6e3e 7b1c 8cbe 83d0 453e
00000240: 79e6 8d3d c5f7 4cbe e48a 4ebe 03f6 c6bd
00000250: 5553 acbe aa61 783e b84e 0c3e c62c f6bd
00000260: 27a4 cf3e 6e06 8a3d 907e 9dbe 671b 9d3d
00000270: 2dd5 3cbe 5047 35be 0000 c23d 17fa 23be
00000280: f948 adbe d638 6d3d a143 d43e 180c dfbe
00000290: 3418 88bc b7b0 75bd 9c93 9d3e 196f 5cbe
000002a0: 479a a93e 8385 f93d ced5 cf3b ccc3 afbe
000002b0: e1e2 b2be 7b3b afbe b6a2 4ebe 624f 123c
000002c0: f7de 153e 85b2 af3e 734c 5cbe cba2 44be
000002d0: 613a 91be 466c ddbe f821 893e ee05 cd3e
000002e0: 3ad3 6f3e 4c83 343c b837 5cbe 195e d83d
000002f0: 06fa a63d 7830 233d e16f d3be 413f d53e
00000300: 903f 113e 2f97 db3e c102 febd 5a10 2dbe
00000310: 4008 853e 7962 333c 033f b33e 4bbc 823e
00000320: 10ec 04be 4769 7a3e 7c7b 9d3e 8f90 abbe
00000330: 0b6f 9d3e b94d 9c3e 3b75 33be 459c 963e
00000340: 96f7 73bd ff52 9d3e b8a7 7b3d 706b bb3e
00000350: 2183 a9be fb4f acbe e51b af3e c77d d63e
00000360: e323 a73e 332f ad3d f746 4f3e c1ff a33d
00000370: f61f 353e 969c 38bc e116 073e 7ccc 4f3e
00000380: 29ca b7be 1453 7d3e b268 b93e 6b20 c23e
00000390: f3a2 563e 4f03 7abd e5a2 ba3e 7075 463e
000003a0: 8573 86bd 3083 34be c1d5 2c3e 83c9 0abe
000003b0: 3e49 4b3d b1a2 003d 16cc dbbd e918 303e
0.21054478 -0.14160441 0.3271841 0.35920134 -0.3775167 0.23571524 -0.17370886 0.027371699
-0.10881513 0.3671429 0.07174803 -0.033003345 -0.20060635 0.03351398 0.3041244 -0.06700062
0.16250311 -0.23106386 -0.18481971 0.3620633 -0.39781436 -0.17855488 -0.14870101 0.12650356
-0.30618232 -0.11789551 -0.4019049 0.076737784 -0.38322937 -0.0600814 -0.39240026 -0.048201885
-0.1569206 0.3766884 -0.4389993 -0.40072355 -0.23674302 0.17239703 0.22898458 -0.31600344
-0.43463868 -0.32405257 0.4180966 0.051185105 0.13598621 0.006692084 -0.25051382 -0.27534506
0.0908641 0.3505297 -0.20415343 0.30116343 -0.2617174 0.17928267 0.3800069 -0.31329784
0.25294328 0.3511775 -0.10039228 0.26068923 0.3370943 -0.23047005 0.14849961 -0.1937635
0.29192102 0.34075785 0.042137202 -0.11859893 0.43528333 0.39905667 -0.12280634 0.10287967
-0.3666539 -0.2128026 0.10517649 0.34159723 0.4353255 -0.41946036 0.11789835 -0.12358031
-0.21882932 0.3143921 -0.18651919 0.40712667 -0.10693049 0.09139533 0.046885602 -0.35736537
0.34702796 -0.38364154 -0.16759318 -0.09305539 -0.16975656 0.05545888 0.2791343 -0.03845385
0.33160964 0.08535026 0.33362976 0.22490336 -0.011893926 0.23479226 -0.0181298 -0.17978084
0.43435207 -0.09576576 -0.334359 0.028773278 -0.022254953 -0.056182805 -0.08268427 -0.29243812
-0.4030849 -0.23445587 0.38544008 0.061846666 -0.3737337 0.23011242 0.124498524 -0.4082978
-0.034107376 -0.2942162 0.2316895 0.0024022805 0.31816134 -0.20299688 -0.3477463 0.2781129
0.12507577 -0.01511709 0.15865304 -0.09550681 0.117694765 -0.28098637 0.17786615 -0.26112527
-0.36620575 0.04790291 -0.11583603 0.047367215 -0.19235066 0.23280576 -0.2736548 0.19317822
0.06928725 -0.20016392 -0.2017017 -0.09714892 -0.33657327 0.24256006 0.13701904 -0.120202586
0.40554926 0.067395076 -0.30760622 0.07671242 -0.18440695 -0.17702985 0.09472656 -0.1601337
-0.33844736 0.05791553 0.41457847 -0.43563914 -0.016613103 -0.05998298 0.3077668 -0.21526755
0.33125517 0.121836685 0.006342626 -0.3432907 -0.3493872 -0.34225067 -0.20179257 0.008930059
0.14635836 0.34315887 -0.21513538 -0.19202726 -0.28364852 -0.4324667 0.2678373 0.40043586
0.2342042 0.011017632 -0.2150563 0.10564823 0.08153157 0.039841145 -0.41296294 0.4164982
0.14184403 0.4288878 -0.12402869 -0.16900769 0.25982857 0.010948771 0.35009012 0.2553428
-0.12980676 0.24454223 0.30758274 -0.33508727 0.30748782 0.30528048 -0.17525189 0.294161
-0.05956229 0.30727383 0.061439246 0.36605406 -0.33107856 -0.3365477 0.3420097 0.41892835
0.32644567 0.08456268 0.20241915 0.080077656 0.17687973 -0.011267802 0.13192321 0.20292848
-0.35896423 0.24738723 0.3621269 0.37915358 0.20960598 -0.06103831 0.36452404 0.19380736
-0.06565002 -0.17628169 0.16878416 -0.13553433 0.049630396 0.031405155 -0.10732286 0.17197002

graph_embedding.lin_edge.weight f4 [16, 2]
00000000: 20c3 20be 4421 0c3f 29c2 ac3e 50bb c2be
00000010: 24db ddbe 586b 06bf 3fac f93e c7fa f23e
00000020: b850 7dbe 4b61 d2be 3434 8a3e d38a 5c3e
00000030: 613d df3e 888a afbe ddaa 243e 7e5f 81be
00000040: f421 8abe 4c55 d3be 212a 183e c06a 15be
00000050: a770 65be 0c99 b03e ca05 c1bd f63e 5e3e
00000060: b2dc 02bf a866 08bd 6f83 c2be a2c2 933d
00000070: 7a10 903c 9e74 0c3f 42ae 793d 4eff 123f
-0.15699434 0.5473826 0.33741882 -0.38033533 -0.43331254 -0.52507544 0.48764226 0.47456953
-0.24737823 -0.41089854 0.26992953 0.21537332 0.43601516 -0.34285378 0.16080804 -0.25268167
-0.2697903 -0.41276014 0.14859821 -0.14591503 -0.22406255 0.34491765 -0.09424932 0.21703705
-0.51118004 -0.033301026 -0.379909 0.07214858 0.017585982 0.54865444 0.0609572 0.57420814

norm1.module.weight f4 [16]
00000000: 9a84 7f3f 0000 803f 0000 803f da35 7f3f
00000010: cb97 803f 0000 803f a659 803f f15c 7f3f
00000020: 0000 803f ec59 803f 0000 803f 0000 803f
00000030: b856 803f da4b 803f 0a26 7f3f 6a14 7f3f
0.9981171 1.0 1.0 0.99691546 1.0046324 1.0 1.0027359 0.9975119
1.0 1.0027442 1.0 1.0 1.0026464 1.0023148 0.9966742 0.99640524

norm1.module.bias f4 [16]
00000000: 14ed 55bb b2bb 7bbb c51c 02bb 13d3 47bb
00000010: c84c a8bb 5a93 6e3b 9653 4d3b 830c 56bb
00000020: c2e6 3a3b b1c5 3a3b 3f90 6cbb 46f3 42bb
00000030: d86a 303b 66ad 4e3b 8ffc 0abb 4633 36b9
-0.003264253 -0.0038411436 -0.0019853574 -0.00304908 -0.005136106 0.0036403746 0.0031330339 -0.0032661266
0.002851889 0.002849918 -0.003609672 -0.0029747053 0.0026919153 0.003153646 -0.0021207666 -0.00017375973

norm1.module.running_mean f4 [16]
00000000: a26b 7347 0000 0000 0000 0000 2def 7b47
00000010: 8d5c 8447 0000 0000 23dd 1547 b18a 7d47
00000020: 0000 0000 e10f 3546 0000 0000 0000 0000
00000030: 2b06 dc45 0a97 4b47 5250 5746 f4b8 df46
62315.633 0.0 0.0 64495.176 67769.1 0.0 38365.137 64906.69
0.0 11587.97 0.0 0.0 7040.771 52119.04 13780.08 28636.477

norm1.module.running_var f4 [16]
00000000: 3839 a34d f1e0 a83b f1e0 a83b c2c0 ae4d
00000010: 08c7 c04d f1e0 a83b ce28 f24c 2778 b54d
00000020: f1e0 a83b 44eb 384b f1e0 a83b f1e0 a83b
00000030: a934 814a b153 624d 29c5 744b 712e 894c
3.423045e+08 0.005153768 0.005153768 3.6648352e+08 4.0428365e+08 0.005153768 1.2696126e+08 3.805688e+08
0.005153768 1.2118852e+07 0.005153768 0.005153768 4.2338125e+06 2.3732098e+08 1.6041257e+07 7.192257e+07

graph_embedding2.att_src f4 [1, 1, 16]
00000000: e846 393d 1c39 fe3d dc4a 0d3f 3530 053e
00000010: 2a64 92be 4ec2 a53e eb9e 663d d5f6 5f3d
00000020: 1844 e43e 9b79 2fbe 06a1 fa3d 7cea 98bd
00000030: 1287 edbe 2b6b f43e 7335 263e 08e1 a33e
0.045233637 0.124132365 0.5519235 0.13006671 -0.28592044 0.32374805 0.0563039 0.054678757
0.445832 -0.17136233 0.12237744 -0.07466599 -0.46392113 0.47738013 0.16231327 0.32007623

graph_embedding2.att_dst f4 [1, 1, 16]
00000000: a178 e73c 492c cebc 8531 b1be 34d6 c03e
00000010: 5a78 05bf 86f0 1e3e aeb2 f53d 67f4 473d
00000020: f8f3 113f f723 083e 8e1c 713d 1c28 fd3d
00000030: da47 753e 1d20 113f 1d2d 69be a7ba 463d
0.028255763 -0.025167601 -0.34608093 0.37663424 -0.52136767 0.1552144 0.11996971 0.048817065
0.5701289 0.1329497 0.058865122 0.12361166 0.2395319 0.56689626 -0.22771116 0.04851785

graph_embedding2.att_edge f4 [1, 1, 16]
00000000: 0128 14bf 736e 923e 4d82 09bf ec6c 123f
00000010: e735 883e 79a7 0ebf 296f 163f ea90 fbbe
00000020: d145 babe 627c 91be c07d f63e 7d54 31be
00000030: 9554 bdbe c628 493d 1728 743e d42f 8abe
-0.5787354 0.2859989 -0.5371445 0.5719745 0.26603624 -0.55724293 0.58763367 -0.49133998
-0.3638139 -0.2841521 0.48142815 -0.17317386 -0.36978593 0.04911115 0.23843418 -0.26989615

graph_embedding2.bias f4 [16]
00000000: 7358 073b 49d4 353b 3418 9cb9 49f4 663b
00000010: 018d 9dbb d990 90bb 4da7 4bbb 6004 e0ba
00000020: 12b6 8abb 7cfb 9a3b b3a0 94bb 40da 643b
00000030: dfdb 15bb 0c50 a6bb 5db7 773b d2f1 803b
0.0020652085 0.002774494 -0.0002977267 0.003524082 -0.0048080687 -0.0044117984 -0.003107506 -0.0017091148
-0.0042331303 0.0047296863 -0.0045357584 0.0034920126 -0.002286665 -0.0050754603 0.0037798502 0.003935077

graph_embedding2.lin_src.weight f4 [16, 16]
00000000: 3f34 dc3e 64cc d93e 8d8b 29be 5af7 c23e
00000010: 2eda 0ebd 8d8a a5be 749f 0cbe 4f0e 8b3e
00000020: 8fef 3b3e 551f d7be 8af6 74be 760f dbbd
00000030: 211b 2f3e 7325 623d 08ac 013e 6443 923e
00000040: 2d74 9abe 669c 8fbd 5fdf 8cbe 5b46 11be
00000050: 0e94 2d39 02b6 9a3d b710 913e fba8 81be
00000060: 5c17 963e cb7f f73d b545 323b e889 23be
00000070: 6e15 a03e 1f71 b83e 6535 4abe 0850 e9bd
00000080: 74af b2be 8c57 d63e 5c4c 3dbe d2e8 d93b
00000090: af14 653e 1674 703e 9132 1c3e ad66 cfbe
000000a0: 5c57 8fbe 3172 4c3e f7b9 693e 3a2e d4bd
000000b0: b241 553e 8ddf ab3e f62f 633d fd9d d03e
000000c0: df87 d33d 9640 a83e d902 59bd 528e 39be
000000d0: 28d7 933e a6f8 ab3e 64e3 d43e 5d15 b5be
000000e0: 5b8e 9a3d acc6 603e 0274 cebe 60e0 3a3e
000000f0: 7eb5 063d 6b6a 19be 86bf 4a3d 6834 ce3c
00000100: 300f dc3e 8624 d33e ade8 d0be dccb 3fbd
00000110: db45 df3e b9fa b4bd 63c6 6ebd fb97 963e
00000120: 7103 a73e 725f c0bc 56b7 19be 71cb 503d
00000130: 444a 84be e9ba 8bbe dbdb 95be 1180 cfbe
00000140: 87eb b13e 3a7e 233d 315f 07be 87f0 3c3e
00000150: 9f6b 7fbe 9199 86be 1264 78be 1f69 c13e
00000160: da95 b03e 1ef7 7d3e 7105 8abe b123 ffbd
00000170: 498f 173e b504 d93d de60 d43e 3a20 27be
00000180: d255 81be 2f30 95bd f862 9abe 31af 95bd
00000190: 0501 30be 074b 7b3e c607 863e e8db 00be
000001a0: a325 3e3e 4644 123e 8fa5 9d3e d837 95be
000001b0: e67a c13e 3fed 853e a173 bc3e de30 9ebe
000001c0: 82bb d8be c980 b8bd 77ef 00be de9c 7dbd
000001d0: de68 94be dcf6 aa3c 820e 7fbe d9a4 b63e
000001e0: 6bdb 1dbe ce2c a4be 5f13 9f3e 8aae a43e
000001f0: 90b8 72be e48b 853e ef36 9dbd e2e0 d33e
00000200: 38b1 603e e871 133e e9b9 953e 8f0c 1ebe
00000210: 8f0a 133e 9903 d5be 7ae7 88bd 10b7 673e
00000220: 1b5e 28be 8a6d 77bc dac8 ba3e 47dd 18be
00000230: 8f5b 2ebe 1155 ea3d 1f54 83be 0720 9fbe
00000240: b0a2 76be 7311 bcbe fa6a ec3d d754 00be
00000250: a72c dcbd d96a 3e3d a507 9b3e 9255 a4bd
00000260: 1352 973e f53d e6bd 1791 453d 9f21 66be
00000270: f02e bdbe 4492 b63e aef1 1f3e 66b3 93bc
00000280: f3e8 773e 5fdc acbe e498 e6ba aa26 713e
00000290: 1721 b3bb 7db9 55be 1173 d63d 36c3 833e
000002a0: 1f91 8cbe 60fe 8abe 5758 3c3d ff11 09be
000002b0: f0b7 cc3e 8cec 99bd ddd6 a23e 25c8 cfbe
000002c0: 5e8f c7be 3bf0 ce3d de5c 983e 0c3b bdbe
000002d0: 29b8 863e 5e30 29be aee6 28bd 8f99 08be
000002e0: 0a35 acbe c582 c8bc 2fb4 d73c 3f88 13be
000002f0: d438 803d 894c 203e a8ed c4bd 5dbc 89be
00000300: 32ff a5be 433a acbe b3ff 243e 4079 0c3c
00000310: f4f1 5dbd 3080 1e3d f400 bc3e 1bd7 fa3d
00000320: 6c0a 843e 2c4b 653d a833 913d e2d4 83be
00000330: f543 973e b860 573e bfd2 823d da1a cebd
00000340: 433b 973e 1232 89be 9f96 6c3e 5b67 86be
00000350: f678 35be 9589 aa3e f08a 88bd e1de 4dbe
00000360: 579d 0fbd e5b4 b23e 50fd 8e3e d075 47be
00000370: a321 c43e fac4 b2bc cc63 dabd 779a 9e3e
00000380: 7f04 6ebd a283 b23e 16ad ae3d 78a0 8fbd
00000390: 7663 a6be 773a c53e 67e9 143e 981e cdbe
000003a0: 7712 aabc eedf 8abe 9926 83be 41bd aa3e
000003b0: 8c7a c7be 9fc4 8b3e a223 c03d cebb 57be
000003c0: 62be a4bc aef9 213b 0d4d 953e 8de4 cdbe
000003d0: f1b2 863a d695 a73e 1262 8a3e 2196 19be
000003e0: 663b a73e fbca 8f3e 9180 03be f14c 28be
000003f0: 7f51 163e 4e53 5f3e 2f08 e63d 1696 16bd
0.4300861 0.4253875 -0.1655714 0.3807934 -0.03487604 -0.32332268 -0.13732702 0.27159354
0.18353103 -0.42016092 -0.23922172 -0.10696308 0.17100193 0.055211496 0.12663281 0.2856704
-0.3016676 -0.070122525 -0.2751417 -0.14186995 0.0001655372 0.075542465 0.28333065 -0.25324234
0.29314697 0.120849214 0.0027202193 -0.15970576 0.3126635 0.36023805 -0.19746931 -0.11392218
-0.34899485 0.41863668 -0.1848616 0.006650069 0.22371171 0.23481783 0.15253665 -0.40508023
-0.27996337 0.19965436 0.22824846 -0.103603795 0.20825842 0.33568993 0.05546566 0.40745535
0.1032865 0.32861775 -0.05298123 -0.18120697 0.2887509 0.3358814 0.41579735 -0.3536786
0.075466834 0.21950787 -0.40322882 0.18249655 0.03288793 -0.14982001 0.049499057 0.025171474
0.42980337 0.41238803 -0.40802518 -0.046825275 0.43607983 -0.08836884 -0.058294665 0.29412827
0.32619813 -0.023483012 -0.15011343 0.050975267 -0.2583791 -0.2729104 -0.292693 -0.40527394
0.34750006 0.0399153 -0.13219906 0.18451129 -0.24943398 -0.26289037 -0.24256924 0.37775514
0.34489328 0.24801299 -0.26957276 -0.124579795 0.14800753 0.10596601 0.41480154 -0.16320887
-0.25260788 -0.07284581 -0.30153632 -0.07308806 -0.17187889 0.2454034 0.26177806 -0.12583888
0.18569045 0.14283857 0.30790374 -0.29144168 0.37789077 0.26157567 0.36806968 -0.30896658
-0.42330557 -0.09008939 -0.12591349 -0.06191718 -0.28986257 0.020869665 -0.24907878 0.35672644
-0.15415733 -0.32065433 0.31069466 0.32164413 -0.23703218 0.2608329 -0.076764934 0.4138251
0.21942604 0.1439892 0.292434 -0.15434478 0.14359497 -0.41604307 -0.06684776 0.22628427
-0.16442148 -0.0151018 0.36481363 -0.1492816 -0.17027114 0.114420064 -0.25650117 -0.31079122
-0.24085498 -0.36732063 0.11543842 -0.12532364 -0.10750704 0.046488617 0.3027927 -0.08024134
0.29554805 -0.11242286 0.04823407 -0.22473763 -0.36949873 0.35658467 0.15619537 -0.01802988
0.24209957 -0.3376188 -0.0017593172 0.23549905 -0.005466591 -0.2087154 0.10471166 0.25734872
-0.2745447 -0.27147198 0.045982685 -0.13385771 0.39984083 -0.07515821 0.31804553 -0.40582386
-0.38976568 0.10104414 0.29758352 -0.36959112 0.26312378 -0.16522357 -0.04123562 -0.13339828
-0.33634216 -0.024476418 0.026331035 -0.14407443 0.06260839 0.15654196 -0.09615642 -0.26901522
-0.3242126 -0.336382 0.16113167 0.00857383 -0.054185823 0.038696468 0.36719477 0.12248059
0.257892 0.055979893 0.07089931 -0.25748354 0.29544035 0.21032989 0.06387853 -0.10063715
0.295374 -0.26796013 0.23104332 -0.2625073 -0.17721924 0.33308092 -0.06667125 -0.20104553
-0.03506216 0.34903637 0.27927637 -0.19478536 0.38306913 -0.021822441 -0.10663566 0.30977222
-0.058109757 0.34866053 0.08529107 -0.07013029 -0.32497758 0.38521168 0.14542161 -0.40062404
-0.020760758 -0.2712397 -0.25615385 0.33347514 -0.38960683 0.27298447 0.093817964 -0.21067736
-0.020110313 0.002471547 0.29160348 -0.40213433 0.0010276717 0.32731503 0.27027947 -0.14998676
0.32662505 0.2808455 -0.12842013 -0.16435601 0.14679526 0.21809122 0.1123203 -0.036764227

graph_embedding2.lin_dst.weight f4 [16, 16]
00000000: 3f34 dc3e 64cc d93e 8d8b 29be 5af7 c23e
00000010: 2eda 0ebd 8d8a a5be 749f 0cbe 4f0e 8b3e
00000020: 8fef 3b3e 551f d7be 8af6 74be 760f dbbd
00000030: 211b 2f3e 7325 623d 08ac 013e 6443 923e
00000040: 2d74 9abe 669c 8fbd 5fdf 8cbe 5b46 11be
00000050: 0e94 2d39 02b6 9a3d b710 913e fba8 81be
00000060: 5c17 963e cb7f f73d b545 323b e889 23be
00000070: 6e15 a03e 1f71 b83e 6535 4abe 0850 e9bd
00000080: 74af b2be 8c57 d63e 5c4c 3dbe d2e8 d93b
00000090: af14 653e 1674 703e 9132 1c3e ad66 cfbe
000000a0: 5c57 8fbe 3172 4c3e f7b9 693e 3a2e d4bd
000000b0: b241 553e 8ddf ab3e f62f 633d fd9d d03e
000000c0: df87 d33d 9640 a83e d902 59bd 528e 39be
000000d0: 28d7 933e a6f8 ab3e 64e3 d43e 5d15 b5be
000000e0: 5b8e 9a3d acc6 603e 0274 cebe 60e0 3a3e
000000f0: 7eb5 063d 6b6a 19be 86bf 4a3d 6834 ce3c
00000100: 300f dc3e 8624 d33e ade8 d0be dccb 3fbd
00000110: db45 df3e b9fa b4bd 63c6 6ebd fb97 963e
00000120: 7103 a73e 725f c0bc 56b7 19be 71cb 503d
00000130: 444a 84be e9ba 8bbe dbdb 95be 1180 cfbe
00000140: 87eb b13e 3a7e 233d 315f 07be 87f0 3c3e
00000150: 9f6b 7fbe 9199 86be 1264 78be 1f69 c13e
00000160: da95 b03e 1ef7 7d3e 7105 8abe b123 ffbd
00000170: 498f 173e b504 d93d de60 d43e 3a20 27be
00000180: d255 81be 2f30 95bd f862 9abe 31af 95bd
00000190: 0501 30be 074b 7b3e c607 863e e8db 00be
000001a0: a325 3e3e 4644 123e 8fa5 9d3e d837 95be
000001b0: e67a c13e 3fed 853e a173 bc3e de30 9ebe
000001c0: 82bb d8be c980 b8bd 77ef 00be de9c 7dbd
000001d0: de68 94be dcf6 aa3c 820e 7fbe d9a4 b63e
000001e0: 6bdb 1dbe ce2c a4be 5f13 9f3e 8aae a43e
000001f0: 90b8 72be e48b 853e ef36 9dbd e2e0 d33e
00000200: 38b1 603e e871 133e e9b9 953e 8f0c 1ebe
00000210: 8f0a 133e 9903 d5be 7ae7 88bd 10b7 673e
00000220: 1b5e 28be 8a6d 77bc dac8 ba3e 47dd 18be
00000230: 8f5b 2ebe 1155 ea3d 1f54 83be 0720 9fbe
00000240: b0a2 76be 7311 bcbe fa6a ec3d d754 00be
00000250: a72c dcbd d96a 3e3d a507 9b3e 9255 a4bd
00000260: 1352 973e f53d e6bd 1791 453d 9f21 66be
00000270: f02e bdbe 4492 b63e aef1 1f3e 66b3 93bc
00000280: f3e8 773e 5fdc acbe e498 e6ba aa26 713e
00000290: 1721 b3bb 7db9 55be 1173 d63d 36c3 833e
000002a0: 1f91 8cbe 60fe 8abe 5758 3c3d ff11 09be
000002b0: f0b7 cc3e 8cec 99bd ddd6 a23e 25c8 cfbe
000002c0: 5e8f c7be 3bf0 ce3d de5c 983e 0c3b bdbe
000002d0: 29b8 863e 5e30 29be aee6 28bd 8f99 08be
000002e0: 0a35 acbe c582 c8bc 2fb4 d73c 3f88 13be
000002f0: d438 803d 894c 203e a8ed c4bd 5dbc 89be
00000300: 32ff a5be 433a acbe b3ff 243e 4079 0c3c
00000310: f4f1 5dbd 3080 1e3d f400 bc3e 1bd7 fa3d
00000320: 6c0a 843e 2c4b 653d a833 913d e2d4 83be
00000330: f543 973e b860 573e bfd2 823d da1a cebd
00000340: 433b 973e 1232 89be 9f96 6c3e 5b67 86be
00000350: f678 35be 9589 aa3e f08a 88bd e1de 4dbe
00000360: 579d 0fbd e5b4 b23e 50fd 8e3e d075 47be
00000370: a321 c43e fac4 b2bc cc63 dabd 779a 9e3e
00000380: 7f04 6ebd a283 b23e 16ad ae3d 78a0 8fbd
00000390: 7663 a6be 773a c53e 67e9 143e 981e cdbe
000003a0: 7712 aabc eedf 8abe 9926 83be 41bd aa3e
000003b0: 8c7a c7be 9fc4 8b3e a223 c03d cebb 57be
000003c0: 62be a4bc aef9 213b 0d4d 953e 8de4 cdbe
000003d0: f1b2 863a d695 a73e 1262 8a3e 2196 19be
000003e0: 663b a73e fbca 8f3e 9180 03be f14c 28be
000003f0: 7f51 163e 4e53 5f3e 2f08 e63d 1696 16bd
0.4300861 0.4253875 -0.1655714 0.3807934 -0.03487604 -0.32332268 -0.13732702 0.27159354
0.18353103 -0.42016092 -0.23922172 -0.10696308 0.17100193 0.055211496 0.12663281 0.2856704
-0.3016676 -0.070122525 -0.2751417 -0.14186995 0.0001655372 0.075542465 0.28333065 -0.25324234
0.29314697 0.120849214 0.0027202193 -0.15970576 0.3126635 0.36023805 -0.19746931 -0.11392218
-0.34899485 0.41863668 -0.1848616 0.006650069 0.22371171 0.23481783 0.15253665 -0.40508023
-0.27996337 0.19965436 0.22824846 -0.103603795 0.20825842 0.33568993 0.05546566 0.40745535
0.1032865 0.32861775 -0.05298123 -0.18120697 0.2887509 0.3358814 0.41579735 -0.3536786
0.075466834 0.21950787 -0.40322882 0.18249655 0.03288793 -0.14982001 0.049499057 0.025171474
0.42980337 0.41238803 -0.40802518 -0.046825275 0.43607983 -0.08836884 -0.058294665 0.29412827
0.32619813 -0.023483012 -0.15011343 0.050975267 -0.2583791 -0.2729104 -0.292693 -0.40527394
0.34750006 0.0399153 -0.13219906 0.18451129 -0.24943398 -0.26289037 -0.24256924 0.37775514
0.34489328 0.24801299 -0.26957276 -0.124579795 0.14800753 0.10596601 0.41480154 -0.16320887
-0.25260788 -0.07284581 -0.30153632 -0.07308806 -0.17187889 0.2454034 0.26177806 -0.12583888
0.18569045 0.14283857 0.30790374 -0.29144168 0.37789077 0.26157567 0.36806968 -0.30896658
-0.42330557 -0.09008939 -0.12591349 -0.06191718 -0.28986257 0.020869665 -0.24907878 0.35672644
-0.15415733 -0.32065433 0.31069466 0.32164413 -0.23703218 0.2608329 -0.076764934 0.4138251
0.21942604 0.1439892 0.292434 -0.15434478 0.14359497 -0.41604307 -0.06684776 0.22628427
-0.16442148 -0.0151018 0.36481363 -0.1492816 -0.17027114 0.114420064 -0.25650117 -0.31079122
-0.24085498 -0.36732063 0.11543842 -0.12532364 -0.10750704 0.046488617 0.3027927 -0.08024134
0.29554805 -0.11242286 0.04823407 -0.22473763 -0.36949873 0.35658467 0.15619537 -0.01802988
0.24209957 -0.3376188 -0.0017593172 0.23549905 -0.005466591 -0.2087154 0.10471166 0.25734872
-0.2745447 -0.27147198 0.045982685 -0.13385771 0.39984083 -0.07515821 0.31804553 -0.40582386
-0.38976568 0.10104414 0.29758352 -0.36959112 0.26312378 -0.16522357 -0.04123562 -0.13339828
-0.33634216 -0.024476418 0.026331035 -0.14407443 0.06260839 0.15654196 -0.09615642 -0.26901522
-0.3242126 -0.336382 0.16113167 0.00857383 -0.054185823 0.038696468 0.36719477 0.12248059
0.257892 0.055979893 0.07089931 -0.25748354 0.29544035 0.21032989 0.06387853 -0.10063715
0.295374 -0.26796013 0.23104332 -0.2625073 -0.17721924 0.33308092 -0.06667125 -0.20104553
-0.03506216 0.34903637 0.27927637 -0.19478536 0.38306913 -0.021822441 -0.10663566 0.30977222
-0.058109757 0.34866053 0.08529107 -0.07013029 -0.32497758 0.38521168 0.14542161 -0.40062404
-0.020760758 -0.2712397 -0.25615385 0.33347514 -0.38960683 0.27298447 0.093817964 -0.21067736
-0.020110313 0.002471547 0.29160348 -0.40213433 0.0010276717 0.32731503 0.27027947 -0.14998676
0.32662505 0.2808455 -0.12842013 -0.16435601 0.14679526 0.21809122 0.1123203 -0.036764227

graph_embedding2.lin_edge.weight f4 [16, 2]
00000000: 3758 95ba f5d9 c6be e189 053f a8aa f2be
00000010: b8c8 d83e 6d9a fe3e 7d9a 8ebe 2a32 1f3d
00000020: 7301 10bf b08e bcbd df07 0ebf e10b 9b3e
00000030: 9c67 ec3e d4ca 08bf 1de4 ea3e f3fe bbbe
00000040: c7e1 293d 471b 6ebe d22a afbe d28e 9dbd
00000050: 7fec b1be 5db7 74bc 051f f4bd ef70 0cbf
00000060: ebab 663e 93c0 223e e1f4 33be 1df7 b8bd
00000070: 1df0 0fbf 40e6 dc3e 96a0 9ebd 05df b13e
-0.0011394088 -0.38838163 0.5216351 -0.47395825 0.42340636 0.49727193 -0.2785224 0.0388662
-0.5625221 -0.09206903 -0.5548076 0.302825 0.46172798 -0.5343449 0.45877162 -0.36717948
0.041475084 -0.23252593 -0.34212357 -0.076932564 -0.34750745 -0.014936295 -0.11919979 -0.54859823
0.22526519 0.15893774 -0.17573883 -0.09031508 -0.5622576 0.43144417 -0.07745473 0.34740463

norm_lin1.weight f4 [16]
00000000: f6dc 7e3f b09e 803f 3459 803f 32d2 7f3f
00000010: df8c 803f bc44 803f db97 7f3f bf4a 803f
00000020: d641 803f ca1a 7f3f f8c5 7e3f ced4 7f3f
00000030: 314e 803f 9549 803f 615f 803f 2ae9 7e3f
0.9955591 1.0048428 1.0027223 0.9993011 1.004299 1.0020976 0.9984109 1.0022811
1.0020092 0.9965025 0.99520826 0.9993409 1.0023862 1.0022455 1.0029107 0.9957453

norm_lin1.bias f4 [16]
00000000: 321a 9bbb 2298 5dbb e434 643b 54a3 c73a
00000010: 61ea 613b e0ff 87bb 0732 97bb 40f6 8fbb
00000020: e7d5 92bb e6b8 8a3b 4def 293a f40f c33a
00000030: 6687 0fbb 2ce6 8bbb f1e4 89bb dfed 903b
-0.0047333473 -0.0033812602 0.0034821564 0.0015231171 0.0034471976 -0.0041503757 -0.004614118 -0.004393369
-0.0044810656 0.0042334674 0.0006482497 0.0014882074 -0.0021900772 -0.004269382 -0.0042082 0.0044228877

norm_lin1.running_mean f4 [16]
00000000: 54cc 223f ae79 3d3d 03cd f63e 321c 853e
00000010: 78b4 a93d d7b5 293f d425 8f3e 0ed9 893e
00000020: 6805 e23d 8af9 d03d 9273 e93e 3a9f b83e
00000030: 5417 bd3e 21f2 933e 142c 063f bb31 7a3e
0.6359303 0.04625862 0.48203287 0.25998074 0.08286375 0.6629309 0.27958548 0.26923412
0.110361874 0.10203846 0.45595986 0.3605898 0.3693186 0.28895667 0.5241101 0.24433033

norm_lin1.running_var f4 [16]
00000000: eac4 503d 5102 b33b 25ef ff3c f17e 543c
00000010: 24e5 ef3b 4722 5e3d 677d 723c f7cc e13c
00000020: 6c04 0e3c acc7 103c 9e85 f13c f7b7 423d
00000030: 22a2 a73c 6513 6d3c 513c c43d e1c8 433c
0.050969042 0.0054629226 0.031241963 0.012969718 0.007321017 0.05423191 0.014800406 0.027563555
0.008668046 0.008836668 0.029482659 0.047538724 0.020463053 0.014469956 0.09581817 0.011949749

lin_1.weight f4 [16, 16]
00000000: bd82 49bc 12aa 893e ef90 f83d 592c 07bf
00000010: 3d29 d3bc 8ccf 143e 0797 97be e226 ffbd
00000020: 9f6c 853c 7769 98bd 39fe 7b3e f415 0b3f
00000030: 1e28 5fbe 7240 563e efdd 0bbe 3864 4abe
00000040: 0415 903e a1b3 903e bbe7 c8be 034d 443e
00000050: c927 e9be 4d07 2fbd 1378 283e 2cfd a2be
00000060: 11e6 943e 9a4f f53d f853 773e 72f7 b4bc
00000070: fa23 86be 7f22 d9bc 44fb 863e e0b0 f7bd
00000080: a662 4abd ca89 35be 22c7 0a3e 0f43 0dbe
00000090: 9c9e d7be bb8d 243c 08b9 f03e 712d 8abd
000000a0: eca2 e5be 18cc 94bc dadb 5bbd 0c86 5bbd
000000b0: 3765 c53d dca7 033f c0f5 d93c 27dc 53be
000000c0: 0050 7cbe 6484 ebbd e184 363d 2e7c 2f3e
000000d0: a8c5 b33e 9e51 14be 9fde 9dbd 10bd 9dbe
000000e0: 54d5 1f3e 9ec0 16be 0403 c43e 3150 a7be
000000f0: 582a 86be 2bdf 023f b5e2 5dbd 4721 d33d
00000100: 93bc cabd 9ea6 15bc fb5d b9be 475c 5f3e
00000110: 1bf6 2f3d 8a5e c03d 4776 823e 9c98 51be
00000120: 944e 1f3e db60 cdbe ddcf bcbe b10c d43e
00000130: 10df 493d 09ef 133e bfdd bdbe 563c 583e
00000140: d194 2e3e a2ab 893e 8f98 cdbe fdee 553c
00000150: c46d da3b 3fb8 e9be f335 a2be 41d1 aa3e
00000160: 1a34 afbe 34b0 1bbe 204b 4cbe ad3c 17be
00000170: 28f7 33be a6d9 723e 0abc e2bd cc0e c8bd
00000180: 901b af3d 1b25 a7be a3e2 413e a156 093f
00000190: f8ee acbe de44 6a3e c3d6 b3be d652 9c3e
000001a0: 29cb 893d c4fa 26be c649 ea3d 18fc 1f3e
000001b0: 4cf5 0ebe 0fe8 b73d 5f93 0dbe a407 7fbe
000001c0: 3e1c 733d c091 2f3e 385d 44be 293d 853e
000001d0: 455d 803e d5e8 c53e c131 36be 778c 45be
000001e0: 48f4 f0be 600e 39be 9d83 283e f59e cd3d
000001f0: 2a1b a93e ea24 083d 66b0 d53e 0259 cabc
00000200: 7206 0fbf e254 ff3e 9d92 2f3d 74f1 263e
00000210: c2a4 d9bd 2b4b 713e 2826 e6bd 94f5 953b
00000220: a003 243e 22f7 6c3e 763a 92be 4cde 53be
00000230: d02e 0b3e 4bfc 023e f341 a9bd 0d71 95be
00000240: 1c5b 373c e313 c3be ab1b a0be 7fe4 a7be
00000250: 4e1a 30be 4687 c73e 32b0 c1be b521 07be
00000260: 2426 a13d 162d e13d d585 afbe 90bf 6cbe
00000270: 0ad0 0ebe 0c52 213e f4e3 213e 9186 623e
00000280: 4a74 a63c f25e a93e 674c 3b3d b82a e6bb
00000290: 406d 65be 0bea b63e dfa6 b53d ff80 803e
000002a0: e093 3cbe 5135 50bd eb57 903e 870f 64be
000002b0: f715 d5bd 6490 5abc 4370 a3be ac92 1a3f
000002c0: 0fff 953e 6304 be3d 44b7 22bd dfaa 51be
000002d0: 1205 853e f275 b33e 5b40 933e 02ea aa3e
000002e0: f56d a33e eef7 c8be 89bc bebc aaf7 94be
000002f0: d26d 8bbc b77f c13d bb1e 8f3d ad3c b1be
00000300: 0462 b8be e1a9 77be 860b d5be 8598 19be
00000310: 29ce 59bd 741f 733d 2280 2d3d 2994 94bd
00000320: 12cb 51be 6913 06be 6054 a63e da85 2abe
00000330: 28ba 37bd 0ed6 dbbe 8d7e a7be f02a afbe
00000340: 9794 93be 7a8a bdbd 6de0 60be 18a3 ba3d
00000350: 5419 763e d38d 0e3e f7cc 923e 8681 d13e
00000360: f52f b5bd 95c2 a63e bd52 1c3d 2075 9d3e
00000370: bfba f0be 8588 963d d8cb 973e 692c 1c3d
00000380: c923 8e3e 6ae3 9d3d b7fe 743e 338d 173e
00000390: 59fb 5f3e 09a7 513e a0e7 8f3d e303 b9be
000003a0: 5a39 a3be d425 f63d 226d 9dbe dc35 fabd
000003b0: 5db7 03bf adab 3ebe d776 7ebe e034 2fbe
000003c0: d83a acbe 005e b43d f606 7e3e f6a3 60bd
000003d0: bf71 61be 7574 efbd 8008 77bc 4f34 25bd
000003e0: 819d 6bbd 79b9 17bf dc04 2bbe 829d 34bd
000003f0: 9c91 a5be cc6a 81be 8f4d da3e 2d0c e73d
-0.012299237 0.26887566 0.12137019 -0.52802044 -0.0257765 0.14532298 -0.29607412 -0.12458588
0.016287146 -0.07441991 0.24608697 0.5433037 -0.21792647 0.20923021 -0.1365888 -0.19764793
0.28141034 0.28262046 -0.39239296 0.19170003 -0.45538166 -0.042731572 0.16452055 -0.3183378
0.29081777 0.119780734 0.24153125 -0.022090647 -0.26199323 -0.026505707 0.26363575 -0.12094283
-0.049410485 -0.17728344 0.13552526 -0.13795112 -0.42113197 0.010043557 0.47016168 -0.067469485
-0.44850862 -0.018163726 -0.053676464 -0.053594634 0.09638446 0.5142801 0.02660644 -0.2068945
-0.24639893 -0.11499861 0.044560317 0.17137215 0.35111737 -0.1448426 -0.07708477 -0.30808306
0.15608722 -0.14721915 0.3828355 -0.3267837 -0.2620418 0.5112178 -0.054171283 0.103090815
-0.09899249 -0.009133963 -0.36204514 0.21812545 0.042959314 0.09393032 0.25480863 -0.20468372
0.15557319 -0.40112957 -0.36877337 0.41415933 0.049284995 0.14446653 -0.3708324 0.21116766
0.17048956 0.26888758 -0.40155455 0.0130574675 0.006665917 -0.4564838 -0.31681785 0.33362773
-0.34219438 -0.15203935 -0.19950533 -0.1476924 -0.17574751 0.23715839 -0.11071022 -0.09768447
0.08550179 -0.32645497 0.18934111 0.5364781 -0.3377607 0.22877833 -0.35124788 0.3053195
0.06728203 -0.16306597 0.114398524 0.1562351 -0.13960761 0.089798085 -0.13825749 -0.24905258
0.059353106 0.17145443 -0.19176185 0.26023224 0.2507116 0.386542 -0.17792417 -0.19291864
-0.47061372 -0.1807189 0.16456456 0.10040084 0.33028537 0.03323833 0.41736144 -0.024700645
-0.5586921 0.49869448 0.04286443 0.16303045 -0.10627128 0.2356383 -0.112377465 0.0045763943
0.16017008 0.23141149 -0.28560227 -0.20690268 0.13592076 0.12791555 -0.08264532 -0.29187813
0.011191156 -0.3810111 -0.3127111 -0.32791516 -0.17197534 0.38970393 -0.3782974 -0.13196452
0.07868603 0.109949276 -0.34281793 -0.2311995 -0.13946548 0.15753955 0.15809613 0.22121646
0.020319123 0.3308025 0.04572716 -0.0070241354 -0.22404957 0.35725436 0.08869719 0.25098416
-0.18415785 -0.050832096 0.28192076 -0.22271548 -0.1040458 -0.0133400895 -0.31921586 0.60380054
0.29296157 0.092781805 -0.039725557 -0.20475338 0.2598043 0.35050923 0.28760037 0.3338166
0.31919828 -0.39251655 -0.02328326 -0.29095203 -0.01702014 0.09448188 0.06988283 -0.34616604
-0.3601228 -0.24185897 -0.41610354 -0.14999588 -0.053175125 0.059356168 0.042358525 -0.07254822
-0.20487621 -0.13093342 0.32486248 -0.16652623 -0.044855267 -0.42936748 -0.32713738 -0.34212446
-0.28824303 -0.09254928 -0.21960612 0.09113139 0.240331 0.13921289 0.28672 0.4091913
-0.08847038 0.3257033 0.038164843 0.30753422 -0.47017476 0.07350258 0.29647708 0.03812829
0.27761677 0.077093914 0.23925291 0.14799957 0.21873225 0.20473875 0.07026601 -0.36135778
-0.31879693 0.12018934 -0.30747324 -0.12217304 -0.51451665 -0.18620177 -0.24850021 -0.17110014
-0.33638644 0.088069916 0.24807343 -0.054843865 -0.22016047 -0.11692134 -0.01507771 -0.04033309
-0.057523254 -0.59267384 -0.16701072 -0.044095524 -0.32337654 -0.25276792 0.42637298 0.11281619

lin_1.bias f4 [16]
00000000: e6c6 e73a 68c3 90bb 42bd 98bb d057 923b
00000010: 43c7 22bb 15f0 86bb 0d5e 8dbb 2c43 f33a
00000020: dbcf 31ba e794 c93a 7c3e 103b 6356 90bb
00000030: 08f4 d53a ebd8 313b 8062 8c3b b02d 11bb
0.0017683178 -0.0044178255 -0.004661233 0.0044660345 -0.0024838008 -0.0041179755 -0.0043141902 0.0018559447
-0.0006782987 0.0015379459 0.00220099 -0.0044048293 0.0016323337 0.002713735 0.004284203 -0.0022152476

norm_lin2.weight f4 [32]
00000000: 5f9b 803f f336 7f3f 0e90 803f 2d81 803f
00000010: 5624 7f3f 5f06 7f3f 1de4 7f3f 97b9 7e3f
00000020: 96e8 7e3f affd 7e3f 9f0f 803f 08c8 7e3f
00000030: ad48 7f3f 2080 803f a189 803f 4c7c 803f
00000040: 4b2f 7f3f dc5f 803f 5581 803f 665f 803f
00000050: 4782 7f3f d808 803f 8da0 803f f319 7f3f
00000060: b13f 7f3f a410 7f3f 20b7 7f3f 7a66 7f3f
00000070: e952 803f f389 803f d573 803f c707 7f3f
1.0047415 0.9969322 1.0043962 1.0039421 0.9966482 0.99619097 0.9995745 0.9950194
0.9957365 0.9960584 1.0004767 0.99523973 0.9972027 1.0039101 1.0042001 1.0037932
0.9968154 1.0029254 1.0039469 1.0029113 0.9980816 1.0002699 1.0048996 0.9964897
0.9970656 0.99634767 0.998888 0.9976574 1.0025302 1.0042099 1.0035349 0.9962124

norm_lin2.bias f4 [32]
00000000: 76a8 49bb 9251 963b e9f5 8fbb 0d91 9a3b
00000010: 948b e33a a930 843b fd3d 7abb 84f9 87bb
00000020: ce25 153b 347c 83bb 710f a4bb 71f7 98bb
00000030: c20a b5ba 2a6a 743b 535a 9e39 4279 97bb
00000040: f657 213b aa64 95bb 0071 923b e46c 95bb
00000050: d3c1 833b bc1b 9bbb 5079 97bb 6e79 9e3b
00000060: 9be9 5e3b 97e0 973b dfd8 c5b9 2b2d 993b
00000070: a078 99bb c904 61bb 2225 8b3b 8ba3 ed3a
-0.0030770577 0.0045873607 -0.0043933284 0.0047169984 0.0017360323 0.004034121 -0.003818392 -0.0041496176
0.002275813 -0.004012609 -0.0050067236 -0.004668169 -0.001381241 0.0037294724 0.00030203405 -0.0046226094
0.002461908 -0.004559119 0.004469037 -0.0045601 0.0040209084 -0.004733531 -0.004622616 0.004836253
0.0034013751 0.0046349275 -0.0003773635 0.004674574 -0.004683569 -0.0034335128 0.00424637 0.0018130405

norm_lin2.running_mean f4 [32]
00000000: 0ebf 393e de3f 173e bc15 0a3f a7c8 a23e
00000010: bd23 433e a5d0 613e 6b9f 293e 9315 cb3e
00000020: ffcd be3d 69a2 aa3e 6160 533f a2fb 193e
00000030: a5bb 6b3e 8e51 343f b110 643e 2765 1a3e
00000040: 54cc 223f ae79 3d3d 03cd f63e 321c 853e
00000050: 78b4 a93d d7b5 293f d425 8f3e 0ed9 893e
00000060: 6805 e23d 8af9 d03d 9273 e93e 3a9f b83e
00000070: 5417 bd3e 21f2 933e 142c 063f bb31 7a3e
0.18139288 0.14770457 0.53939414 0.3179371 0.19056602 0.22052248 0.1656472 0.39664897
0.093166344 0.33327034 0.8256894 0.15037397 0.230208 0.7043694 0.22271992 0.15077649
0.6359303 0.04625862 0.48203287 0.25998074 0.08286375 0.6629309 0.27958548 0.26923412
0.110361874 0.10203846 0.45595986 0.3605898 0.3693186 0.28895667 0.5241101 0.24433033

norm_lin2.running_var f4 [32]
00000000: ef7a e93d 2a09 7f3d d6a2 1a3f 9a7c f93d
00000010: 79e0 703d 87a8 3c3e f4a4 543d fcf8 943e
00000020: ecc8 df3c c413 bd3e c4a0 9e3f 9ada 123d
00000030: b926 3a3e 35b9 dc3f 9996 8a3d 2083 bf3d
00000040: eac4 503d 5102 b33b 25ef ff3c f17e 543c
00000050: 24e5 ef3b 4722 5e3d 677d 723c f7cc e13c
00000060: 6c04 0e3c acc7 103c 9e85 f13c f7b7 423d
00000070: 22a2 a73c 6513 6d3c 513c c43d e1c8 433c
0.11400401 0.0622646 0.6040472 0.12181969 0.058807824 0.18423663 0.051915124 0.2909621
0.027317487 0.36929142 1.2392812 0.035853006 0.18178834 1.7244021 0.067670055 0.09351182
0.050969042 0.0054629226 0.031241963 0.012969718 0.007321017 0.05423191 0.014800406 0.027563555
0.008668046 0.008836668 0.029482659 0.047538724 0.020463053 0.014469956 0.09581817 0.011949749

lin_2.weight f4 [16, 32]
00000000: 4320 aab8 2fea aebd 7dc4 353d 23ae e53a
00000010: db0f a4be e8ad 1e3e dc1f d5bc 3c75 3e3d
00000020: 3986 ca3d 7671 8ebe b08e 703e f7e6 983d
00000030: dd0e 64be 4544 483e a09d 65be e5e9 82bd
00000040: 8dd6 e53d 4a43 993d a1cd 9bbe 4f96 cd3d
00000050: fc5f f6bd 2070 8d3e b0f8 fc3e eecd 33bd
00000060: 93d2 d3bd 2a24 88bd a0d8 0b3c 88c3 b93d
00000070: 9fbc 0a3e 6415 f6bc 81d0 31be 1e57 50be
00000080: bc30 643e 2055 2d3d 3a97 923d f43f 1b3d
00000090: 6112 023d 1bd7 813e 0c2c e23d d9d7 0dbe
000000a0: 0972 c7bd 5c77 e3bd 0d2c 7c3e 89eb 3e3e
000000b0: efa6 f03e dbbf 74bd 806f 8cbe 8761 2cbe
000000c0: 8df0 3b3e cc02 4f3e 78c8 fa3d b0a3 88be
000000d0: c6db 44be 481d 1b3e f591 acbd eaf5 a83d
000000e0: 07ed 2b3d dd13 5f3e 9a20 83bd 58fc 23be
000000f0: 0c9e 2dbc 62a8 64bc 406d 1bbe ecca 813e
00000100: d83f 3c3e 9f3e 333e ec48 8f3d 6fc5 cf3d
00000110: a363 dd3c def7 3bbe 1a4a 783e e6a9 a43e
00000120: 0dc5 0bbe 934f 1cbe 108a c5be 922d b5bd
00000130: 86bb 4abd cebb 8bbe 3a9d 3a3e cd12 a9bd
00000140: 3dc6 ebbc 3d11 073e b9e7 dfbe a46f 76bd
00000150: 28ac 60bd 089a 693d 35d4 013e 700f 223e
00000160: b09c 1abd 33f1 843e c96b 703d f6e4 31be
00000170: d788 c3bd 374f cdbd 9bec 11be 84a8 b23d
00000180: b0f8 223d b444 a2bd 796f b5bd dc4b 78be
00000190: 764e c73d 845b ebbe c7d8 6cbe 7cf5 54bd
000001a0: 3485 9fbd dd22 25be 61c3 be3d 7def 273e
000001b0: 656e 52be 1d0f ea3d 9147 efbd 5f4c 42be
000001c0: 6b62 b9bd 0bd3 053e 80a4 c9bd c6e8 3bbe
000001d0: 5fca 533e f850 443d dcc4 33be 9be2 c63c
000001e0: 71d7 18bd e178 2fbe f248 cabe 0a99 4cbe
000001f0: 4e61 843d b59a 8cbe b3c9 97bd 939b fb3d
00000200: 8199 223d aaaa 1bbe db0a ed3e c15e bdbd
00000210: ca24 b73e b4e9 20be 1827 31bc 0abe 42be
00000220: 9e46 06be 1b11 c5bd 4a8f b23c 9c47 77bd
00000230: 7295 243d f0b0 d53c b5ae fbbc 64b5 943e
00000240: 9112 5dbe 3287 803d 60f6 c33b d8ae 133e
00000250: 09e7 b13d 2551 803d a2ff 4e3c 9fff 7ebe
00000260: ef93 0abe 9e25 183e 89ae 3c3e c071 e63c
00000270: cb53 733e 4304 353e 27e1 b5be 7490 5a3d
00000280: 987d 66bd e335 973d 61f0 663d 18c5 9ebd
00000290: db57 e9bd 3992 7b3d 3bba 113e d78f 20be
000002a0: 7706 79be f0e8 043e 3651 bd3e 016b 18bd
000002b0: a995 47be 3dc6 9dbe b362 3dbe d80c 9f3e
000002c0: 14b2 86be 1fc9 53be 41fc 52bd ed9d 78bd
000002d0: 8eb1 ea3a db39 07be bdbf d53a 38df bb3e
000002e0: c5d1 3abd 0b27 6f3e 7112 99bd 8aa4 4cbd
000002f0: 033f 29bc da5e 79be 1a58 53bc 33c1 53be
00000300: 9b17 8abd 013b 1cbd e79e babd ffc7 f43d
00000310: f34e 623d 686b b9bd 3a4d b33c 9d41 993d
00000320: bb64 debd b181 9e3e cf17 dcbd 59d6 743e
00000330: 4e1e 07bc 8ace 72be a67f 66bc 9c2d bebd
00000340: 240c f7bd b170 0f3e 83b8 ba3e 16cc ef3d
00000350: 0996 a9be bd7f 2bbe 064a c73e c565 88b9
00000360: a938 86be 26ed 67be 72b5 37be 7b8c 28be
00000370: b16a 973d 3e48 663d 2cd0 61be 3ff8 04bd
00000380: 1fab bcbe 7bde 213e 68c0 d0bd ff13 313e
00000390: 8689 c13d 5379 b1be c488 423e 1929 2bbe
000003a0: 9437 2f3e 4962 4b3d a703 9b3d c0d0 b73e
000003b0: c0a3 08bd 70b2 96bd 715a babd 76b9 03be
000003c0: 2910 cabc e718 47bd f83a b5bd 40b8 89be
000003d0: e672 0c3e dc01 ed3d ba4b 4b3d 2867 163e
000003e0: 284d 113e b86a 743b 1ea8 6f3e 8fc5 363e
000003f0: c2b3 8fbd 4170 bb3e b5f4 13be aef9 6dbd
-8.112241e-05 -0.08540761 0.04437684 0.001752321 -0.32043347 0.15496027 -0.026016168 0.046498522
0.09888882 -0.2782094 0.23491931 0.07465928 -0.22271295 0.19557293 -0.2242341 -0.06392268
0.11222563 0.074835375 -0.3043032 0.10038435 -0.12030026 0.27624607 0.49408484 -0.04389756
-0.10342898 -0.06647523 0.008535534 0.09070498 0.13548516 -0.030039497 -0.17364694 -0.20345733
0.22284216 0.04231751 0.071577504 0.037902787 0.03175581 0.25359425 0.110435575 -0.1385187
-0.09738547 -0.1110675 0.24626179 0.18644537 0.4700236 -0.05975328 -0.27428818 -0.16834079
0.18353482 0.2021591 0.12245268 -0.26687384 -0.19224462 0.15147889 -0.084262766 0.082500294
0.041974094 0.21784921 -0.06402703 -0.1601423 -0.010596763 -0.013956161 -0.15178394 0.2535013
0.1838373 0.17504357 0.069963306 0.10145079 0.02702505 -0.18356273 0.24247018 0.32160872
-0.13649388 -0.1526473 -0.38581896 -0.088465825 -0.049495243 -0.2729172 0.1822404 -0.08255539
-0.02878105 0.1319017 -0.43731478 -0.060165063 -0.05485168 0.05703166 0.12678607 0.15826201
-0.037747085 0.2596527 0.058696542 -0.17372498 -0.095475845 -0.10024875 -0.14250414 0.08723548
0.039787948 -0.0792326 -0.08859152 -0.24247688 0.09731762 -0.45968258 -0.23129569 -0.051991925
-0.07789078 -0.1612658 0.09314609 0.16399951 -0.20549925 0.11428664 -0.11683572 -0.18974446
-0.09051975 0.13068788 -0.09845829 -0.18350515 0.20682667 0.04792878 -0.17555565 0.024277976
-0.037314836 -0.17135955 -0.39508778 -0.19980255 0.06463872 -0.27461782 -0.07411518 0.12285533
0.039697174 -0.15201822 0.46297345 -0.092465885 0.35770255 -0.1571415 -0.010812543 -0.19017807
-0.13112876 -0.09622403 0.021796841 -0.060371026 0.040181585 0.026085347 -0.030722955 0.2904464
-0.21589114 0.062757865 0.005980298 0.14422166 0.086866446 0.06265477 0.01263419 -0.24902199
-0.13532995 0.148581 0.18425955 0.028130412 0.23762433 0.17677407 -0.3552334 0.053360417
-0.05627212 0.07383325 0.056381587 -0.077524364 -0.1139371 0.061418746 0.14231198 -0.1567987
-0.24318872 0.12979484 0.36976022 -0.037211422 -0.19490685 -0.30815306 -0.18494682 0.31064487
-0.26307738 -0.2068219 -0.0515101 -0.060697485 0.0017905699 -0.13205664 0.0016307753 0.3669374
-0.045610208 0.23354737 -0.074742205 -0.049961604 -0.010329965 -0.24352589 -0.012899423 -0.20679168
-0.06742784 -0.038142208 -0.091123395 0.11952209 0.055251073 -0.09053689 0.02188741 0.07483218
-0.108590566 0.30958322 -0.10746729 0.23909892 -0.008246971 -0.23711601 -0.01406852 -0.09286043
-0.120628625 0.14007832 0.36468896 0.11708848 -0.3312228 -0.16747947 0.38923663 -0.00026015766
-0.26215103 -0.22649059 -0.1794031 -0.16459839 0.07393397 0.05622124 -0.22052068 -0.03246331
-0.36849305 0.15807526 -0.101929486 0.17292784 0.09450059 -0.34662876 0.18997484 -0.16714896
0.17111045 0.04965428 0.07569056 0.3590145 -0.03335929 -0.07358253 -0.090992816 -0.12863716
-0.024665909 -0.048607733 -0.08849138 -0.26898384 0.13715705 0.1157262 0.049632765 0.14687788
0.14189589 0.0037295055 0.23403975 0.178488 -0.07016708 0.3660908 -0.14448817 -0.05809944

lin_2.bias f4 [16]
00000000: e648 9ebb d679 2abb 3323 7ebb b42b 60b9
00000010: 4467 9abb 5372 16bb 1a17 9ebb fabd 9d3b
00000020: c535 73bb 6af8 62bb dae9 08ba ea9c d9ba
00000030: d91d 903b 7edc 98bb 3f78 8e3b 77d7 30bb
-0.0048304675 -0.0026012561 -0.0038778305 -0.00021378585 -0.0047120173 -0.0022956326 -0.0048245313 0.0048139067
-0.0037110907 -0.003463293 -0.0005222835 -0.001660255 0.0043980894 -0.0046649566 0.0043478305 -0.0026983896

norm_lin3.weight f4 [32]
00000000: d6f4 7e3f 63cc 7e3f c603 7f3f 5b0c 803f
00000010: 46e7 7e3f 95c8 7e3f 8cda 7e3f cf9d 7f3f
00000020: f5a3 7e3f abc9 7e3f ec93 7f3f e30b 803f
00000030: 909a 803f 69da 7e3f d456 7f3f 7c84 803f
00000040: 6fd9 7e3f 36a3 803f 2f92 803f 94c0 7e3f
00000050: 93e5 7e3f 835f 803f 39d6 7e3f a8cd 7e3f
00000060: 6898 803f f3c5 7e3f 05f0 7e3f 0af7 7e3f
00000070: 2df4 7e3f 31a9 803f d6d2 7e3f 149c 803f
0.9959234 0.9953062 0.9961513 1.000377 0.99571645 0.99524814 0.99552226 0.9985017
0.9946893 0.9952647 0.99835086 1.0003628 1.0047169 0.9955202 0.99741864 1.0040431
0.9955053 1.0049808 1.0044612 0.995126 0.9956905 1.0029148 0.9954563 0.99532557
1.0046511 0.99520797 0.9958499 0.995957 0.9959133 1.0051633 0.9954046 1.0047631

norm_lin3.bias f4 [32]
00000000: 8892 963b 65f6 a23b b7f6 a03b 9324 a73b
00000010: 82ab 9d3b 6d9e 3fbb 7520 933b 333b 583b
00000020: d828 9cbb cc73 9f3b 9ded 333b 3c01 a5bb
00000030: 67c3 a0bb a77c 973b 9062 993b 1022 9f3b
00000040: 9625 a03b 365f 9dbb 46d1 a3bb 2a62 993b
00000050: b872 a0bb f0ac 66bb f3b0 9c3b 21c5 9fbb
00000060: b520 9f3b fa36 a0bb c1ee a13b 79e7 9fbb
00000070: ce0c a03b ceb8 8d3a 3fd3 9cbb 4c25 37bb
0.0045951046 0.00497322 0.004912223 0.0051007955 0.004811705 -0.0029238716 0.004489953 0.003299427
-0.004765611 0.004866099 0.002745486 -0.0050355475 -0.0049061063 0.004623014 0.004680939 0.0048563555
0.004887293 -0.00480261 -0.0049993126 0.0046808915 -0.004896488 -0.0035198294 0.004781836 -0.0048757945
0.004856194 -0.004889366 0.0049417918 -0.0048798886 0.004884339 0.0010812522 -0.0047859247 -0.0027945815

norm_lin3.running_mean f4 [32]
00000000: 1774 bb3e a9fb 503e c29c 843e ac85 a93e
00000010: 80c7 fc3e 249e 153f 8f82 423f d6fe c03e
00000020: 82a9 ba3e c31f d63e 3461 383e fc96 493e
00000030: 1118 8e3e 8250 e53e 140f 9b3e bf46 9e3e
00000040: 54cc 223f ae79 3d3d 03cd f63e 321c 853e
00000050: 78b4 a93d d7b5 293f d425 8f3e 0ed9 893e
00000060: 6805 e23d 8af9 d03d 9273 e93e 3a9f b83e
00000070: 5417 bd3e 21f2 933e 142c 063f bb31 7a3e
0.36612007 0.204085 0.25900847 0.33109796 0.49370956 0.5844443 0.75980467 0.37694424
0.3645745 0.41821107 0.1800583 0.19686502 0.27752736 0.44787985 0.3028494 0.3091335
0.6359303 0.04625862 0.48203287 0.25998074 0.08286375 0.6629309 0.27958548 0.26923412
0.110361874 0.10203846 0.45595986 0.3605898 0.3693186 0.28895667 0.5241101 0.24433033
